ablation_study/results/baseline_model.pth (torch, 217065 bytes, 15 tensors)

gru.weight_ih_l0 f4 [192, 13]
0	0x3e887f72	0.26659733
1	0x3e4cdfa8	0.20007193
2	0x3c393bc6	0.011305755
3	0xbe46e3f4	-0.19422895
4	0xbcc27a27	-0.023739887
5	0x3cb67439	0.022272216
6	0x3e251e95	0.16124947
7	0x3da2e0c4	0.07953027
8	0x3debd3cd	0.11515007
9	0x3e8a907b	0.27063355
10	0x3e734a62	0.23758844
11	0xbe36d5cb	-0.17854993
12	0xbd71b1e3	-0.059007537
13	0x3e22bb2e	0.15891716
14	0xbd0da10f	-0.034577426
15	0x3d98b0e2	0.07455613
16	0x3d7a9281	0.061174873
17	0x3c083a6a	0.008314708
18	0xbe0a5ea3	-0.13512664
19	0xbdfecd40	-0.12441492
20	0x3dacfd18	0.08446711
21	0x3e2d7a5f	0.16941212
22	0xbc77c0b6	-0.015121629
23	0xbd160b77	-0.036632027
24	0x3c9b1c9a	0.018934537
25	0x3e5216d6	0.20516524
26	0xbdb5e9a3	-0.08882453
27	0x3e04c8a8	0.1296717
28	0xbc1bdd05	-0.009513144
29	0xbba3946d	-0.004992059
30	0xbd89bb0b	-0.06725129
31	0x3daf073d	0.085463025
32	0x3c3217f7	0.0108699715
33	0x3c02bc20	0.007979423
34	0xbe1e2d9d	-0.15447088
35	0xbdae1bbf	-0.08501386
36	0xbe46fb19	-0.19431724
37	0x3da26b84	0.07930663
38	0xbd16dd12	-0.036831923
39	0x3e716e5b	0.23577254
40	0xbd84c93c	-0.06483695
41	0xbdf306d2	-0.11866535
42	0xbdc70d17	-0.097192936
43	0xbc24b8aa	-0.010053793
44	0x3dd219f9	0.1025886
45	0xbd63f351	-0.055651966
46	0xbc418a40	-0.0118127465
47	0x3dfbad84	0.12288955
48	0x3e7668ad	0.24063368
49	0x3e9b4173	0.3032337
50	0xbc0f4980	-0.008745551
51	0x3cfb8ed4	0.030707754
52	0x3cb6868f	0.02228096
53	0xbdd0bc3d	-0.101921536
54	0x3ca35bfc	0.019941323
55	0xbd7d6108	-0.061860114
56	0xbdc1e70b	-0.09467896
57	0xbd017145	-0.031602163
58	0x3d394e43	0.04524065
59	0x3d9dbeae	0.07702385
60	0x3c4ebe57	0.012618623
61	0xbdda6728	-0.10664207
62	0xbd288396	-0.041141115
63	0x3de06cc9	0.10958249
64	0x3e57a78b	0.21060006
65	0x3e6ea615	0.23305543
66	0x3d4e79a9	0.050408993
67	0x3d5694f6	0.052388154
68	0x3d910cb6	0.070825025
69	0x3d197b12	0.037470885
70	0xbe077d26	-0.13231334
71	0xbce639e8	-0.028103784
72	0x3d77e244	0.060518518
73	0x3d932f4f	0.07186758
74	0x3e2b88ec	0.1675145
75	0x3d3f376b	0.04668371
76	0xbd69789e	-0.056999795
77	0x3c1ed577	0.009694449
78	0xbc38a552	-0.011269884
79	0xbda8220d	-0.0820962
80	0x3d2d950f	0.04237848
81	0xbdf5f238	-0.1200909
82	0xbe0eef39	-0.13958444
83	0x3da8b36c	0.08237347
84	0xbc67fe34	-0.014159728
85	0xbd5ea40c	-0.054355666
86	0xbcf2b1cc	-0.029625796
87	0x3e3abc74	0.18235952
88	0xbd0a5982	-0.033776768
89	0xbd31740c	-0.04332356
90	0x3d33da35	0.04390927
91	0x3e53d269	0.20685734
92	0x3d0f8a0c	0.03504376
93	0x3e7f187f	0.24911688
94	0xbac6fe46	-0.001518198
95	0xbcaafb20	-0.020871699
96	0xbe2d69b2	-0.16934851
97	0x3d0a0a29	0.033701096
98	0xbd80fd88	-0.06298357
99	0x3e250efe	0.16119
100	0x3e8aeefa	0.2713545
101	0xbbe99e5e	-0.0071294745
102	0xbcc72919	-0.02431159
103	0x3d50db3e	0.050990336
104	0xbe5bc57a	-0.2146205
105	0x3d854d84	0.065089256
106	0xbcc53942	-0.024075154
107	0xbd998f13	-0.07497992
108	0x3dc941d6	0.0982701
109	0x3dd8f2c4	0.10593179
110	0x3db8880b	0.09010323
111	0x3de45b7a	0.1115026
112	0xbe164fdd	-0.14678903
113	0xbe21bbf5	-0.15794356
114	0xbd6cf316	-0.057849012
115	0x3d402b71	0.04691643
116	0x3dbb2b4b	0.09139117
117	0xbc0d2820	-0.008615524
118	0x3d991c44	0.07476094
119	0xbe51e698	-0.20498121
120	0x3dcaee0f	0.09908687
121	0x3df861ee	0.121280536
122	0x3b937c27	0.004500884
123	0xbd2e9b8c	-0.04262881
124	0x3d4b84a8	0.049687058
125	0x3dfe8e2c	0.12429461
126	0x3db177a6	0.08665399
127	0xbd0fea4c	-0.035135552
128	0xbe8cc1c3	-0.27491578
129	0xbe4c576f	-0.19955228
130	0x3da5a3a7	0.08087855
131	0xbd7c108a	-0.06153921
132	0xbd96c799	-0.07362289
133	0xbd10973d	-0.035300482
134	0xbd8a7439	-0.06760449
135	0x3dde4b33	0.10854187
136	0xbe39417d	-0.18091388
137	0xbc8d9670	-0.017283648
138	0xbd59c2b0	-0.053164184
139	0x3d52feaf	0.051512416
140	0x3c4ca051	0.012489394
141	0x3c6d8c8a	0.014498839
142	0xbe1aade2	-0.15105394
143	0x3b657ca9	0.003501693
144	0x3d60472f	0.054755386
145	0x3d0a5efb	0.033781987
146	0x3de573ce	0.112037286
147	0x3c937d9d	0.018004233
148	0xbd788f81	-0.06068373
149	0xbbba55f3	-0.0056865155
150	0xbdf3cfd0	-0.119048715
151	0x3db7015b	0.089358054
152	0x3e0460ea	0.12927595
153	0x3c8e4fdf	0.01737207
154	0xbe63d6ad	-0.22249861
155	0xbe4e1fbc	-0.20129293
156	0xbe5d95fb	-0.21639244
157	0x3c7c2ac5	0.015391056
158	0xbe3f75e2	-0.18697312
159	0xbe3e12ba	-0.18561831
160	0xbdbf0ec0	-0.09328985
161	0x3e5a8458	0.21339548
162	0xbde6e49d	-0.11274073
163	0xbdcf3eb6	-0.10119383
164	0xbe77422a	-0.24146333
165	0xbe3e74bd	-0.1859922
166	0xbc272710	-0.010202184
167	0xbc93d274	-0.018044688
168	0x3dbb478a	0.09144504
169	0x3dcc72a3	0.09982803
170	0xbd36364d	-0.04448538
171	0xbd85e46c	-0.06537709
172	0x3dba1e1b	0.090877734
173	0x3d32b60e	0.043630652
174	0xbce57f49	-0.028014796
175	0xbc073508	-0.00825239
176	0x3ccd54f8	0.02506493
177	0x3dbad067	0.09121781
178	0x3dd3fe62	0.10351254
179	0x3db7a027	0.089660935
180	0x3c60ecc8	0.013728328
181	0xbdaba595	-0.08381192
182	0xbc01a63a	-0.007913167
183	0xbd8eb2ca	-0.06967695
184	0x3dbe9e75	0.09307567
185	0xbd6f08e5	-0.05835809
186	0x3d8c053e	0.06836937
187	0xbd023b9b	-0.031795125
188	0x3d2e95d7	0.042623367
189	0xbdd32690	-0.103100896
190	0x3e08ef16	0.13372454
191	0xbd2ce756	-0.042212807
192	0x3e4f457f	0.20241354
193	0xbd8191ab	-0.06326612
194	0xbe172287	-0.14759265
195	0x3dc2acf5	0.09505645
196	0xba83ddcb	-0.0010060606
197	0x3d88189b	0.06645318
198	0xbd61921f	-0.055070993
199	0xbe1aae5e	-0.15105578
200	0xbdedfa74	-0.11620036
201	0x3ca1c30f	0.019746331
202	0x3dc55480	0.09635258
203	0x3e725c56	0.23668036
204	0x3dd63ee2	0.10461213
205	0x3c0f1ea7	0.008735335
206	0x3e0ce213	0.13758115
207	0x3c9ad26f	0.01889917
208	0x3ceef3b1	0.029168935
209	0x3c56fde8	0.013122059
210	0xbdeb01f4	-0.11474982
211	0x3b4e7c2d	0.003150712
212	0x3da03907	0.07823377
213	0xbd5ef8db	-0.054436546
214	0x3d3910ef	0.045182165
215	0x3da333a8	0.07968837
216	0x3d0c00fd	0.03418063
217	0x3d9a4ae0	0.075338125
218	0x3d8f9371	0.07010544
219	0xbb263c76	-0.0025365627
220	0xbde21ff3	-0.1104125
221	0x3e1e2dd7	0.15447174
222	0xbd0935aa	-0.033498444
223	0x3e1cec18	0.15324438
224	0xbe00bcc0	-0.12572002
225	0xbc4d789a	-0.012540961
226	0xbccf2efd	-0.02529096
227	0x3cc03ccf	0.023466496
228	0x3da71334	0.081579596
229	0x3e23e272	0.16004351
230	0xbd4c9841	-0.04994989
231	0x3d8b3004	0.06796268
232	0x3dacf81d	0.08445761
233	0x3e89bc68	0.26901555
234	0xbd0f0f5a	-0.03492675
235	0xbd9aff2d	-0.07568202
236	0x3d9c9c42	0.07646991
237	0xbbba6bd4	-0.0056891236
238	0xbc3b4f3b	-0.011432464
239	0xbd98d691	-0.074628
240	0x3dd881ca	0.1057163
241	0xbdffd088	-0.12490946
242	0x3db984bc	0.0905852
243	0x3da531d5	0.08066145
244	0x3e0f2617	0.13979374
245	0x3e05cbd5	0.13066037
246	0x3e4affce	0.19824144
247	0x3ebc7372	0.36806828
248	0xbda8e5cf	-0.082469575
249	0xbd214be7	-0.039379027
250	0x3d7c64e5	0.061619658
251	0x3e1f9bef	0.15586828
252	0xbd924afc	-0.071432084
253	0xbe1aec17	-0.15129124
254	0xbd5920f4	-0.053009942
255	0x3dae1805	0.08500675

gru.weight_hh_l0 f4 [192, 64]
0	0x3d01948d	0.03163581
1	0x3d1ee547	0.038792875
2	0x3d273511	0.040822092
3	0x3d04d557	0.03243002
4	0x3d067f09	0.032835994
5	0x3dad1962	0.08452107
6	0xbdb6ec68	-0.0893181
7	0xbdda2e30	-0.10653341
8	0x3caceae0	0.02110809
9	0xbe07c5e7	-0.13259088
10	0x3debec72	0.11519708
11	0x3cffeb6f	0.031240193
12	0xbdab604d	-0.08367977
13	0xbd432d08	-0.047650367
14	0x3dab3bfe	0.08361052
15	0xbcdc5c05	-0.026899347
16	0xbe3d66b9	-0.18496217
17	0xbd3e7eec	-0.04650776
18	0x3e21e5f8	0.15810382
19	0xbd511c5a	-0.05105243
20	0x38d74728	0.00010265253
21	0xbe132fb5	-0.14373668
22	0xbc8a70c8	-0.016899481
23	0xbe1628ab	-0.14663951
24	0xbde4046c	-0.11133656
25	0x3e7216a8	0.23641455
26	0xbdca86b2	-0.09888972
27	0x3d784fe4	0.060623065
28	0xbd03a6a0	-0.032141328
29	0x3dbb133e	0.091345295
30	0xbdaa5339	-0.08316655
31	0x3aa4418e	0.0012531744
32	0xbe4f09a2	-0.20218518
33	0x3daf5dbd	0.08562801
34	0x3c737e8d	0.014861715
35	0xbd2d34c1	-0.04228664
36	0x3c0aa131	0.008461283
37	0x3d47f567	0.04881802
38	0x3e0dc3d5	0.13844235
39	0x3d64cf97	0.055862036
40	0xbe21e953	-0.15811662
41	0x3ccf8533	0.025332069
42	0xbdbd912b	-0.09256204
43	0xbea451af	-0.3209357
44	0xbdbe3cc5	-0.092889346
45	0xbe261fa5	-0.16223009
46	0x3dbee563	0.09321096
47	0xbd49b103	-0.049241077
48	0xbe010ff8	-0.12603748
49	0xbdce38fe	-0.10069464
50	0x3e467921	0.19382145
51	0x3dd2e75d	0.10298035
52	0xbdee494a	-0.116350725
53	0xbd1f5429	-0.03889862
54	0x3e1aca7f	0.15116309
55	0xbcabc869	-0.020969586
56	0xbdb18913	-0.08668723
57	0xbd22cc34	-0.039745525
58	0x3dd3f884	0.10350135
59	0x3e756290	0.2396338
60	0xbe159317	-0.14606892
61	0xbdf0e04a	-0.1176153
62	0x3dc8aabd	0.09798191
63	0xbc13aa89	-0.009012827
64	0x3c25a427	0.010109938
65	0x3de97889	0.113999434
66	0x3cae1dfb	0.02125453
67	0xbe08a896	-0.1334556
68	0xbd904a2b	-0.070453964
69	0xbd820e4b	-0.063503824
70	0xbc91278a	-0.017719049
71	0x3dfc49d2	0.123187676
72	0xbd5a7288	-0.05333188
73	0x3d38f762	0.045157798
74	0x3e25a3aa	0.16175714
75	0x3d064d09	0.03278831
76	0x3d4d8cee	0.05018323
77	0x3dc212fc	0.09476277
78	0x3ce55b33	0.027997589
79	0x3d9b8733	0.075941466
80	0xbdebe283	-0.11517813
81	0xbd79444c	-0.06085615
82	0x3d855f97	0.06512373
83	0xbe0004a3	-0.12501769
84	0xbd7574c1	-0.0599258
85	0xbded454d	-0.11585484
86	0x3e1ea3fa	0.1549224
87	0xbbf06913	-0.0073367446
88	0x3c187cdd	0.0093071135
89	0x3e68afc9	0.22723307
90	0xbe2af7d0	-0.16696095
91	0xbda2bf2e	-0.07946621
92	0xbdae4d15	-0.08510796
93	0xbe5932be	-0.21210763
94	0xbd85151b	-0.06498166
95	0x3d5fe665	0.05466308
96	0xbdaef0c6	-0.08542018
97	0xbc1beab7	-0.00951641
98	0x3b371809	0.002793791
99	0x3bdf2f37	0.0068110484
100	0xbe15b9c7	-0.1462165
101	0x3d232847	0.039833333
102	0xbd4795de	-0.04872691
103	0x3e04b673	0.12960224
104	0xbe3add52	-0.1824849
105	0xbd183493	-0.037159514
106	0xbdcd6ff1	-0.10031117
107	0x3b7ca345	0.0038549465
108	0xbe328657	-0.17434059
109	0xbdb63e01	-0.08898545
110	0xbc33dc6d	-0.010977847
111	0x3dcf7a92	0.101308
112	0xbe14acf4	-0.14519101
113	0xbc4ee1e8	-0.012627102
114	0xbd404fe2	-0.046951182
115	0x3cd0d643	0.025492793
116	0xbe780403	-0.2422028
117	0x3d7da0ee	0.061921053
118	0xba1d7a0e	-0.0006007262
119	0xbdda02cd	-0.106450655
120	0xbe274b0d	-0.16337223
121	0x3e0671a7	0.13129292
122	0x3d7438e4	0.059624568
123	0x3d9435e6	0.07236843
124	0xbd9da159	-0.0769679
125	0xbd053950	-0.03252536
126	0xbb8f829d	-0.004379584
127	0xbdf54233	-0.11975517
128	0xbddab00c	-0.106781095
129	0xbd6e7759	-0.058219288
130	0x3da6eedd	0.08151028
131	0x3c3b310b	0.011425267
132	0xbd46dbed	-0.04854958
133	0x3d7a1be5	0.06106176
134	0xbcc41ed6	-0.023940485
135	0x3dbaa5d4	0.091136605
136	0xbbbb6417	-0.0057187187
137	0xbdc75bfb	-0.09734341
138	0x3d34f252	0.044176407
139	0xbbca6894	-0.0061770175
140	0xbd8d2f82	-0.06893827
141	0x3dedd5bd	0.11613033
142	0xbdc0393f	-0.09385919
143	0x3e306495	0.17225869
144	0xbe15823e	-0.14600465
145	0xbdd2181f	-0.10258507
146	0x3e58821a	0.2114338
147	0xbc4f0b25	-0.012636934
148	0xbd274b8b	-0.040843528
149	0xbd269d89	-0.04067758
150	0xbb313d99	-0.0027044772
151	0xbd0c65e3	-0.034276854
152	0xbd8e0b0a	-0.06935699
153	0xbd520842	-0.051277407
154	0xbdbd7ca4	-0.09252289
155	0xbe3b643a	-0.18299952
156	0xbe2962d7	-0.1654161
157	0x3b4641c3	0.00302516
158	0xbdd5e800	-0.10444641
159	0xbc23c1b0	-0.009994909
160	0x3c030579	0.00799691
161	0x3dcc626b	0.09979709
162	0x3e28e369	0.16493
163	0x3bdea04c	0.006794011
164	0xbd301ac7	-0.042994287
165	0x3da157d0	0.07878077
166	0xbceb4872	-0.028721068
167	0x3ddc2679	0.107495256
168	0x3cc0faa5	0.023557017
169	0xbc4ce31f	-0.012505322
170	0xbdd0cbaa	-0.10195096
171	0x3d58e6de	0.052954547
172	0xbcb35332	-0.021890257
173	0x3ce42d96	0.027853768
174	0xbd2fd5ba	-0.042928435
175	0x3e0f068d	0.13967343
176	0x3ca8df02	0.02061415
177	0x3c7017e9	0.014654138
178	0x3e1d5c9e	0.15367362
179	0xbd0925ad	-0.033483196
180	0x3c28994d	0.010290456
181	0xbc0c2b95	-0.008555313
182	0x3dc8c278	0.09802717
183	0xbdebe045	-0.115173854
184	0x3da6b2e9	0.08139593
185	0x3d5e18fb	0.054223042
186	0xbda5a3ae	-0.0808786
187	0x3e11d330	0.14240718
188	0x3ce0b410	0.02742961
189	0xbd3fb799	-0.04680595
190	0x3e1bddd1	0.15221335
191	0x3cdce3a2	0.026964013
192	0x3df9744b	0.12180384
193	0x3d247666	0.040151976
194	0xbc49297f	-0.01227796
195	0x3d826d06	0.06368451
196	0x3dc75169	0.09732325
197	0x3d12b9d5	0.035821754
198	0x3d3e77a2	0.04650081
199	0x3d57d051	0.0526889
200	0xbddc1472	-0.10746087
201	0xbce0481e	-0.027378138
202	0x3de2d61a	0.11075993
203	0x3d22e022	0.03976453
204	0xbdec8e89	-0.11550624
205	0xbc648d3f	-0.013949691
206	0x3de54458	0.11194676
207	0x3d2e9828	0.042625576
208	0xbe145fc4	-0.14489657
209	0x3d90464c	0.07044658
210	0xbd453a45	-0.048151273
211	0x3d81209d	0.063050486
212	0xbdc91c92	-0.098199025
213	0xbe608dc8	-0.21929085
214	0x3df689a1	0.120379694
215	0x3dab6378	0.083685815
216	0xbbc66afa	-0.006055233
217	0x3ddcceeb	0.10781654
218	0xbc01c28e	-0.007919921
219	0xbd4aa48e	-0.049473338
220	0xbd1940a1	-0.03741515
221	0x3c84a9c9	0.016194241
222	0x3e2c943c	0.16853422
223	0xbdb43e96	-0.08801
224	0xbba08f93	-0.004899928
225	0x3cca5e19	0.024703072
226	0xbdc10c6e	-0.09426199
227	0xbd4e3c85	-0.050350685
228	0x3db3f99a	0.08787842
229	0xbdb2c03b	-0.08728071
230	0x3dd16e9f	0.102261774
231	0x3d9f86a0	0.077893496
232	0xbcbb04e5	-0.022829482
233	0x3df13d15	0.117792286
234	0xbdb5202f	-0.08844029
235	0xbe43ff11	-0.19140269
236	0xbe0be5c9	-0.13661875
237	0x3a06b6af	0.00051389163
238	0xbde3e76a	-0.11128123
239	0x3e4e4af5	0.20145781
240	0x3c8717f0	0.016490906
241	0xbe07b5bd	-0.13252921
242	0x3e2e1afd	0.17002483
243	0x3d5befea	0.053695597
244	0xbe2b4376	-0.16724953
245	0x3d89d0a0	0.06729245
246	0x3d0a872d	0.03382032
247	0x3e27f7c7	0.16403113
248	0x3e029107	0.12750636
249	0x3e1646a2	0.14675382
250	0x3df18b2e	0.117941245
251	0x3e477e3b	0.19481747
252	0xbd71b38a	-0.059009112
253	0x3d0db6a7	0.03459802
254	0xbce26606	-0.02763654
255	0xbe2abf8c	-0.16674632

gru.bias_ih_l0 f4 [192]
0	0x3cc44424	0.023958273
1	0xbdbb8754	-0.09156671
2	0xbdc703d5	-0.09717528
3	0xbcd28aab	-0.025700888
4	0x3dde0867	0.10841446
5	0xbd61a833	-0.055092048
6	0x3e480c04	0.19535834
7	0x3cc7bd0a	0.024382133
8	0xbbcc2b33	-0.0062307357
9	0xbccd21b6	-0.025040489
10	0x3e4033ec	0.18769807
11	0x3d77b5e4	0.0604762
12	0x3e16ed5e	0.14738986
13	0x3d845ca9	0.06462986
14	0x3e3ece6a	0.18633428
15	0xbdd52bf5	-0.10408775
16	0x3e4a46ed	0.19753619
17	0x3e2f55a5	0.17122515
18	0x3e354f4b	0.17706029
19	0x3c149a94	0.009070057
20	0xbe219ff0	-0.15783668
21	0x3e440525	0.19142587
22	0xbdb999fc	-0.09062573
23	0x3c007d3e	0.00784236
24	0x3e2209c9	0.15824045
25	0x3d514851	0.051094357
26	0x3df8090e	0.12111102
27	0x3d738cda	0.0594605
28	0xbbfdfe12	-0.007751235
29	0x3db24cef	0.0870608
30	0xbe03d20a	-0.12873092
31	0x3df855b2	0.1212572
32	0x3d96e6f8	0.073682725
33	0xbd25f7ff	-0.04051971
34	0xbcdd69a3	-0.02702791
35	0x3e646dad	0.22307463
36	0x3d7c976d	0.06166785
37	0x3e519d67	0.204702
38	0x3e231925	0.1592756
39	0x3dc92e10	0.09823239
40	0x3daefe9b	0.08544656
41	0xb81de6ac	-3.7646547e-05
42	0x3de9882d	0.114029266
43	0xbd9a4631	-0.07532919
44	0xbe360b12	-0.1777766
45	0xbd60ee19	-0.054914568
46	0x3da9e718	0.08296031
47	0x3cf8db97	0.030378146
48	0x3d9d089d	0.076676585
49	0x3df5ae2e	0.11996113
50	0x3d96748e	0.0734645
51	0xbd96b0ac	-0.07357916
52	0xbd084224	-0.0332662
53	0x3cb015d5	0.021494785
54	0x3cb3b6b6	0.02193771
55	0x3d10955f	0.0352987
56	0xbd806901	-0.06270028
57	0x3e1a539e	0.1507096
58	0x3d8c679c	0.068556994
59	0xbc61a6d3	-0.013772684
60	0x3e07a7fc	0.13247675
61	0x3e16524d	0.14679833
62	0x3d0bad0d	0.03410058
63	0xbca680f4	-0.020325162
64	0x3c705242	0.014668049
65	0x3cb78567	0.022402478
66	0x3d18de75	0.037321527
67	0xbc6fc433	-0.01463418
68	0x3cda9bbc	0.026685588
69	0x3dd7c97c	0.10536477
70	0xbdd72fb1	-0.10507143
71	0x3dfc0ee7	0.1230753
72	0x3d003488	0.031300098
73	0x3c345eed	0.01100896
74	0xbd68b060	-0.05680883
75	0xbe5a89f1	-0.21341683
76	0x3ca1c6b6	0.019748073
77	0xbdd52f5a	-0.10409422
78	0x3d09d5ab	0.033651035
79	0xbd1d3610	-0.038381636
80	0xbc6d602a	-0.014488259
81	0x3cb6563c	0.022257917
82	0xbde8f95a	-0.11375685
83	0xbd15f99d	-0.036615003
84	0xbd3bd9c3	-0.04586197
85	0xbe24e078	-0.16101253
86	0xbcd5db3c	-0.026105516
87	0x3c014db0	0.007892057
88	0xbc96e28e	-0.018418577
89	0xbe0770e0	-0.13226652
90	0xbc8b8c70	-0.01703474
91	0xbd90b90f	-0.07066547
92	0xbd7213ac	-0.05910079
93	0xbdfb8bee	-0.12282549
94	0x3d5445ee	0.051824503
95	0xbde80ec8	-0.11330944
96	0x3d92b05a	0.07162543
97	0xbbc48ff1	-0.0059986045
98	0xbb226a05	-0.002478243
99	0x3d1750d0	0.036942303
100	0x3c6c8953	0.0144370375
101	0xbddecf36	-0.10879366
102	0xbca0e140	-0.019638658
103	0xbc6563c7	-0.01400084
104	0xbdf3ab7e	-0.11897944
105	0xbbac4e05	-0.005258324
106	0xbb0ad77f	-0.0021185575
107	0x3d89139a	0.06693192
108	0x3d8cd8ab	0.06877264
109	0xbd98ef28	-0.074674904
110	0xbd6ebb4a	-0.05828408
111	0xbdacd547	-0.08439117
112	0x3c97963b	0.018504253
113	0x3d17be31	0.037046615
114	0xbdc09275	-0.094029345
115	0x3d9a4e7c	0.07534501
116	0x3d573a64	0.05254592
117	0xbdff0cc2	-0.12453605
118	0xbe1c073f	-0.15237139
119	0x3d62fc67	0.05541649
120	0x3c043970	0.008070335
121	0xbe012b20	-0.12614107
122	0x3da0c484	0.078499824
123	0x3d9c710a	0.07638748
124	0xbe4c84cb	-0.19972531
125	0xbd18c56b	-0.037297647
126	0xbdb17386	-0.086646125
127	0xbd59034a	-0.052981652
128	0x3e0f33e1	0.13984634
129	0xbe0b0fa7	-0.1358019
130	0xbd38ce62	-0.045118697
131	0x3e1e5c71	0.15464951
132	0x3e1946b5	0.14968379
133	0x3dad3cf7	0.08458894
134	0x3e4d52c5	0.20051105
135	0x3d56a711	0.05240542
136	0x3dda4c3a	0.1065907
137	0x3d6ce050	0.05783111
138	0xbe30a79a	-0.17251435
139	0xbe3bd10f	-0.18341468
140	0x3d11eb2e	0.035624675
141	0xbe13354e	-0.14375803
142	0x3e44bf0e	0.19213507
143	0xbe3b27c7	-0.18276893
144	0x3e18364e	0.14864466
145	0x3cfa2b7d	0.030538315
146	0xbe3995fa	-0.18123618
147	0x3e21bdc4	0.15795046
148	0xbe43f8eb	-0.19137923
149	0x3cba19f6	0.022717457
150	0xbe1b700e	-0.15179464
151	0x3e0f2a56	0.13980994
152	0x3d7925dc	0.06082712
153	0x3ddf8c00	0.10915375
154	0x3e28794e	0.16452524
155	0x3e289715	0.16463883
156	0x3cf6167a	0.030040015
157	0x3e185513	0.14876203
158	0x3dd1c225	0.10242108
159	0x3e44551b	0.1917309
160	0xbd8fdbfe	-0.07024382
161	0xbdea2fc5	-0.114348926
162	0xbdce0b80	-0.10060787
163	0xbdc4d6ad	-0.09611259
164	0x3e42e009	0.19030775
165	0xbdcba64c	-0.09943828
166	0xbe1f6dd9	-0.15569247
167	0xbb9e6183	-0.0048334016
168	0x3e504251	0.20337798
169	0xbc34459c	-0.011002924
170	0x3e167924	0.14694649
171	0xbdafbac8	-0.085805476
172	0xbd6b561f	-0.05745518
173	0x3c294db9	0.010333472
174	0x3da48840	0.080338
175	0x3cfda690	0.030963212
176	0x3d32d427	0.043659355
177	0xbe4156c7	-0.18880759
178	0x3d814b00	0.06313133
179	0x3e127e65	0.14306028
180	0xbdb1d192	-0.086825505
181	0xbe163a29	-0.14670624
182	0xbe06bb0b	-0.13157289
183	0x3e2d75b0	0.16939425
184	0x3d7ec644	0.0622008
185	0xbe25236f	-0.16126798
186	0x3bfa6043	0.00764087
187	0xbe1b98ba	-0.1519498
188	0x3e3fcb67	0.18729936
189	0x3cc3a07e	0.02388024
190	0xbe148743	-0.14504723
191	0x3e4f5935	0.20248874

gru.bias_hh_l0 f4 [192]
0	0x3d5b9db3	0.05361719
1	0xbdb5b218	-0.08871859
2	0xbdaebf59	-0.085325904
3	0x3de8705d	0.113495566
4	0x3e023a55	0.12717564
5	0xbe4d5e93	-0.20055608
6	0x3da0a70a	0.0784436
7	0xbce35cb5	-0.027754167
8	0xbc01d4f9	-0.007924312
9	0x3e00c72c	0.12575978
10	0x3e46de4f	0.19420741
11	0xbd436ad1	-0.04770929
12	0x3db53789	0.08848483
13	0x3e1bd880	0.15219307
14	0xbcd0caa5	-0.025487253
15	0xbd9bb90a	-0.07603653
16	0x3dac205a	0.08404608
17	0x3cb2bf0e	0.021819618
18	0xbd1e16b7	-0.03859588
19	0x3dcb1ee6	0.09918003
20	0x3d50692a	0.050881542
21	0x3cd26f1e	0.02568775
22	0xbdda4369	-0.10657389
23	0x3ce0af5e	0.027427372
24	0xbcb95b9b	-0.022626689
25	0xbe07be93	-0.13256292
26	0x3d7553a4	0.05989422
27	0x3e391fba	0.18078509
28	0xbd05919f	-0.03260958
29	0x3ddc744c	0.10764369
30	0xbd8d7da6	-0.06908731
31	0x3dccfc98	0.10009116
32	0xbda44b7f	-0.08022212
33	0x3ccc2b98	0.02492313
34	0x3d38121f	0.044939157
35	0x3ca481c7	0.020081414
36	0x3bad9370	0.005297117
37	0x3e05b556	0.13057455
38	0xbd44146e	-0.047871046
39	0x3e29c1fd	0.16577907
40	0xbc52accc	-0.012858581
41	0x3beb968a	0.0071895765
42	0x3e417e22	0.18895772
43	0xbe153db0	-0.14574313
44	0xbbd68359	-0.0065464196
45	0x3c9e6336	0.019334417
46	0x3c812ea1	0.015769305
47	0x3d0e29ca	0.034707822
48	0x3e3513a5	0.17683275
49	0xbc816a47	-0.015797747
50	0x3db22b63	0.086996816
51	0xbcbeb580	-0.023279905
52	0xbdba605e	-0.09100412
53	0x3e239f03	0.15978627
54	0x3c97d3bf	0.018533586
55	0x3d913f76	0.07092182
56	0xbdee8238	-0.11645931
57	0x3cab1562	0.02088422
58	0xbc870b43	-0.016484862
59	0xbd2274de	-0.039662234
60	0x3d02fecf	0.031981286
61	0x3b80f606	0.0039355783
62	0xbb373279	-0.0027953668
63	0x3d9eec56	0.07759921
64	0xbd99460a	-0.07484062
65	0x3b534ac6	0.0032240613
66	0x3ca9ec51	0.020742567
67	0x3da6302b	0.08114656
68	0xbdc58e2d	-0.096462585
69	0xbde07206	-0.10959248
70	0x3b1b91fc	0.0023738137
71	0xbcfa6b85	-0.030568847
72	0xbd6d1d78	-0.05788943
73	0x3ad8a495	0.0016528541
74	0x3d1402c1	0.03613544
75	0xbe5b75f3	-0.21431713
76	0xbd917496	-0.07102315
77	0xbe4f61a9	-0.20252098
78	0x3d0450eb	0.032303732
79	0xbd313d6d	-0.04327147
80	0xbe1bbec5	-0.15209492
81	0xbd587b39	-0.05285189
82	0xbdcd48cd	-0.10023651
83	0xbe0767ef	-0.13223241
84	0xbdadef7c	-0.08492944
85	0xbda9ce19	-0.08291263
86	0xba8355da	-0.0010020093
87	0x3c5adc20	0.013358146
88	0xbceaf97c	-0.028683417
89	0xbdcd3507	-0.1001988
90	0x3d872148	0.06598145
91	0xbcda4441	-0.026643874
92	0x3df4513c	0.11929557
93	0x3d7d6ff4	0.061874345
94	0x3cc7c209	0.024384515
95	0xbe2c01f3	-0.16797619
96	0xbe08e912	-0.1337016
97	0xbca6aed9	-0.020347046
98	0x3c9513b6	0.018197875
99	0x3cfcc18d	0.030854011
100	0x3c27371d	0.010206011
101	0x3d631345	0.0554383
102	0x3ad39484	0.0016142284
103	0xb98311ba	-0.00024999474
104	0xbe52059d	-0.20509954
105	0x3c956d1d	0.018240506
106	0xbe6bac10	-0.23014855
107	0x3d8d9333	0.06912842
108	0xbdfe9a84	-0.12431815
109	0xbde1707c	-0.11007783
110	0xbe165f37	-0.14684759
111	0xbde9f097	-0.11422842
112	0xbe02ae3e	-0.1276178
113	0x3d59c239	0.05316374
114	0xbd0190dc	-0.03163229
115	0xbd34d5e6	-0.044149302
116	0x3dba4dfa	0.09096904
117	0xbd9b0a8a	-0.075703695
118	0xbce7ce76	-0.02829669
119	0xbdb78ab1	-0.08962
120	0xbe02f8df	-0.1279025
121	0xbd4d6939	-0.050149176
122	0x3dbdd94d	0.092699625
123	0x3c35f4cb	0.0111057265
124	0xbe1cac01	-0.1529999
125	0xbe3114c1	-0.17293073
126	0x3d8b6ee3	0.06808259
127	0xbdc0647d	-0.093941666
128	0xbd3e50a7	-0.046463635
129	0x3d6af404	0.057361618
130	0x3d7ad437	0.06123754
131	0x3e4cc704	0.19997793
132	0x3e201dc1	0.1563635
133	0x3cdcefe7	0.026969863
134	0x3e39ef55	0.18157704
135	0xbe11aceb	-0.14226119
136	0x3e3d5c39	0.18492211
137	0x3e5011dc	0.20319313
138	0xbda36dbf	-0.07979917
139	0xbe0298db	-0.12753622
140	0x3d182c9d	0.03715192
141	0xbe4dd518	-0.2010082
142	0x3ddfaccd	0.10921631
143	0x3cc14e20	0.023596823
144	0x3e3c60d7	0.18396316
145	0x3e4738f4	0.1945532
146	0xbdc94333	-0.0982727
147	0x3e301d32	0.17198637
148	0x3cdceb37	0.026967628
149	0xbd0242c6	-0.03180196
150	0xbd5d2ef9	-0.053999875
151	0x3de2b43c	0.11069533
152	0x3dced03c	0.10098311
153	0xbd816d32	-0.063196555
154	0x3d8b8f03	0.06814387
155	0x3d987dcd	0.074458696
156	0xbb15dad1	-0.002286602
157	0x3ddd86cb	0.10816725
158	0x3c9d189e	0.019176777
159	0x3de2b501	0.1106968
160	0x3b8898ec	0.0041686203
161	0x3c2d14cf	0.010564043
162	0xbe4f9bd9	-0.20274295
163	0xbdb17202	-0.086643234
164	0x3e42b54d	0.19014473
165	0xbe1bc8a7	-0.15213262
166	0xbe46ed7e	-0.19426534
167	0xbe1dd857	-0.15414558
168	0x3dbd8e22	0.09255625
169	0xbd8e146e	-0.069374904
170	0x3d445996	0.047937
171	0x3cb501e5	0.02209563
172	0xbdd326a4	-0.103101045
173	0x3e34f594	0.17671806
174	0x3ce52d6b	0.027975759
175	0xbe1ddfbc	-0.15417379
176	0x3e2f367e	0.17110631
177	0xbe36ec78	-0.17863643
178	0xbd9ae985	-0.075640716
179	0xbd402cde	-0.04691779
180	0x3c7ad4ab	0.015309493
181	0xbb822724	-0.003971951
182	0xbd22f3cc	-0.039783284
183	0x3c77a5d2	0.015115218
184	0xbd68696d	-0.056741167
185	0x3c64b780	0.013959765
186	0xb8a82e01	-8.019433e-05
187	0x3dca778e	0.098860845
188	0x3ba6662e	0.0050780987
189	0x3d537a22	0.051630147
190	0xbbc52694	-0.0060165618
191	0x3dc428e6	0.09578113

gru.weight_ih_l0_reverse f4 [192, 13]
0	0x3e2d5d43	0.16930108
1	0xbacb9a58	-0.0015533669
2	0x3e0fcb9c	0.14042515
3	0x3c7b1d50	0.015326813
4	0x3e1c8ef1	0.15288903
5	0xbdf8a22e	-0.12140308
6	0xbc937d72	-0.018004153
7	0x3d949a72	0.072560206
8	0x3c535111	0.012897746
9	0x3d8ce8c7	0.06880336
10	0xbd2e1fb4	-0.042510703
11	0x3e727ff0	0.23681617
12	0x3e22667a	0.15859404
13	0xbd2ef632	-0.04271526
14	0xbdbe6af7	-0.09297746
15	0xbd9dab8c	-0.076987356
16	0xbdbae759	-0.09126157
17	0xb8e74e2b	-0.00011029498
18	0x3d7d0b0b	0.06177811
19	0xbcb5067c	-0.022097819
20	0x3c276490	0.010216847
21	0xbd108b61	-0.035289172
22	0x3d8d5cf6	0.069024965
23	0x3da506f0	0.08057964
24	0xbca97ad9	-0.020688461
25	0x3d9b1f35	0.07574312
26	0x3d7476e4	0.059683695
27	0xbd4f789c	-0.05065213
28	0x3dd3206c	0.10308918
29	0xbdfe0097	-0.12402456
30	0x3de95850	0.113937974
31	0xbe60628b	-0.21912591
32	0x3e198887	0.14993487
33	0x3d304008	0.043029815
34	0x3e65636b	0.22401206
35	0xbd8dd998	-0.06926268
36	0xbd6386b8	-0.0555484
37	0x3d19baad	0.037531544
38	0x3d319b27	0.043360855
39	0xbe08be62	-0.13353875
40	0x3d46477e	0.048408024
41	0x3de349f4	0.1109809
42	0x3d66445d	0.05621754
43	0x3e22be7a	0.15892974
44	0x3d1a6d7e	0.037702076
45	0x3d1fc384	0.039004818
46	0xbdf9b2fc	-0.12192342
47	0xbd8d43f5	-0.068977274
48	0xbd2ddb28	-0.04244533
49	0x3e1e2c62	0.15446618
50	0xbd5068a4	-0.050881043
51	0xbe4e928c	-0.2017309
52	0x3d8b9fd7	0.068175964
53	0x3df0a43a	0.11750074
54	0xbe15a4f0	-0.146137
55	0x3b98f408	0.0046677627
56	0x3e1c9af3	0.15293483
57	0xbe1e8c95	-0.15483315
58	0xbdd6c961	-0.10487629
59	0x3d333298	0.04374942
60	0xbc7f3755	-0.015577157
61	0xbd1339fc	-0.03594397
62	0x3d3c6744	0.04599692
63	0xbcacecba	-0.021108974
64	0xbd460843	-0.048347723
65	0x3e3d8284	0.18506819
66	0x3dbe25b3	0.09284534
67	0x3d376989	0.04477838
68	0xbc5e0b62	-0.013552519
69	0xbd177d42	-0.03698469
70	0x3d379c60	0.044826865
71	0x3d37f1a0	0.044908166
72	0x3d76cc38	0.060253352
73	0x3d6a679f	0.057227727
74	0x3dcce29b	0.10004159
75	0xbe2511e9	-0.16120113
76	0x3e2d9fef	0.16955541
77	0x3e0c78a9	0.13717903
78	0xbc1ae151	-0.009453134
79	0xbd9da85d	-0.07698128
80	0xbda2f6c2	-0.079572216
81	0x3d8a9e84	0.06768516
82	0x3e1ac141	0.15112783
83	0xbc335adc	-0.0109469555
84	0x3e253344	0.16132838
85	0xbdf06e16	-0.11739747
86	0x3bf4df1d	0.0074728862
87	0x3db20509	0.08692367
88	0x3dfb0ca6	0.12258272
89	0x3d82124c	0.06351146
90	0x3d942d70	0.07235229
91	0x3ea62205	0.3244783
92	0x3c609a5f	0.01370868
93	0x3e0ae517	0.13563953
94	0x3ddbc156	0.10730235
95	0xbd0fafc0	-0.035079718
96	0xbe19dc4f	-0.15025447
97	0x3c5f820b	0.0136418445
98	0x3d4760cc	0.048676297
99	0x3e3a58b7	0.18197905
100	0x3dcdcc37	0.100487165
101	0x3d1f0f4e	0.038832955
102	0x3df196ac	0.117963165
103	0x3e47c6ae	0.19509384
104	0xbb5c1c56	-0.0033586225
105	0x3d0e8c6a	0.034801878
106	0x3dda7eb0	0.10668695
107	0xbd9df355	-0.077124275
108	0x3c7fcfac	0.015613478
109	0x3db75c8a	0.08953197
110	0xbd29f372	-0.041491933
111	0xbae23b80	-0.0017260164
112	0xbc6f1d98	-0.014594458
113	0xbd53c9ac	-0.051706
114	0x3e120118	0.1425823
115	0x3d1f0b05	0.03882887
116	0xbe46e9dc	-0.19425148
117	0xbe013613	-0.12618284
118	0x3aa9bca7	0.00129499
119	0xbde2c594	-0.11072841
120	0xbd270397	-0.040774908
121	0xbd64a151	-0.055817906
122	0xbc7ab611	-0.015302197
123	0xbd970f96	-0.0737602
124	0x3c6265b0	0.0138181895
125	0xbe3d2f9c	-0.18475193
126	0xbe4904dd	-0.19630761
127	0xbc906a81	-0.01762891
128	0xbd8944d9	-0.06702585
129	0x3e0cc6c7	0.13747703
130	0x3e90fe7b	0.28319153
131	0xbd89cae4	-0.067281514
132	0x3e29b43b	0.16572659
133	0x3cda001f	0.026611386
134	0xbca3efe4	-0.02001185
135	0xbe1a3ccc	-0.15062255
136	0xbc8deb77	-0.017324192
137	0xbd89f418	-0.0673601
138	0x3e9fb872	0.31195408
139	0x3e7e1393	0.24812154
140	0xbd37d30b	-0.044879
141	0x3cf3fade	0.029782709
142	0x3e4138c6	0.18869314
143	0x3e0b93e6	0.13630638
144	0x3d83c399	0.06433792
145	0xbb8ec228	-0.0043566413
146	0x3daa5038	0.08316082
147	0xbe0dcabe	-0.13846871
148	0xbd2f2fe3	-0.042770278
149	0x3d098666	0.033575438
150	0x3d14aea0	0.036299348
151	0x3e9d8654	0.30766547
152	0x3e34be0b	0.1765062
153	0x3b0f7971	0.0021892453
154	0x3dd5814c	0.10425052
155	0x3cb175fc	0.021662705
156	0x3e2145bd	0.1574926
157	0xbde1712e	-0.110079154
158	0xbde2e431	-0.1107868
159	0x3cc54e43	0.02408517
160	0x3d95b069	0.07309038
161	0xbd64448c	-0.055729434
162	0xbdb3b0de	-0.08773969
163	0xbd1f3294	-0.038866594
164	0x3cc6c932	0.02426586
165	0x3dcee597	0.101023845
166	0xbd87f604	-0.06638721
167	0x3df6574f	0.120283715
168	0x3dabdcc8	0.0839172
169	0x3e0a7825	0.13522394
170	0xbd566b58	-0.052348465
171	0xbcc02993	-0.023457324
172	0x3dc325bc	0.09528682
173	0x3d015de4	0.03158368
174	0xbdad8f48	-0.08474594
175	0x3dcbced6	0.0995156
176	0x3d0234b4	0.031788543
177	0x3e3cf191	0.18451525
178	0x3dbc180a	0.091842726
179	0x3e0bc534	0.13649446
180	0xbd922fe8	-0.07138044
181	0xbe4ea343	-0.20179467
182	0x3e36054e	0.17775461
183	0x3db69452	0.089150086
184	0x3d85ccee	0.06533228
185	0x3dad75bd	0.084697224
186	0x3e2fe079	0.17175473
187	0xbde49a0a	-0.11162193
188	0xbd90a16f	-0.07062041
189	0xbdd98720	-0.10621476
190	0x3ea1f64a	0.31633216
191	0x3e240dee	0.16020939
192	0x3c116cb9	0.008876019
193	0x3d4897ea	0.048973
194	0xbd35906f	-0.044327196
195	0x3d8f07aa	0.06983884
196	0x3d4421e2	0.047883876
197	0xbdbdd1b1	-0.09268511
198	0x3dcf0455	0.10108248
199	0xbc42e407	-0.011895186
200	0xbe3240d6	-0.17407545
201	0xbc6226b7	-0.013803176
202	0x3cc05418	0.023477599
203	0x3b7f69a1	0.0038972872
204	0x3d5a9e66	0.053373717
205	0xbbc34db1	-0.0059601893
206	0xbcb17f7c	-0.021667235
207	0x3c9e6b62	0.019338313
208	0x3e40054f	0.18752025
209	0x3c89cb63	0.016820615
210	0xbda896f5	-0.08231918
211	0x3da91776	0.08256428
212	0x3c8dedc4	0.01732529
213	0xbdf10096	-0.1176769
214	0x3cc6dad2	0.024274264
215	0xbd8f8b5e	-0.07009004
216	0x3c45120d	0.012028229
217	0x3db8286b	0.08992084
218	0x3d4888eb	0.0489587
219	0x3963effd	0.0002173781
220	0x3d59ece1	0.05320442
221	0x3e320962	0.17386392
222	0x3ded5e69	0.11590273
223	0x3de9b07f	0.11410617
224	0x3b4303c4	0.0029756883
225	0x3d5a401d	0.0532838
226	0x3c9b3326	0.018945288
227	0x3d828c09	0.06374366
228	0x3ca70de0	0.020392358
229	0x3e107f29	0.14111008
230	0x3c2130d2	0.0098383
231	0x3d81b5f3	0.06333532
232	0xbd950dc7	-0.072780184
233	0x3dfa764a	0.12229593
234	0x3d0e7cb3	0.03478689
235	0x3d9d3a7f	0.07677173
236	0xbd3441a9	-0.04400793
237	0xbe12f2ac	-0.14350384
238	0x3c81a628	0.0158263
239	0xbba52826	-0.0050401865
240	0x3d835f72	0.06414689
241	0x3da22142	0.079165
242	0xbc1f11b1	-0.009708808
243	0x3d75b32f	0.059985336
244	0x3de1c1c0	0.11023283
245	0xbd2b5401	-0.04182816
246	0xbd8947b9	-0.06703133
247	0x3e7dcc02	0.24784854
248	0xbdb4d5af	-0.088298194
249	0x3dc97072	0.098359
250	0xbd7ce83e	-0.06174492
251	0xbb9dec16	-0.0048194034
252	0xbd84c7fc	-0.064834565
253	0xbbea8add	-0.007157667
254	0x3d28e6a4	0.04123558
255	0x3df1230d	0.117742635

gru.weight_hh_l0_reverse f4 [192, 64]
0	0xbe20a4db	-0.15687887
1	0xbe351299	-0.17682876
2	0x3cb81333	0.022470092
3	0x3a733a6d	0.00092784205
4	0x3d5178c2	0.051140554
5	0xbe130b7c	-0.1435985
6	0xbc5e0754	-0.013551552
7	0x3dd3cb60	0.10341525
8	0xbc916a90	-0.017751008
9	0x3e1cb3a4	0.15302902
10	0xbb32459d	-0.0027202137
11	0xbdefedda	-0.117152885
12	0xbce40164	-0.027832694
13	0xbd56d450	-0.05244857
14	0x3d6bec49	0.057598386
15	0x3d6049cf	0.05475789
16	0xbe542b6d	-0.2071969
17	0xbc55e4a8	-0.013055004
18	0xbcf22829	-0.029560165
19	0x3df08822	0.11744715
20	0xbe3b4188	-0.18286717
21	0x3da41cc5	0.080133
22	0xbdb892fe	-0.090124115
23	0xbde7eb49	-0.11324174
24	0xbd3a3050	-0.04545623
25	0x3c242ee1	0.010020942
26	0xbc10515b	-0.008808459
27	0xbcce8fdb	-0.02521508
28	0xbde77118	-0.11300868
29	0x3ddb3a32	0.10704459
30	0x3c02d51b	0.007985379
31	0xbe0cb2bf	-0.13740061
32	0x3d180a0b	0.037118953
33	0x3c63e8cb	0.013910483
34	0x3d7c5dd8	0.061612934
35	0x35d85f92	1.6121069e-06
36	0x3dd88db0	0.105739
37	0xbd7df178	-0.06199786
38	0x3c568125	0.013092314
39	0x3d953b4b	0.072867
40	0x3d07d7f0	0.03316492
41	0xbb02bf94	-0.0019950615
42	0x3e34f31d	0.17670865
43	0xbd71d063	-0.059036624
44	0x3da90be2	0.082542196
45	0xbdd85ea2	-0.10564925
46	0x3d86effa	0.06588741
47	0xbd08db24	-0.033412114
48	0xbe181d2e	-0.14854881
49	0x3d8199fb	0.063281976
50	0x3cd13286	0.025536787
51	0x3d45c538	0.048283786
52	0xbdde09ed	-0.10841737
53	0x3d24d99c	0.04024659
54	0xbd0d811b	-0.034546953
55	0xbe5d09e1	-0.215858
56	0x3e3af346	0.18256864
57	0x3d7192a6	0.058977745
58	0xbd9cdd2d	-0.076593734
59	0x3dae7ab4	0.085194975
60	0xbd42085c	-0.047371253
61	0x3dbc726b	0.09201511
62	0x3ce8031f	0.0283218
63	0xbdf11520	-0.117716074
64	0x3dd18f28	0.10232383
65	0xbdd53236	-0.104099676
66	0xbcd9f3ed	-0.02660557
67	0x3c8b1241	0.016976478
68	0xbe1ddd9e	-0.15416571
69	0xbcea0370	-0.028566092
70	0xbdaaaa31	-0.08333243
71	0x3e138539	0.14406289
72	0x3e23f2b9	0.1601056
73	0xbda33ac8	-0.07970196
74	0x3d047afb	0.032343846
75	0x3e1ad536	0.15120396
76	0xbde0383a	-0.10948224
77	0xbd9d81c8	-0.076907694
78	0x3dde1412	0.10843672
79	0x3dd9dfef	0.10638415
80	0xbdbc2727	-0.09187155
81	0x3c18b65d	0.009320823
82	0xbd5fee54	-0.054670647
83	0x3db166ab	0.086621605
84	0xbe0cddda	-0.13756505
85	0x3e0de73d	0.13857742
86	0x3debcae4	0.11513308
87	0xbd8f34d0	-0.06992495
88	0xbd6e7037	-0.058212485
89	0x3cd6f79d	0.026241118
90	0x3c770ecd	0.015079212
91	0x3d310773	0.043219995
92	0xbc41c942	-0.011827769
93	0x3cdb5ed5	0.026778618
94	0x3e1524a2	0.14564756
95	0xbd2d0eb8	-0.042250365
96	0x3d27baa2	0.04094947
97	0xbdfd92aa	-0.123814896
98	0x3dd3fc0e	0.1035081
99	0x3d0832f8	0.033251733
100	0x3cd958a7	0.02653153
101	0xbde5111d	-0.11184905
102	0xbe22401b	-0.15844767
103	0xbd9786e1	-0.07398773
104	0x3d802550	0.06257117
105	0x3cbef058	0.023307964
106	0x3d8f2b8f	0.0699073
107	0xbd20ebd0	-0.03928739
108	0xbcf209b6	-0.029545646
109	0xbda30403	-0.079597495
110	0x3c95705c	0.018242054
111	0xbdbabf85	-0.09118561
112	0xbdf5397d	-0.11973856
113	0x3dffe741	0.1249528
114	0xbe11216c	-0.14172906
115	0x3e0efa92	0.13962772
116	0xbe29aa50	-0.16568875
117	0x3d9ed476	0.077553675
118	0xbd8d998e	-0.06914054
119	0xbd80f385	-0.06296448
120	0x3da9bf66	0.082884595
121	0x3dacc602	0.084362045
122	0xbd6f5103	-0.05842687
123	0xbd0a33bd	-0.033740748
124	0xbd12d357	-0.03584608
125	0x3d83ef32	0.06442107
126	0x3da000d3	0.07812657
127	0xbe04b368	-0.12959063
128	0xbde6a09b	-0.11261102
129	0xbe63ed02	-0.2225838
130	0x3e286c0c	0.16447467
131	0xbd30b18f	-0.043138083
132	0xba9e2484	-0.0012065326
133	0x3d8fbb57	0.07018154
134	0x3d8acbc2	0.06777145
135	0xbc149357	-0.009068332
136	0x3dd87663	0.105694555
137	0x3e06a4c8	0.13148797
138	0x3e0e0873	0.1387041
139	0x3dfd852d	0.12378917
140	0x3b12788a	0.002234968
141	0x3e1438b6	0.14474759
142	0x3db4be6c	0.088253826
143	0x3e10708c	0.14105433
144	0xbe04a364	-0.12952954
145	0xbdd00dc8	-0.101588786
146	0x3d095de6	0.033536814
147	0x3dedbb7a	0.11608024
148	0xbda217fe	-0.079147324
149	0x3d783023	0.06059278
150	0x3dc26b64	0.094931394
151	0x3c27be7d	0.010238287
152	0xbdd130cd	-0.10214386
153	0xbd54fd5c	-0.051999435
154	0xbe47a9fa	-0.19498435
155	0x3e2e4b29	0.17020859
156	0xbd83152f	-0.06400525
157	0xbdb0be06	-0.08629994
158	0xbd5599ed	-0.05214875
159	0xbe344c17	-0.17607151
160	0xbdbf3931	-0.0933708
161	0xbe44c2ba	-0.19214907
162	0x3da6e268	0.08148652
163	0xbd3aeec7	-0.045637872
164	0x3e08be56	0.13353857
165	0xbd820738	-0.06349033
166	0xbc912dec	-0.017722093
167	0x3e216a99	0.1576332
168	0x3e168c47	0.14701949
169	0x3d82e951	0.06392158
170	0x3a60735c	0.0008562112
171	0xbdec2375	-0.115302004
172	0x3da3f1b4	0.080050856
173	0xbcbfd4e2	-0.02341694
174	0xbcb98e63	-0.022650903
175	0x3be0f2b8	0.006864872
176	0xbe373f8b	-0.17895333
177	0xbe17d6c4	-0.1482802
178	0xbd84d16a	-0.06485255
179	0x3e586e68	0.21135867
180	0xbc2edb5a	-0.010672415
181	0x3e12aa65	0.14322813
182	0xbcfec8f1	-0.031101676
183	0x3c8660bf	0.016403554
184	0xbd092673	-0.033483934
185	0x3e2b67ab	0.16738765
186	0xbcd6807f	-0.026184319
187	0x3de44e4e	0.11147748
188	0x3b8e42eb	0.0043414733
189	0x3e0e8b6b	0.13920371
190	0x3e42e073	0.19030933
191	0xbe4370e4	-0.19086033
192	0xbca162cc	-0.01970043
193	0x3c7556d2	0.014974313
194	0xbb3cc423	-0.002880343
195	0xbd2d66ac	-0.042334244
196	0xbccb8936	-0.0248457
197	0xbd928eda	-0.07156153
198	0x3cecd654	0.028910793
199	0x3e0b6ee7	0.13616525
200	0x3e2e036e	0.16993496
201	0x3d32dc35	0.043667037
202	0x3d009396	0.03139075
203	0xbd71daf3	-0.059046697
204	0xbe327b4a	-0.17429844
205	0xbd3f9854	-0.04677613
206	0x3d930e34	0.071804434
207	0x3e11abb3	0.14225654
208	0xbc2b0556	-0.010438284
209	0xbdc2119f	-0.09476017
210	0xbd2e91fa	-0.042619683
211	0xbd870738	-0.06593174
212	0x3deae48e	0.114693746
213	0xbda76053	-0.08172669
214	0xbdaeb63c	-0.08530852
215	0x3d0fb966	0.03508892
216	0xbd9bfd28	-0.07616645
217	0x3d801843	0.062546276
218	0xbcc7d46f	-0.024393288
219	0x3d245605	0.040121097
220	0xbdb1b08e	-0.08676253
221	0x3e133553	0.1437581
222	0xbc9aae6f	-0.018882005
223	0xbe152d74	-0.1456812
224	0xbd53d2f5	-0.051714856
225	0xbd00db48	-0.031459123
226	0x3c94def7	0.018172724
227	0x3bedb3ac	0.0072540846
228	0x3ccbfb5b	0.024900129
229	0x3dc66f1d	0.09689162
230	0x3b607216	0.0034247688
231	0x3e248863	0.16067652
232	0xbdec8325	-0.11548451
233	0x3ca485f8	0.020083413
234	0x3daaf6fb	0.08347889
235	0xbcc02ba8	-0.023458317
236	0xba7f2e6f	-0.0009734397
237	0xbe2c297a	-0.16812697
238	0xbdb15254	-0.08658281
239	0xbd68df78	-0.05685374
240	0x3c38203b	0.011238153
241	0xbdb30878	-0.0874185
242	0x3dde8e8c	0.108670324
243	0xbcfcc2e1	-0.030854644
244	0xbe14e43b	-0.14540188
245	0x3e1612ef	0.1465566
246	0x3de696f8	0.11259264
247	0xbc19ad9c	-0.009379771
248	0x3d858e16	0.06521241
249	0x3dde0cea	0.10842307
250	0xbe1f3f4e	-0.15551493
251	0x3cdb7cf2	0.026792977
252	0x3d0ec7d8	0.034858555
253	0xbd2bf8b3	-0.041985225
254	0xbe215d4d	-0.15758248
255	0x3c6e8075	0.014556994

gru.bias_ih_l0_reverse f4 [192]
0	0x3c6073ce	0.013699485
1	0xbc19f8c7	-0.009397692
2	0x3d228336	0.039675914
3	0x3d0b7d14	0.03405483
4	0x3d8a859d	0.06763766
5	0x3a85f5eb	0.0010220384
6	0xbd13e824	-0.03611006
7	0xbd456939	-0.04819605
8	0xbd5a4f19	-0.05329809
9	0xbcf47366	-0.029840183
10	0x3da21666	0.079144284
11	0x3d99511e	0.07486175
12	0x3df02fb3	0.11727848
13	0xbd6cbbdf	-0.057796355
14	0xbd1948b8	-0.037422866
15	0xbdb2ba66	-0.08726959
16	0x3e259dc6	0.16173467
17	0xbd6534a3	-0.0559584
18	0xbd612fc4	-0.054977193
19	0xbc83244d	-0.01600852
20	0x3d86a352	0.0657412
21	0xbdd12575	-0.102122225
22	0x3c0bd40a	0.008534441
23	0xbd2abe05	-0.041685123
24	0xbe4ce290	-0.20008302
25	0xbd4e5942	-0.05037809
26	0x3e0033fe	0.12519833
27	0x3d422ca5	0.047405858
28	0xbe3c24a2	-0.1837335
29	0xbd33ca40	-0.043894053
30	0xbdac43e4	-0.084113866
31	0x3ddf49cc	0.109027475
32	0xbd80b615	-0.062847294
33	0xbc9af069	-0.018913465
34	0x3e251373	0.161207
35	0xbcebfee7	-0.02880807
36	0xbc81ddab	-0.01585277
37	0xbb809321	-0.003923789
38	0xbe0a8c46	-0.13530073
39	0xbe32cdfb	-0.17461388
40	0x3d3c8365	0.046023745
41	0x3e16e6a5	0.14736421
42	0x3caee92e	0.021351423
43	0xbc4ba267	-0.012428856
44	0xbe1c7986	-0.15280733
45	0x3e049d0c	0.12950534
46	0x3ce0b5ff	0.027430533
47	0xbd539dd0	-0.051664174
48	0x3db3a3c6	0.08771472
49	0xbd7d70f7	-0.06187531
50	0x3d347ce5	0.04406442
51	0xbcd49a5d	-0.025952512
52	0xbe12d0a0	-0.14337397
53	0x3e0a39fe	0.13498685
54	0x3de9ff6f	0.11425673
55	0xbdddad12	-0.10824026
56	0x3e0adad0	0.13560033
57	0x3ddc8e10	0.10769284
58	0xbe1860d0	-0.14880681
59	0xba8c295b	-0.0010693477
60	0xbe5648c9	-0.20926203
61	0xbe338e28	-0.17534697
62	0x3d8c29cd	0.0684391
63	0x3bd26b80	0.0064215064
64	0xbcb861e5	-0.022507617
65	0x3d347747	0.044059064
66	0xbdd53092	-0.10409655
67	0x3d3446a1	0.04401267
68	0xbd5ccf53	-0.053908657
69	0xbc538be1	-0.012911768
70	0x3d76cbec	0.06025307
71	0xbdae7429	-0.085182495
72	0xbc82871f	-0.015933571
73	0x3d579b56	0.052638374
74	0xbdb19107	-0.0867024
75	0xbd9ec132	-0.07751693
76	0xbd7c9721	-0.061667565
77	0x3dd9e837	0.106399946
78	0x3e13dafc	0.14439005
79	0xbdfe78ae	-0.124253616
80	0x3e52ed63	0.20598368
81	0x3e24c98f	0.16092514
82	0x3dd64f12	0.104643
83	0xbc1a3d52	-0.009414034
84	0x3da2b638	0.07944912
85	0x3db3137c	0.08743951
86	0x3e267eb7	0.16259275
87	0xbd0c1611	-0.03420073
88	0xbe8633d6	-0.26211423
89	0x3dbde573	0.092722796
90	0xbe3145b0	-0.1731174
91	0x3de76291	0.11298097
92	0xbc62939a	-0.013829136
93	0xbe024a35	-0.1272362
94	0xbd082799	-0.03324089
95	0xbd50daa0	-0.050989747
96	0xbd7d118b	-0.06178431
97	0x3d1ab06c	0.037765905
98	0xbca1b8c2	-0.01974142
99	0x3e4f42a5	0.20240267
100	0x3df343d3	0.11878171
101	0x3d5733ab	0.05253951
102	0x3c5b838a	0.013398061
103	0x3d53f0ad	0.0517432
104	0x3d33438d	0.043765593
105	0xbb74ba66	-0.0037342547
106	0x3e08d1c9	0.13361277
107	0xbe02c331	-0.12769772
108	0x3db13b91	0.086539395
109	0xbd80659d	-0.06269381
110	0xbdff9f78	-0.12481588
111	0xbc0534ea	-0.0081302915
112	0x3e217df1	0.15770699
113	0xbce23efc	-0.027617924
114	0x3e56b1da	0.20966282
115	0xbd9e3b91	-0.07726205
116	0xbe13db1b	-0.14439051
117	0x3daa23fb	0.08307644
118	0x3ddeac43	0.108727
119	0x3cf23ffb	0.029571524
120	0xbddc0397	-0.10742872
121	0x3b318fe7	0.002709383
122	0xbe14204e	-0.14465448
123	0x3e2eae55	0.1705869
124	0xbd8dc7fc	-0.069229096
125	0xbd1c9a7d	-0.03823327
126	0xbe3b7bb9	-0.18308915
127	0xbdb97f6f	-0.09057509
128	0xbe140957	-0.14456688
129	0xbd1dbfa0	-0.038512826
130	0x3d5f590d	0.054528285
131	0xbddbf5c1	-0.10740233
132	0x3d9fd9da	0.07805224
133	0xbe300f73	-0.17193393
134	0xbd7af99b	-0.0612732
135	0x3e13ccd2	0.14433601
136	0x3daff118	0.08590907
137	0x3e2c14d6	0.16804823
138	0x3d9f008f	0.077637784
139	0xbdb01932	-0.085985556
140	0xbe384c3b	-0.1799783
141	0x3df1b3b9	0.118018575
142	0x3dc5af76	0.09652607
143	0x3d22a39b	0.039706808
144	0xbd87a94c	-0.06624088
145	0xbd26e7a9	-0.040748272
146	0xbe2b4c52	-0.16728333
147	0x3de046e2	0.1095102
148	0x3d3b0868	0.045662314
149	0x3e2cfb58	0.16892755
150	0xbe2c48b1	-0.16824605
151	0xbe002f93	-0.12518148
152	0xbdbcbf78	-0.09216207
153	0xbe2582bf	-0.16163157
154	0xbdb9c1c7	-0.09070163
155	0x3d73be46	0.05950763
156	0xbe334973	-0.17508487
157	0x3dd90588	0.10596758
158	0x3dd83f63	0.10558965
159	0xbdb41e7c	-0.08794877
160	0xbe1a4eb6	-0.15069088
161	0xbdd0269d	-0.10163615
162	0xbcb631f5	-0.022240618
163	0x3d29a415	0.041416246
164	0x3d00d833	0.031456184
165	0xbe3a2183	-0.18176846
166	0xbe1b9bfa	-0.15196219
167	0x3dc85177	0.09781163
168	0x3def2530	0.11677015
169	0x3d855301	0.06509972
170	0xbd34eb54	-0.04416974
171	0xbd6fe04a	-0.058563508
172	0x3df93056	0.121674225
173	0xbe00fc2f	-0.125962
174	0xbd3561d2	-0.04428274
175	0xbe235a8b	-0.15952508
176	0x3cb2e0ec	0.021835767
177	0xbdf4faef	-0.11961924
178	0x3d5e18eb	0.054222982
179	0x3e205c5b	0.15660231
180	0xbda9d7bd	-0.08293102
181	0xbd886393	-0.06659617
182	0x3e1535df	0.14571331
183	0xbda77c72	-0.08178033
184	0x3e1b1534	0.15144807
185	0x3d1752e8	0.0369443
186	0xbdbcebed	-0.09224687
187	0x3dec15e1	0.115276106
188	0x3d11d8f4	0.035607293
189	0x3d87ee72	0.06637277
190	0xbb85f855	-0.0040884414
191	0xbda1bd6d	-0.07897458

gru.bias_hh_l0_reverse f4 [192]
0	0x3e1a628f	0.1507666
1	0xbd2eb028	-0.042648464
2	0x3e217c7d	0.15770145
3	0xbd58b062	-0.052902587
4	0xbe0714e9	-0.1319157
5	0x3d281982	0.04103995
6	0x3cf1b7dd	0.029506618
7	0x3e1c7cef	0.15282033
8	0xbb9f32b3	-0.0048583387
9	0xbde22bb7	-0.11043494
10	0x3dff9421	0.12479425
11	0x3de790ee	0.1130694
12	0xbd8bffdd	-0.068359114
13	0x3d33e812	0.04392249
14	0x3d8468ee	0.06465326
15	0x3d678fd0	0.056533635
16	0x3e1598ee	0.1460912
17	0xbd7bec04	-0.06150438
18	0x3ce861fd	0.028367037
19	0x3da9a234	0.08282891
20	0xbcdbcb85	-0.026830444
21	0xbe142935	-0.14468844
22	0xbde7a6a2	-0.113110796
23	0x3e0ec2c2	0.13941482
24	0xbdcb731a	-0.09934063
25	0xbce6c522	-0.028170172
26	0x3de8485b	0.11341926
27	0x3cd77c40	0.026304364
28	0xbbc9a40c	-0.006153589
29	0xbdf069b1	-0.11738909
30	0x3c903daa	0.017607529
31	0x3daa2ea6	0.08309679
32	0xbdc2c1bf	-0.095096104
33	0xbd723c88	-0.05913976
34	0xbd428ca8	-0.04749742
35	0xbe000e2f	-0.1250541
36	0x3d90e922	0.070757166
37	0xbde33c30	-0.11095464
38	0x3da95a64	0.08269194
39	0xbde5c78f	-0.112197034
40	0xbd848efd	-0.06472585
41	0xb9f554bf	-0.00046793182
42	0x3a5ac257	0.0008344999
43	0x3d742e53	0.05961449
44	0xbe4225dc	-0.18959755
45	0xbd0e122b	-0.034685295
46	0x3d8072a4	0.06271866
47	0x3d71d417	0.059040155
48	0x3c67a0cb	0.014137457
49	0x3d72b0dd	0.0592507
50	0xbdb838d4	-0.08995214
51	0xbd0d9103	-0.034562122
52	0x3d62354d	0.055226613
53	0x3bef5247	0.0073035094
54	0x3dc739fa	0.09727855
55	0xbc8b5f46	-0.017013203
56	0xbd1a6471	-0.037693445
57	0xbd59ff20	-0.05322182
58	0xbdda4035	-0.10656778
59	0x3d665354	0.05623181
60	0xbe81279f	-0.2522554
61	0xbe0173d1	-0.12641837
62	0xbc4e328c	-0.0125852935
63	0xbda433b0	-0.08017671
64	0x3e250cdb	0.16118185
65	0x3d133133	0.035935592
66	0xbc6b92f6	-0.0143783
67	0x3d8bedf8	0.06832498
68	0x3daaeef3	0.08346357
69	0xbe01b2ed	-0.12665911
70	0xbc59dce8	-0.013297297
71	0xbdedbc66	-0.116082
72	0x3da33a3e	0.07970093
73	0xbddc01c8	-0.10742527
74	0xbe5e0e20	-0.21685076
75	0x3a0e9579	0.0005439143
76	0xbd8cdd02	-0.068780914
77	0x3c6a11f5	0.014286508
78	0x3abeeeac	0.0014566979
79	0xbddcd25d	-0.10782311
80	0x3d8ec80a	0.06971748
81	0x3d330b90	0.0437122
82	0xbd71063d	-0.05884384
83	0xbc10a6b6	-0.0088288095
84	0x3c06fbbd	0.00823873
85	0x3dca2047	0.09869438
86	0x3e393612	0.18087032
87	0xbd0c9009	-0.03431705
88	0xbdf3b243	-0.11899235
89	0xbdb688f3	-0.0891284
90	0xbda39324	-0.07987049
91	0x3d8dec28	0.06929809
92	0xbc816a2f	-0.015797703
93	0x3c5a0e85	0.013309126
94	0x3d0a00ee	0.033692293
95	0x3d0f9127	0.035050537
96	0x3dd6597d	0.10466287
97	0x3d22b622	0.039724477
98	0xbd282425	-0.041050095
99	0x3e30501a	0.17218056
100	0xbceb6d25	-0.028738568
101	0x3ca922fe	0.020646568
102	0x3dcc1fc0	0.09966993
103	0x3db9d6c6	0.09074168
104	0xbbbefefd	-0.005828737
105	0xbc245bd8	-0.010031663
106	0x3e5ab9ac	0.2135989
107	0xbe12d169	-0.14337696
108	0x3d3bad8c	0.045819804
109	0xbdb7df43	-0.08978131
110	0xbda598e9	-0.08085806
111	0xbc85d259	-0.016335653
112	0xbbe4f489	-0.0069871587
113	0x3dbb1482	0.09134771
114	0x3e86ade9	0.26304558
115	0xbe084adb	-0.13309805
116	0xbc65060d	-0.013978493
117	0x3daf32d6	0.08554618
118	0x3dc25a81	0.094899185
119	0xbd6b98c0	-0.05751872
120	0x3d6c597b	0.057702523
121	0x3b8b488c	0.0042505916
122	0x3d6c17c8	0.057639867
123	0x3e3cab4e	0.18424723
124	0x3d31ed99	0.04343948
125	0xbdfc5df2	-0.12322606
126	0x3cbd764b	0.023127696
127	0x3d848be5	0.06471995
128	0xbdb3c2ea	-0.08777411
129	0x3cc339dc	0.0238313
130	0x3d8c2c15	0.068443455
131	0xbd018165	-0.03161754
132	0x3cd2571a	0.025676299
133	0xbc9d9037	-0.019233806
134	0x3d889064	0.06668165
135	0x3d929047	0.07156425
136	0xbca65189	-0.02030255
137	0xbc906157	-0.01762454
138	0x3d874adc	0.06606075
139	0x3d97a43d	0.07404373
140	0xbd74408d	-0.059631873
141	0x3d19e565	0.037572283
142	0x3dc24c91	0.0948726
143	0x3d00126c	0.03126757
144	0xbe275710	-0.16341805
145	0xbdeca906	-0.11555676
146	0x3d1809e2	0.0371188
147	0x3daa01b3	0.08301105
148	0xbd53f5c0	-0.051748037
149	0xbd2be835	-0.041969497
150	0x3d6a78ac	0.057243988
151	0xbd42e741	-0.047583822
152	0x3d87e301	0.066350944
153	0xbe0ac2ac	-0.13550824
154	0xbd94e95e	-0.07271074
155	0x3aeeeb18	0.0018228022
156	0x3c684fd5	0.01417919
157	0x3cdd1725	0.026988575
158	0x3dba9ce6	0.09111957
159	0xbdbe2433	-0.09284248
160	0xbc88448b	-0.016634246
161	0xbe0f7189	-0.14008154
162	0x3e251c4d	0.16124077
163	0x3d872888	0.065995276
164	0x3de68864	0.11256483
165	0xbcd53150	-0.02602449
166	0xbc5e4148	-0.013565369
167	0xbc7377bb	-0.014860089
168	0x3df22a28	0.11824447
169	0xbe124916	-0.14285693
170	0x3e19d1ee	0.15021488
171	0x3b56a063	0.0032749407
172	0xbcbf8be9	-0.023382144
173	0xbdda1917	-0.10649317
174	0xbdeafd41	-0.114740856
175	0xbcb6da67	-0.02232094
176	0xbdef5ea2	-0.11687972
177	0xbd0c7003	-0.03428651
178	0xbdada66b	-0.08479007
179	0x3e1048be	0.14090249
180	0xbb661871	-0.0035109783
181	0x3d1a1e8f	0.0376268
182	0x3deff45b	0.11716529
183	0x3d1b2389	0.037875686
184	0x3dc1ed7e	0.09469126
185	0x3e10a69d	0.14126058
186	0x3d8f93b7	0.07010596
187	0xbd7b0e95	-0.061293203
188	0x3bfa1ed8	0.0076330714
189	0xbc5323d7	-0.012886963
190	0x3d56586c	0.05233042
191	0xbd9d0fd8	-0.076690376
