ablation_study/results/bidirectional_gru_model.pth (torch, 158281 bytes, 11 tensors)

gru.weight_ih_l0 f4 [192, 13]
0	0xba6fbde2	-0.0009145421
1	0x3d8302ab	0.06396993
2	0x3dbff80a	0.093734816
3	0x3c6e7424	0.014554057
4	0x3d334e26	0.0437757
5	0xbc5c4335	-0.013443758
6	0x3aa73966	0.0012758195
7	0x3dbc4990	0.091937184
8	0x3ccf543d	0.025308723
9	0x3d51bff5	0.051208455
10	0x3dcd2ebb	0.10018679
11	0xbca970e2	-0.02068371
12	0xbdc99dc8	-0.098445475
13	0x3d3b81ab	0.045777958
14	0x3de5748a	0.11203869
15	0x3d91247e	0.070870385
16	0x3d2dce12	0.042432852
17	0x3dab265b	0.08356925
18	0xbdfe2070	-0.12408531
19	0xbd13085c	-0.035896644
20	0xbc616210	-0.01375629
21	0x3da4e2a0	0.08051038
22	0xbd194cc9	-0.037426744
23	0xbcbd81ad	-0.023133123
24	0x3dc5c35e	0.09656404
25	0x3d9b95ce	0.07596932
26	0xbd3597b9	-0.044334147
27	0xbe04c96b	-0.1296746
28	0x3ccf2e31	0.02529058
29	0x3cc294b1	0.023752542
30	0x3c07ff58	0.008300625
31	0x3dc262d8	0.09491509
32	0xbb081c13	-0.0020768687
33	0x3dbeb7f4	0.0931243
34	0x3cda6b51	0.0266625
35	0xbd101dee	-0.035184793
36	0x3d1413a0	0.03615153
37	0xbd96cd07	-0.073633246
38	0x3e0859c6	0.13315496
39	0x3c9cb2ab	0.019128164
40	0x3d43bc8a	0.047787227
41	0x3dc1ad64	0.094569
42	0x3d894dc3	0.06704285
43	0xbd8eb3e8	-0.06967908
44	0xbde1d4c4	-0.1102691
45	0x3d17249a	0.03690014
46	0xbd621274	-0.05519338
47	0xbc116744	-0.008874718
48	0x3dd1201b	0.10211202
49	0x3ca5c612	0.020236049
50	0x3ddc4ae0	0.10756469
51	0xbd26e3da	-0.04074464
52	0x3cf51d37	0.029921157
53	0xbdee100a	-0.11624153
54	0xbce242a7	-0.027619673
55	0x3d38f316	0.0451537
56	0xbc36c923	-0.011156353
57	0x3ddda6cf	0.10822832
58	0x3cd1a435	0.025590995
59	0x3dac7b46	0.0842195
60	0x3d8d1ba5	0.068900384
61	0xbd9d5ba6	-0.07683496
62	0x3d137786	0.03600266
63	0x3d6be56c	0.05759184
64	0xbcd61994	-0.026135243
65	0xbdc19121	-0.09451509
66	0xbd4047b6	-0.04694339
67	0x3dd105ed	0.102062084
68	0xbdef2ee8	-0.116788685
69	0xbd4e9696	-0.05043658
70	0x3dc88e10	0.09792721
71	0x3da31bc9	0.07964284
72	0x3d843c3e	0.06456803
73	0x3d58558e	0.052815966
74	0x3dda813c	0.10669181
75	0x3c845091	0.016151698
76	0xbd5f5a5b	-0.05452953
77	0x3d9287f6	0.07154839
78	0x3d1234af	0.035694774
79	0x3dcc5296	0.099766895
80	0xbe0832ee	-0.13300678
81	0xbd3cb149	-0.04606751
82	0x3dacb986	0.08433823
83	0xbdb550ad	-0.08853278
84	0x3d673395	0.056445677
85	0xbda902ba	-0.08252473
86	0x3db2fb8d	0.08739386
87	0x3e2022f9	0.15638341
88	0x3dd366bf	0.10322332
89	0xbdc86b90	-0.09786141
90	0x3cb17816	0.021663707
91	0x3c6559e3	0.013998481
92	0xbd4e40b5	-0.05035468
93	0xbdefaba2	-0.11702658
94	0xbdfc049f	-0.12305569
95	0xbcc314fe	-0.02381372
96	0x3dcb9699	0.099408336
97	0xbdbbe43b	-0.09174391
98	0xbdef883c	-0.116959065
99	0xbdb9efde	-0.09078954
100	0x3cb4a919	0.022053288
101	0xbe12a048	-0.14318955
102	0xbd918bdd	-0.07106755
103	0x3db7dbb7	0.08977454
104	0xbd0f4c98	-0.034985155
105	0x3e1a18a2	0.15048459
106	0xbccdfe1e	-0.025145587
107	0x3e0839fc	0.1330337
108	0xbdc2475e	-0.094862685
109	0xbd9b90b8	-0.07595962
110	0xbdd58fe2	-0.10427834
111	0xbbd13720	-0.0063847452
112	0x3c914667	0.017733766
113	0x3e3b9707	0.18319331
114	0xbd14ab2f	-0.036296066
115	0xbc9615d5	-0.018320957
116	0x3e3fd25e	0.18732592
117	0x3cbee115	0.023300687
118	0x3d6e102f	0.058120903
119	0x3d2aec93	0.04172952
120	0x3cc53dda	0.024077345
121	0x3de93f5f	0.1138904
122	0xbd4fe06f	-0.050751146
123	0xbc9aa63b	-0.018878093
124	0xbd38525c	-0.04500042
125	0x3c71664b	0.014733861
126	0xbdab9596	-0.08378141
127	0x3e0297f9	0.12753285
128	0x3d8e6773	0.06953325
129	0xbc7c9247	-0.015415735
130	0x3e4926d7	0.19643722
131	0x3d2782d0	0.040896237
132	0x3cf5fae8	0.030026868
133	0x3da38110	0.07983601
134	0x3d1659a8	0.036706597
135	0xbd46d3ae	-0.048541717
136	0x3df6ca5d	0.120503165
137	0x3d23b1cc	0.039964482
138	0x3e2f7def	0.17137884
139	0x3e09cfac	0.13458127
140	0xbcaf9827	-0.021434857
141	0xbc9014fe	-0.017588135
142	0x3dd1bbf0	0.10240924
143	0xbb0d999b	-0.0021606449
144	0xbd87df66	-0.06634407
145	0xbdc655e5	-0.09684352
146	0xbd91a82b	-0.071121536
147	0x3dd56a41	0.10420657
148	0x3d95d968	0.073168576
149	0xbd9915ef	-0.074748866
150	0xbdf85dca	-0.12127264
151	0x3d514184	0.05108787
152	0x3d022781	0.031775955
153	0x3dfa774e	0.12229787
154	0x3d1a3764	0.03765048
155	0xbcb47593	-0.02202872
156	0x3da121ce	0.07867776
157	0x3de7f40e	0.113258466
158	0x3e200fad	0.1563098
159	0x3d572d19	0.052533243
160	0xbe5aaac0	-0.21354198
161	0x3dadf0ce	0.084931955
162	0x3d48c8fe	0.049019806
163	0x3d9b30aa	0.07577641
164	0xbd7ecf62	-0.062209494
165	0xbc2cf2a8	-0.010555901
166	0xbe45ed10	-0.19328713
167	0x3e13e4a0	0.14442682
168	0x3dc0cb92	0.09413828
169	0x3defb771	0.117049105
170	0x3c8f0e0d	0.017462755
171	0xbdaf0688	-0.085461676
172	0x3d6cfa7c	0.057856068
173	0x3db50a4e	0.08839856
174	0xbc8ffc0a	-0.017576236
175	0xbb96eb38	-0.004605677
176	0xbd886d8a	-0.06661518
177	0xbd65b208	-0.056077987
178	0x3dad0bc4	0.0844951
179	0xbd7afda7	-0.061277058
180	0x3d8336c1	0.06406928
181	0xbda9ba7e	-0.08287524
182	0x3d0e2ac2	0.034708746
183	0x3cea8d9c	0.028631978
184	0x3dd2d9da	0.10295458
185	0x3e00d990	0.12582994
186	0xbe02ea3c	-0.12784666
187	0xbd8e009f	-0.06933712
188	0xbdfa5519	-0.12223262
189	0xbde0c956	-0.10975902
190	0xbde6f797	-0.11277693
191	0xbdbb468a	-0.09144314
192	0xbdc9d742	-0.0985551
193	0x3eba97be	0.36443895
194	0x3ea2f23b	0.31825432
195	0x3da957f0	0.08268726
196	0xbdfb172a	-0.122602776
197	0xbda8141f	-0.08206963
198	0xbbf18d84	-0.0073716063
199	0xbd900726	-0.070326135
200	0x3d98fbeb	0.074699245
201	0xbaf7f795	-0.001891839
202	0xbdfbb304	-0.12290004
203	0xbe165cbb	-0.14683811
204	0xbc107ffd	-0.008819577
205	0x3d25232c	0.040316746
206	0xbd04ea34	-0.032449916
207	0xbd84428c	-0.06458005
208	0x3e022ce3	0.12712435
209	0xbc2e816e	-0.010650976
210	0xbdcf3783	-0.1011801
211	0x3dd9bdd2	0.106319085
212	0xbba016ac	-0.004885515
213	0xbc4a5f46	-0.0123518165
214	0xbcbb8cb6	-0.022894245
215	0xbccb3418	-0.024805114
216	0x3d0d14c1	0.03444362
217	0xbc29822e	-0.010345979
218	0x3e0376e4	0.12838322
219	0x3d18230e	0.037142806
220	0x3da1e2fc	0.07904622
221	0x3d97b145	0.07406858
222	0x3e227d04	0.15868002
223	0xbd280787	-0.041022804
224	0xbce852bb	-0.028359761
225	0x3b4a1d38	0.003084017
226	0x3dffb608	0.124858916
227	0xbde2ef4b	-0.11080798
228	0x3c4b3b90	0.0124043375
229	0x3b09988e	0.002099547
230	0xbce68911	-0.02814153
231	0xbbf6b732	-0.007529163
232	0x3e23edbb	0.16008656
233	0x3e8a2eb4	0.26988757
234	0x3e5eeb02	0.21769336
235	0xbae981b8	-0.0017815148
236	0x3db043cd	0.08606682
237	0x3d31a380	0.043368816
238	0xbd1ecf91	-0.03877217
239	0x3da3a7af	0.079909675
240	0xbd961c14	-0.07329574
241	0xbd52211c	-0.051301107
242	0x3d2a9fd8	0.041656345
243	0x3dbaa929	0.09114296
244	0xbcb68ed0	-0.022284895
245	0xbd8187d0	-0.06324732
246	0xbd6da023	-0.058014046
247	0xbbc10425	-0.0058903866
248	0x3daa2abb	0.083089314
249	0x3d12fd50	0.03588611
250	0xbd5f9dc1	-0.054593805
251	0x3d8228cd	0.063554384
252	0x3d3434c4	0.043995634
253	0x3d73e76e	0.05954688
254	0x3cdffd78	0.027342543
255	0xbd91105b	-0.07083198

gru.weight_hh_l0 f4 [192, 64]
0	0xbd8cc55c	-0.06873581
1	0x3d3f269b	0.046667676
2	0x3d9d812f	0.076906554
3	0xbc82c524	-0.015963145
4	0xbcb8f42a	-0.022577364
5	0x3d7b3c07	0.061336543
6	0xbe299c89	-0.1656362
7	0xbd2720f6	-0.04080292
8	0xbd68a8b1	-0.0568015
9	0xbdbd6a1c	-0.092487544
10	0xbcc778f6	-0.02434967
11	0xbe061ba0	-0.13096476
12	0xbd1e0f3d	-0.03858875
13	0x3e4109d3	0.18851404
14	0xbd174997	-0.036935415
15	0x3e12dd62	0.14342263
16	0xbd07f636	-0.03319379
17	0x3e2a0e74	0.16607076
18	0x3ccd6442	0.02507222
19	0x3d97617d	0.07391641
20	0x3c304f7c	0.010761138
21	0x3d80ec35	0.06295053
22	0x3d90e071	0.07074059
23	0xbc755c11	-0.014975564
24	0x3d76cfa8	0.06025663
25	0x3d22cf8c	0.039748713
26	0x3ca8e497	0.020616813
27	0x3df4d66a	0.11954959
28	0x3d98c01e	0.074585184
29	0x3e2a8d50	0.16655469
30	0xbe094b03	-0.13407521
31	0x3d8d76b1	0.06907404
32	0x3d4b8d52	0.04969532
33	0x3deac202	0.11462785
34	0x3d1c54b3	0.038166713
35	0xbe133991	-0.14377429
36	0xbd9f5f0a	-0.07781799
37	0xbe2265d9	-0.15859164
38	0x3deec2cc	0.11658248
39	0x3cde6217	0.027146382
40	0x3c2a51fd	0.010395524
41	0xbdbfd317	-0.09366434
42	0x3dbcb5a8	0.09214336
43	0xbdac8576	-0.08423893
44	0xbded0efe	-0.11575125
45	0xbd3fe4c8	-0.046849042
46	0x3d16c030	0.036804378
47	0x3ddcd493	0.10782733
48	0x3db16727	0.08662253
49	0x3d6f80a8	0.058472306
50	0x3a2cbc4b	0.0006589337
51	0x3dd52cf7	0.10408967
52	0x3e08bd04	0.13353354
53	0xbca00f03	-0.019538408
54	0xbd855a49	-0.06511361
55	0x3d0b1a3d	0.03396057
56	0xbe2a278c	-0.16616648
57	0xbd83558a	-0.064128
58	0x3e26aaf4	0.16276151
59	0xbd7be5cd	-0.061498452
60	0xbd351644	-0.044210687
61	0x3dac77c7	0.08421283
62	0xbd9c0830	-0.07618749
63	0x3e0763d4	0.13221675
64	0x3cace781	0.021106483
65	0x3b8a0564	0.0042120684
66	0x3dcb0db3	0.09914722
67	0xbcc6845d	-0.024233038
68	0x3dcf4244	0.10120061
69	0xbd772864	-0.060341254
70	0x3e1e2dbe	0.15447137
71	0xbe2d21da	-0.16907445
72	0xbdc2d0e6	-0.095125005
73	0xbd679444	-0.05653788
74	0x3d105d95	0.035245497
75	0x3dba63d2	0.091010705
76	0x3d2ab404	0.041675583
77	0xbd98cfa3	-0.074614786
78	0x3a8bc050	0.0010662172
79	0xbdf71080	-0.12063694
80	0xbe3b5b7c	-0.18296617
81	0xbcf80c7b	-0.030279389
82	0xbb5e72c4	-0.0033942917
83	0xbd9ed9b2	-0.07756366
84	0xbd359940	-0.044335604
85	0x3d94175f	0.0723102
86	0x3c6a7298	0.014309548
87	0xbda8a09c	-0.08233759
88	0xbe2ba8bb	-0.16763584
89	0xbae8bd63	-0.0017756637
90	0xbd4db4ff	-0.05022144
91	0x3d0ec777	0.034858193
92	0x3e0fd596	0.1404632
93	0xbe1fc5f8	-0.15602863
94	0xbd91edb4	-0.071254164
95	0x3df3a737	0.11897128
96	0x3dd51afe	0.10405539
97	0xbd98e398	-0.07465285
98	0x3c33730f	0.010952725
99	0x3e385f60	0.18005133
100	0xbcca916d	-0.024727548
101	0x3df05c46	0.1173635
102	0xbe5d9aed	-0.21641131
103	0x3d5f6379	0.054538224
104	0xbcb3fe49	-0.021971839
105	0x3e0be350	0.13660932
106	0xbd825dc7	-0.06365543
107	0x3c7933cb	0.015210102
108	0x3d039bc0	0.032130957
109	0xbd3d2d98	-0.04618606
110	0x3ddcd5df	0.1078298
111	0xbe0ab0ca	-0.13544002
112	0x3da64e07	0.08120351
113	0x3dbf0e02	0.09328844
114	0xbbb25a54	-0.005442897
115	0xbc97a43a	-0.018510927
116	0xbdd1897f	-0.102313034
117	0xbd0d0621	-0.034429673
118	0xbdd7123a	-0.10501523
119	0xbd5e2a49	-0.054239545
120	0x3db1a979	0.086749025
121	0x3d03a6ee	0.03214162
122	0xbca58f26	-0.02020986
123	0x3d9db75b	0.07700988
124	0x3e01ad70	0.12663817
125	0x3df55cfa	0.119806245
126	0xbd6e68e1	-0.05820549
127	0xbdc3ecdb	-0.09566661
128	0xbda82ffa	-0.08212276
129	0xbdeda38b	-0.11603459
130	0xbdf57c7e	-0.119866356
131	0x3da661fc	0.08124158
132	0xbd9cecf4	-0.07662383
133	0x3d1e1007	0.038589504
134	0xbddda85f	-0.1082313
135	0x3ccb52cc	0.024819754
136	0xbc2fec8e	-0.010737551
137	0x3ba67a38	0.0050804876
138	0xbcd36c9e	-0.025808629
139	0x3c7db28b	0.0154844625
140	0xbd770122	-0.060303815
141	0x3e415b47	0.18882476
142	0xbdb65b39	-0.08904118
143	0x3d89f48b	0.06736096
144	0x3c0e383d	0.0086804
145	0xbd066eb2	-0.03282041
146	0x3c5b0f33	0.013370323
147	0xba14e48a	-0.0005679807
148	0x3d9eb490	0.07749283
149	0x3e004859	0.12527598
150	0x3da6d383	0.081458114
151	0xbe3f161b	-0.18660776
152	0x3e378453	0.17921571
153	0x3d2be137	0.04196283
154	0xbc9d6be9	-0.019216495
155	0x3db0b2fb	0.08627888
156	0xbcf5958a	-0.029978532
157	0xbb0ce915	-0.0021501232
158	0xbd88ef27	-0.0668624
159	0x3d9959b7	0.07487815
160	0xbc70077c	-0.014650222
161	0x3d2ec820	0.042671323
162	0x3ce67222	0.028130595
163	0xbcfd51e4	-0.030922838
164	0x3d95b91f	0.073107
165	0xbdcf2e0e	-0.10116206
166	0x3e325774	0.17416173
167	0xbdf4f9dc	-0.119617194
168	0x3d04498d	0.032296706
169	0x3d74b60b	0.059743922
170	0x3c2cd8f5	0.010549773
171	0x3d9c7b67	0.07640725
172	0x3c94238a	0.018083353
173	0x3d1d289c	0.038368806
174	0xbe459671	-0.1929567
175	0xbb448828	-0.0029988382
176	0xbd068715	-0.032843668
177	0xbe20d991	-0.15707995
178	0xbd85bc2f	-0.06530034
179	0xbd284361	-0.041079883
180	0x3d244000	0.040100098
181	0xbd8ae127	-0.06781226
182	0x3c46a7af	0.01212494
183	0x3bbcebb6	0.0057654036
184	0xbcf3b711	-0.029750379
185	0xbd8f52e0	-0.06998229
186	0x3e22e350	0.15907025
187	0xbe108246	-0.14112195
188	0xbc1cf066	-0.0095788
189	0xbdd372d4	-0.10324636
190	0xbe204e7c	-0.1565494
191	0x3e0d1548	0.1377765
192	0xbdc7b2c5	-0.097508945
193	0x3dd25ef4	0.10272017
194	0xb89d7268	-7.507653e-05
195	0x3bad37f3	0.0052862107
196	0xbdce0030	-0.100586295
197	0x3df25e06	0.1183434
198	0xbe274fa4	-0.16338974
199	0x3e3b56cb	0.18294828
200	0xbcc57523	-0.024103707
201	0xbce16240	-0.02751267
202	0x3d9b6354	0.07587305
203	0xbe384e15	-0.17998536
204	0xbde0e667	-0.10981446
205	0x3c5e8da4	0.013583574
206	0xbe01b5f5	-0.12667067
207	0x3e0fdc30	0.14048839
208	0x3e14bb45	0.14524563
209	0x3e0f7ae6	0.14011726
210	0x3e388da6	0.18022785
211	0xbdf9be7d	-0.12194536
212	0x3d84a633	0.064770125
213	0x3dbd799c	0.09251711
214	0x3b359308	0.0027706046
215	0x3c107206	0.008816248
216	0x3e30e694	0.17275459
217	0xbd5b1ed5	-0.0534962
218	0x3d2d0cb3	0.04224844
219	0x3dec8f71	0.11550797
220	0xbe0617a2	-0.13094953
221	0x3d0ad658	0.03389582
222	0x3c909d1c	0.01765304
223	0x3d143f93	0.03619344
224	0xbdf062e5	-0.11737613
225	0x3d2a14da	0.04152379
226	0x3d4fd21c	0.050737485
227	0x3d4581a0	0.048219323
228	0xbdef1eec	-0.1167582
229	0xbd57b2b3	-0.052660655
230	0x3c920b37	0.017827613
231	0x3d76c228	0.060243756
232	0x3d71d930	0.059045017
233	0x3d33216e	0.043733053
234	0xbc9ef8f8	-0.019405827
235	0x3d8862f1	0.066594966
236	0xbd9ff502	-0.078104034
237	0x3afc375e	0.0019242575
238	0x3cead482	0.028665785
239	0x3d948dc9	0.07253606
240	0x3d018b50	0.031627
241	0x3d86b7bb	0.065780126
242	0xbcc39815	-0.02387623
243	0x3da15bd9	0.07878847
244	0x3de82a89	0.11336238
245	0xbe0d250c	-0.13783664
246	0x3e29d62e	0.1658561
247	0x3dd0be3a	0.10192533
248	0xbe28afa9	-0.16473259
249	0x3d6dea38	0.058084697
250	0xbcf4a30b	-0.029862901
251	0xbd4a0542	-0.04932142
252	0x3df8c490	0.12146866
253	0x3d383918	0.044976324
254	0xbe31dda7	-0.1736971
255	0x3e40b4c0	0.1881895

gru.bias_ih_l0 f4 [192]
0	0x3c66a814	0.014078159
1	0x3cf461ee	0.029831853
2	0x3e3c9cff	0.18419264
3	0x3d843652	0.06455673
4	0xbca02f24	-0.019553728
5	0x3df0e1ba	0.11761804
6	0x3d873a5c	0.06602928
7	0x3c8c3078	0.017112955
8	0x3d1757ec	0.036949083
9	0x3d88ac2b	0.066734634
10	0x3e30d1aa	0.1726748
11	0x3d11df8f	0.035613593
12	0x3e15d6d5	0.14632733
13	0x3dab1d4a	0.08355196
14	0xbd3d38a7	-0.046196606
15	0x3e29c04a	0.16577259
16	0xbce62384	-0.028093107
17	0x3aff3006	0.0019469268
18	0x3db54bca	0.08852346
19	0xbd99dc3f	-0.07512712
20	0x3bc22e80	0.0059259534
21	0x3d05711d	0.032578576
22	0x3d4c44c8	0.049870282
23	0x3d988f0c	0.07449159
24	0x3c8e9a89	0.017407672
25	0x3ceb1765	0.028697679
26	0xbc87d3c3	-0.016580468
27	0x3df4df0a	0.11956604
28	0xbdb480cf	-0.08813631
29	0x3ca03c48	0.019559994
30	0x3de8a572	0.11359681
31	0x3d7ec89c	0.062203035
32	0xbd9316aa	-0.07182057
33	0x3dba9c68	0.091118634
34	0xbc3cd4b1	-0.011525319
35	0x3e19bab5	0.1501263
36	0x3d897a0d	0.067127325
37	0x3e212742	0.15737632
38	0x3c3857af	0.011251374
39	0xbc999b0d	-0.018750692
40	0x3b85cde0	0.00408338
41	0xbd902ede	-0.07040189
42	0x3de8bab5	0.113637365
43	0xbd9ae92b	-0.075640045
44	0x3e18bacd	0.14915009
45	0xbe1be3b5	-0.15223582
46	0x3d91cdc8	0.07119328
47	0xbd053c2c	-0.032528087
48	0xbe6508a9	-0.22366585
49	0xbe03b1bd	-0.1286077
50	0x3bac02dc	0.0052493643
51	0xbde9aab7	-0.114095144
52	0x3d85505a	0.065094665
53	0x3cb8981a	0.022533465
54	0x3c1fe481	0.009759069
55	0x3e412526	0.18861827
56	0x3ca10e8b	0.019660255
57	0xbd1f9b0e	-0.03896623
58	0x3e2eea7c	0.17081636
59	0xbd5d1bea	-0.0539817
60	0xbcd50fa4	-0.026008435
61	0xbdefc3bc	-0.11707255
62	0x3e110c0b	0.1416475
63	0x3df63090	0.12020981
64	0xbdc011b4	-0.093783766
65	0xbdbed9a8	-0.093188584
66	0xbe2fe536	-0.17177281
67	0xbe33a5ea	-0.1754376
68	0xbcf77a88	-0.030209795
69	0xbe201dae	-0.15636322
70	0xbe059354	-0.13044482
71	0x3cb64a22	0.022252146
72	0xbe0e4251	-0.13892485
73	0xbd76ce20	-0.06025517
74	0xbdd2033a	-0.10254522
75	0xbc3c5859	-0.011495673
76	0xbda05eef	-0.07830607
77	0x3ce63211	0.028100045
78	0x3c2f8a2b	0.010714094
79	0xbe1ba764	-0.15200573
80	0xbd42e936	-0.04758569
81	0x3d912bcf	0.07088434
82	0xbd971b45	-0.07378248
83	0xbe0f9d75	-0.14024909
84	0x3ae24f5d	0.0017266084
85	0x3c14f460	0.009091467
86	0xbdbc03bb	-0.09180399
87	0xbe0ca91c	-0.13736385
88	0x3d01a149	0.031647954
89	0xbe4c4b38	-0.19950569
90	0xbd001f16	-0.031279646
91	0xbe3144f7	-0.17311464
92	0xbe2424fc	-0.16029733
93	0xbcd266d4	-0.025683798
94	0xbd26f1ac	-0.04075782
95	0x3d8d7c37	0.06908458
96	0xbca730d1	-0.02040902
97	0xbdb7ecef	-0.08980738
98	0xbd418de9	-0.047254477
99	0xbe353bf6	-0.17698655
100	0x3d42f6b4	0.047598556
101	0xbdeff626	-0.11716871
102	0x3bd3defb	0.0064657903
103	0xbe232ddc	-0.15935463
104	0xbd5a1694	-0.05324419
105	0xbdfe5989	-0.12419421
106	0xbd62b055	-0.055343945
107	0xbd739a26	-0.05947318
108	0xbe288194	-0.1645568
109	0xbd039677	-0.032125916
110	0xbd92cbe0	-0.07167792
111	0xbe1533a2	-0.14570478
112	0xbe00fb1d	-0.12595792
113	0x3db33ae0	0.08751464
114	0x3da1a48e	0.078927144
115	0xbcaa23d9	-0.020769047
116	0xbe0d40f3	-0.13794307
117	0x3c064f4c	0.008197617
118	0x3b8c26c5	0.0042770826
119	0xbd61fa59	-0.05517039
120	0xbe0e9677	-0.13924585
121	0xbe4f892e	-0.20267174
122	0xbdeb8417	-0.114998035
123	0xbe16309f	-0.14666985
124	0x3b86875c	0.0041054916
125	0x3d598deb	0.05311386
126	0x3d2d0fb2	0.042251296
127	0xbdcd7f00	-0.10033989
128	0xbe0edab0	-0.1395061
129	0xbce27f6f	-0.027648656
130	0xbdd3493d	-0.103167035
131	0x3e1e3f38	0.15453804
132	0xbe483cf4	-0.19554502
133	0x3e017e97	0.12645946
134	0xbd990426	-0.074714944
135	0x3e38d9d5	0.18051846
136	0xbdaa8774	-0.08326617
137	0xbd0bb9e7	-0.034112837
138	0xbd34df15	-0.04415806
139	0xbe1960f4	-0.14978391
140	0xbe361e98	-0.17785108
141	0x3e21d6f2	0.15804651
142	0xbdbbdc9f	-0.091729395
143	0x3e2a3521	0.1662183
144	0x3dc0d4aa	0.094155625
145	0x3d64454b	0.055730145
146	0x3e0ed4ba	0.13948336
147	0xbd779f8d	-0.060454894
148	0x3d1d02ca	0.038332738
149	0x3ded860f	0.11597835
150	0x3d9bb25a	0.07602377
151	0xbcb2105f	-0.021736322
152	0x3e13ea42	0.14444831
153	0x3e3ce4b8	0.18446624
154	0x3e194662	0.14968255
155	0x3d7f103f	0.062271353
156	0xbe38af86	-0.18035707
157	0x3d0d109b	0.034439664
158	0xbdcf4e6c	-0.1012238
159	0x3caba323	0.020951813
160	0xbe1874ca	-0.14888301
161	0x3d001968	0.03127423
162	0x3e30c914	0.17264205
163	0xbe180f10	-0.14849496
164	0xbc6242c5	-0.013809864
165	0xbd54a9ce	-0.05191975
166	0x3da6f383	0.08151915
167	0xbd87dfdc	-0.06634495
168	0x3d194edb	0.037428718
169	0x3e0d8751	0.1382115
170	0x3e0e185f	0.13876484
171	0xbd826b5f	-0.06368136
172	0xbe3a23da	-0.18177739
173	0x3df91357	0.12161892
174	0xbe18bead	-0.14916487
175	0x3c14c49b	0.0090800775
176	0xbd111885	-0.035423774
177	0xbc509202	-0.0127301235
178	0x3da1a79b	0.07893296
179	0x39979677	0.0002891307
180	0x3dd798f3	0.105272196
181	0xbe34ad58	-0.1764425
182	0x3dc7021a	0.09717198
183	0x3c06e473	0.0082331775
184	0xbcd9f707	-0.02660705
185	0xbe3b4a47	-0.18290053
186	0x3dd04fef	0.10171496
187	0xbe47a428	-0.19496214
188	0x3e13cdc9	0.1443397
189	0x3cef7af6	0.029233437
190	0xbdb508d2	-0.08839573
191	0x3da0b089	0.078461714

gru.bias_hh_l0 f4 [192]
0	0x3d7cf3ba	0.061755873
1	0xbddca4d2	-0.107736245
2	0xbbb3bacc	-0.0054849144
3	0x3d9163d2	0.07099117
4	0x3e112770	0.141752
5	0x3e0981d7	0.13428436
6	0x3e16d42c	0.14729375
7	0x3e2f4177	0.17114817
8	0xbcf5e1c5	-0.030014882
9	0xbc01dd3b	-0.007926281
10	0x3da2530f	0.079259984
11	0x3c6b03aa	0.014344135
12	0x3d347267	0.044054415
13	0x3c02b31d	0.007977274
14	0x3d826c23	0.06368282
15	0x3a6a8901	0.0008946807
16	0x3e1dd129	0.1541182
17	0x3d862079	0.065491624
18	0x3e023609	0.12715925
19	0x3c92aba3	0.017904108
20	0x3dc2d806	0.095138595
21	0x3c3cda6b	0.011526684
22	0x3c9e3e68	0.019316867
23	0x3e3f8028	0.18701231
24	0x3e19d30d	0.15021916
25	0xbc0415fa	-0.00806188
26	0x3df991a1	0.1218598
27	0xb89606c5	-7.153818e-05
28	0x3e0463a0	0.12928629
29	0x3cac06e1	0.020999374
30	0x3d913d96	0.07091825
31	0xbc4c115d	-0.012455312
32	0xbda77ebb	-0.08178469
33	0x3dc8c0db	0.09802409
34	0x3e122b57	0.14274345
35	0x3d1d7c31	0.038448516
36	0xbe115733	-0.1419342
37	0xbd2b5b16	-0.041834913
38	0xbccfb3d8	-0.02535431
39	0xbcf69fb3	-0.030105447
40	0x3e07595b	0.1321768
41	0xbd7b99ff	-0.06142616
42	0x3cbbffba	0.022949088
43	0x3ceb3589	0.028712051
44	0x3d824641	0.06361056
45	0xbdfd703b	-0.12374922
46	0x3db75aa7	0.089528374
47	0x3e03709b	0.12835924
48	0xbe280721	-0.1640897
49	0xbc4d83bb	-0.012543614
50	0xbd6a4181	-0.057191376
51	0xbddf11b1	-0.10892046
52	0x3bcf1c10	0.006320484
53	0x3c1b6b8b	0.009486089
54	0x3e1af68c	0.15133113
55	0x3e4141c2	0.18872741
56	0xbc965629	-0.018351631
57	0x3e1d5ebe	0.15368173
58	0x3d0f99ae	0.03505867
59	0x3d50e102	0.050995834
60	0xbc1376b7	-0.009000472
61	0x3c140dec	0.009036522
62	0x3dcda09a	0.10040398
63	0xbd2b6ae6	-0.041849993
64	0xbd53cb6e	-0.051707678
65	0xbe390b4a	-0.18070713
66	0x3d1a4de2	0.03767193
67	0x3d0a92e3	0.03383149
68	0xbe43ae96	-0.19109568
69	0xbc289d1b	-0.010291363
70	0xb9bb908d	-0.00035775118
71	0xbe220dda	-0.15825596
72	0x3b18de2a	0.002332578
73	0xbdf9e460	-0.12201762
74	0xbe195dae	-0.14977142
75	0xbe02cdc3	-0.12773804
76	0xbdbe4323	-0.09290149
77	0xbe24b9fb	-0.16086571
78	0xbceeeda0	-0.029166043
79	0x3d20b9b2	0.039239593
80	0xbd2d81d1	-0.04236013
81	0x3d91cc52	0.07119049
82	0xbe44a853	-0.19204836
83	0xbc8e2154	-0.017349876
84	0x3d524ff1	0.05134577
85	0xbcde3c8f	-0.027128486
86	0x3cf311ff	0.029671667
87	0x3d4d4819	0.050117586
88	0xbd38fd7d	-0.04516362
89	0xbe4bd9a1	-0.19907238
90	0xbdece97d	-0.11567972
91	0xbdba805b	-0.09106513
92	0xbd7fb648	-0.062429696
93	0xbdf45c3f	-0.11931657
94	0xbdf38e9d	-0.11892436
95	0x3d4494ad	0.04799335
96	0xbdaefcea	-0.08544333
97	0xbe39ab20	-0.18131685
98	0xbe258a04	-0.1616593
99	0xbd1b5496	-0.037922464
100	0x3dafa8ff	0.08577155
101	0x3ce12c98	0.027487084
102	0x3c44a660	0.0120025575
103	0xbe2c1ffa	-0.16809073
104	0xbdb0fb7e	-0.08641718
105	0xbe0808ec	-0.13284653
106	0xbd543e07	-0.051816966
107	0x3e1f2e67	0.15545045
108	0x3c8b896e	0.017033305
109	0x3bd32a2b	0.006444236
110	0xbe0aab49	-0.13541903
111	0x3d526e2a	0.051374592
112	0xbdf45b56	-0.119314834
113	0x3dbe533d	0.0929322
114	0x3ddbd86b	0.10734638
115	0x3cc12ce1	0.02358097
116	0xbc266261	-0.010155291
117	0xbe4c365e	-0.19942614
118	0xbbb7bdec	-0.0056073572
119	0xbdebc3cf	-0.11511957
120	0xbd05404f	-0.032532033
121	0xbe27e706	-0.16396722
122	0xbe0b669d	-0.13613363
123	0xbdd8670b	-0.10566529
124	0xbcd88b18	-0.026433513
125	0x3ced8a61	0.028996648
126	0xbe0b9114	-0.13629562
127	0xbdb5e102	-0.088808075
128	0xbc61bcf6	-0.013777962
129	0xbddc0747	-0.107435755
130	0xbe2cd7bd	-0.16879173
131	0x3d9f9819	0.07792682
132	0xbcce514b	-0.025185248
133	0x3d5317b4	0.051536277
134	0xbd961be3	-0.07329538
135	0x3e420b3a	0.18949595
136	0x3b6a50ce	0.003575373
137	0xbd9b18f1	-0.075731166
138	0x3c88b840	0.01668942
139	0xbdc79649	-0.097454615
140	0xbe11ebcb	-0.14250104
141	0x3e0194f2	0.12654474
142	0xbe01721f	-0.1264119
143	0x3de41484	0.111367255
144	0x3e04ccfd	0.12968822
145	0x3de0cc20	0.10976434
146	0x3db03de7	0.08605557
147	0x3c82d725	0.01597173
148	0x3e1f947d	0.15583988
149	0x3e08f765	0.13375624
150	0xbcd075e7	-0.025446845
151	0xbd711c4e	-0.058864884
152	0x3df9301c	0.12167379
153	0x3e37adf0	0.17937446
154	0x3e40a91b	0.18814509
155	0xbd52c1d3	-0.051454376
156	0x3d263da0	0.040586114
157	0x3de0ac37	0.109703474
158	0xbe2092a8	-0.15680945
159	0xbddecb1a	-0.10878582
160	0xbcc3b43d	-0.023889655
161	0x3e33beff	0.17553328
162	0x3e2c868e	0.16848204
163	0xbc324d8d	-0.010882747
164	0xbe0424d0	-0.12904668
165	0xbe48eda3	-0.19621901
166	0x3d39a5db	0.045324188
167	0xbe0e285a	-0.1388258
168	0xbe2024d2	-0.15639046
169	0xbd28f558	-0.041249603
170	0x3dde412a	0.10852273
171	0xbc7b5a70	-0.015341386
172	0xbd05af1a	-0.032637693
173	0xbcc82b2b	-0.024434647
174	0xbe0dd7bc	-0.13851827
175	0x3da29432	0.07938422
176	0x3d66624c	0.056246087
177	0x3d0859c2	0.033288725
178	0x3db0e13d	0.08636711
179	0xbdc72f28	-0.09725791
180	0x3ddbbf6a	0.10729869
181	0xbddfd84d	-0.10929928
182	0x3e157d89	0.14598669
183	0x3e32a7f9	0.17446889
184	0xbd9b6263	-0.07587125
185	0xbdc4468d	-0.09583769
186	0x3e46671f	0.19375275
187	0xbe1f21ea	-0.15540281
188	0x3d6c690b	0.057717364
189	0xbbf0a2c3	-0.0073436215
190	0xbdfe72bd	-0.12424228
191	0x3da69076	0.081330225

gru.weight_ih_l0_reverse f4 [192, 13]
0	0xbdccaa50	-0.09993422
1	0xbd586029	-0.05282608
2	0x3ce366d0	0.027758986
3	0x3ddcabb8	0.1077494
4	0x3e5f0fd7	0.21783386
5	0xbb9c3066	-0.0047665117
6	0x3e0abc3c	0.13548368
7	0x3d7fcc2c	0.062450573
8	0x3d249e4b	0.040190022
9	0x3d905245	0.07046942
10	0x3d302572	0.04300446
11	0xbd046e36	-0.032331668
12	0xbe27bdd4	-0.16381007
13	0xbce2b0c7	-0.027672185
14	0x3d1ff958	0.039056152
15	0xbcec5699	-0.028849887
16	0xbd91390a	-0.070909575
17	0x3c0740db	0.008255209
18	0xbdd77886	-0.10521035
19	0x3dfae914	0.122514874
20	0xbd2d4a68	-0.042307287
21	0xbd52e2a6	-0.05148568
22	0xbdacedc0	-0.08443785
23	0x3d5762bb	0.05258439
24	0xbc80f59c	-0.015742116
25	0x3dc09d8d	0.094050504
26	0xbd850649	-0.064953394
27	0x3e1d463e	0.15358827
28	0xbcb67a0e	-0.022274997
29	0x3cd44382	0.025911096
30	0xbd587698	-0.052847475
31	0x3d9e7978	0.07738012
32	0x3d0c41d0	0.03424245
33	0xbd38e604	-0.045141235
34	0xbd4729c6	-0.048623823
35	0xbde30dca	-0.110866144
36	0xbd6ce8fe	-0.057839386
37	0xbce2c4ca	-0.027681727
38	0x3e05cca3	0.13066344
39	0x3e830c2c	0.25595224
40	0x3d4db3f6	0.050220452
41	0x3d679464	0.056538
42	0xbbaa9bbb	-0.005206553
43	0xbdb52e6c	-0.08846745
44	0xbd365138	-0.04451105
45	0x3dcbf10f	0.09958088
46	0x3d90d8a0	0.07072568
47	0x3e3374dc	0.17525047
48	0x3d02b40b	0.031909984
49	0x3d793eac	0.060850784
50	0xbd7c94f0	-0.061665475
51	0xbe076eb8	-0.1322583
52	0x3da87170	0.082247615
53	0xbd31eae5	-0.043436904
54	0x3d981236	0.074253485
55	0x3d7edda3	0.062223088
56	0xbcf7aa44	-0.030232556
57	0x3d16201a	0.03665171
58	0x3d4c8c63	0.04993857
59	0xbda4f88a	-0.080552176
60	0x3d84c06e	0.064820156
61	0xbd8f8754	-0.07008234
62	0x3d3a30cb	0.04545669
63	0x3dcb3ae6	0.09923343
64	0xbcedd1de	-0.029030737
65	0xbd9fd255	-0.078037895
66	0x3df7b0c8	0.12094265
67	0x3d908553	0.070566796
68	0x3d185559	0.03719077
69	0x3c1ff513	0.00976302
70	0x3d8de06c	0.06927571
71	0x3d974baf	0.073874824
72	0xbdaec5d6	-0.08533828
73	0x3ca0ff34	0.01965294
74	0xbd335c24	-0.043789044
75	0xbdab809d	-0.083741404
76	0x3e1cacc9	0.15300287
77	0x3e11b6d2	0.14229897
78	0x3e6e54c3	0.23274522
79	0x3d76665e	0.06015622
80	0xbce47f74	-0.027892806
81	0xbd9b01c6	-0.07568698
82	0x3d57e46f	0.052708086
83	0x3d8b7075	0.06808559
84	0xbd875683	-0.06608298
85	0xbd7aaf5c	-0.061202392
86	0x3cb2ad1f	0.021811066
87	0x3de66985	0.11250595
88	0x3e04d962	0.1297355
89	0x3d713677	0.058889832
90	0x3e162931	0.14664151
91	0xbd639ed9	-0.05557141
92	0xbc14e235	-0.009087135
93	0x3d2f40c5	0.04278638
94	0x3dbbf327	0.09177237
95	0x3beb61e8	0.007183302
96	0x3d3b8f20	0.04579079
97	0xbe35d865	-0.17758329
98	0xbd6e78d4	-0.0582207
99	0x3dbd71c9	0.092502184
100	0xbd12b387	-0.035815742
101	0x3d1c0043	0.038086187
102	0x3e328f1c	0.17437404
103	0x3e325c97	0.17418133
104	0x3dfb1d70	0.12261474
105	0x3de7cbe8	0.11318189
106	0xbdd1eaca	-0.102498606
107	0x3cf41378	0.02979444
108	0xbceef224	-0.029168196
109	0xbda833f2	-0.08213033
110	0x3c6495c2	0.013951721
111	0xbda5e6fe	-0.08100699
112	0x3e1fc5bd	0.15602775
113	0x3d845156	0.06460826
114	0xbcd18a59	-0.025578665
115	0xbd5dac5f	-0.054119464
116	0xbd3ae53f	-0.045628782
117	0x3ec8781c	0.39154136
118	0xbcc0d253	-0.02353779
119	0xbd8c896c	-0.06862149
120	0xbde1e8a1	-0.110306986
121	0x3d9c4033	0.076294325
122	0x3dff27ae	0.1245874
123	0x3d573727	0.05254283
124	0x3dd53ac2	0.10411598
125	0x3e68ff1e	0.2275357
126	0x3d1efdf2	0.0388164
127	0x3d3065e4	0.04306592
128	0xbbdeed05	-0.0068031573
129	0x3dfefb7d	0.12450311
130	0x3cf8720f	0.030327825
131	0x3e63892b	0.22220294
132	0x3e12f990	0.14353013
133	0xbd8d53d6	-0.06900756
134	0xbe191932	-0.14951017
135	0xbc41f0a0	-0.011837155
136	0xbce4c574	-0.027926184
137	0x3d67b864	0.056572333
138	0xbd202980	-0.039102077
139	0x3b308d86	0.0026939823
140	0xbd604edb	-0.054762702
141	0xbd734b4e	-0.059397988
142	0x3dd4a5ca	0.10383184
143	0x3e2f474c	0.17117041
144	0x3c6fc295	0.014633794
145	0x3d6124b6	0.05496665
146	0xbdb0c112	-0.08630575
147	0x3d3c9169	0.04603711
148	0xbd8dcdc9	-0.06924016
149	0x3b9b871e	0.004746332
150	0xbdb92edc	-0.09042141
151	0x3e45c05b	0.19311659
152	0x3d5c6058	0.053802818
153	0x3daf1e1d	0.085506655
154	0xbdd7d062	-0.10537793
155	0x3dee031b	0.11621686
156	0x3e64cd80	0.22344017
157	0x3df329f8	0.11873239
158	0xbe0255a5	-0.12727983
159	0xbdd93a95	-0.10606877
160	0xbda5dbfd	-0.080986
161	0x3d6036d3	0.054739784
162	0x3de72f66	0.112883374
163	0x3d255044	0.04035975
164	0xbc22d358	-0.009938084
165	0x3dd26677	0.1027345
166	0xbd9ec133	-0.077516936
167	0xbe2e66be	-0.1703138
168	0xbd9c5794	-0.07633892
169	0x3e7152af	0.23566698
170	0xbccf1ecf	-0.025283245
171	0x3dbe5d06	0.092950866
172	0x3d9a075e	0.075209364
173	0x3d4b3d48	0.04961899
174	0xbdfd21ad	-0.12359939
175	0xbd202cb8	-0.039105147
176	0xbdfda0f8	-0.12384218
177	0x3e059196	0.13043818
178	0x3e36e585	0.17860992
179	0x3d3b7ec6	0.045775197
180	0x3d9006e9	0.07032568
181	0x3dc7bd83	0.09752943
182	0x3df25a11	0.11833585
183	0x3ded5d86	0.11590104
184	0x3db7f992	0.08983149
185	0x3ca84ae3	0.020543521
186	0xbd35d959	-0.044396732
187	0x3dd8b35e	0.105810866
188	0xbdcc27de	-0.099685416
189	0xbd5a51b4	-0.053300574
190	0x3dc0164a	0.09379251
191	0x3e2fe079	0.17175473
192	0xbd84a714	-0.0647718
193	0xbdcb0a3f	-0.09914064
194	0xbd31761f	-0.04332554
195	0xbdb1f36c	-0.08689007
196	0xbd271a9e	-0.04079687
197	0xbd7c65af	-0.06162041
198	0xbc8f94d4	-0.017527021
199	0x3d243168	0.04008618
200	0x3dd29d62	0.10283925
201	0x3d8fb257	0.070164375
202	0x3dd340ee	0.10315119
203	0xbd1bc940	-0.038033724
204	0x3d650b85	0.05591919
205	0x3d23fb6f	0.040034708
206	0xbd979862	-0.074021116
207	0x3d91d384	0.071204215
208	0x3e57a9e8	0.21060908
209	0x3cc71afe	0.024304863
210	0x3dac38d1	0.08409274
211	0x3dcafa9d	0.09911082
212	0x3d08911b	0.03334151
213	0xbda54539	-0.08069844
214	0xbc0fecb4	-0.008784462
215	0xbd8e6456	-0.06952731
216	0x3e05b997	0.13059078
217	0x3d548634	0.0518858
218	0x3dbff962	0.09373738
219	0x3bf37d24	0.0074306894
220	0x3d5e8037	0.054321494
221	0xbd94729c	-0.072484225
222	0xbc2d233c	-0.010567483
223	0xbc3e1a2d	-0.0116029205
224	0x3da383a5	0.079840936
225	0xbc94f825	-0.01818473
226	0x3d5f1f44	0.054473177
227	0x3d0921ec	0.033479616
228	0x3dd6c08e	0.10485946
229	0xbdc8e911	-0.09810079
230	0x3d4a9d8d	0.04946666
231	0xbd865197	-0.06558531
232	0xbe2b8baf	-0.16752504
233	0xbe1b3fd2	-0.15161064
234	0x3e7b8358	0.24561822
235	0x3e8908d8	0.2676456
236	0xbcf90be9	-0.030401187
237	0xbda9f720	-0.082990885
238	0xbcbb2b3b	-0.022847762
239	0x3c90bb8a	0.01766755
240	0x3db872ee	0.09006296
241	0x3dc132f0	0.09433544
242	0x3e178e72	0.14800432
243	0x3e2d24f4	0.16908628
244	0x3e69ac15	0.2281955
245	0xbdcb80bc	-0.099366635
246	0xbcbd17da	-0.023082662
247	0x3e62a21f	0.22132157
248	0xbb672ec9	-0.003527569
249	0xbd4cb175	-0.049973924
250	0x3cf229e1	0.029560985
251	0x3d65ecf1	0.056134168
252	0xbdbd32d7	-0.092382126
253	0x3ddeba91	0.108754285
254	0xbd093448	-0.033497125
255	0x3d126d7f	0.035748955

gru.weight_hh_l0_reverse f4 [192, 64]
0	0xbbf3aec0	-0.0074366033
1	0xbd098344	-0.03357245
2	0xbc1e69c0	-0.009668767
3	0xbd20a494	-0.039219454
4	0x3d001988	0.03127435
5	0x3c236eb0	0.00997512
6	0x3be259c0	0.0069076717
7	0x3d27123c	0.040788874
8	0xbc3f0140	-0.011658013
9	0xbda4be74	-0.080441386
10	0xbd8849a4	-0.06654671
11	0x3dd12a84	0.10213187
12	0xbd782388	-0.06058076
13	0x3dd4ca96	0.10390203
14	0x3de0fa0e	0.10985194
15	0xbdfb4e50	-0.12270796
16	0xbd762510	-0.06009394
17	0x3deab456	0.114601776
18	0xbdb0e49e	-0.08637355
19	0x3df58644	0.119885
20	0xbc9111a8	-0.017708614
21	0xba1d4400	-0.00059992075
22	0x3de203ec	0.11035904
23	0x3bc63a80	0.006049454
24	0x3d9fefb2	0.0780939
25	0x3df66f6c	0.12032971
26	0x3b75b040	0.0037489086
27	0xbd9081e6	-0.07056026
28	0xbdd3ad26	-0.1033576
29	0x3bf3e060	0.007442519
30	0xbdab50e0	-0.08365035
31	0xbd864624	-0.06556347
32	0x3bd24de0	0.006417975
33	0x3df33c88	0.1187678
34	0xbc294690	-0.010331765
35	0x3abd1800	0.0014426708
36	0xbd47d328	-0.04878536
37	0x3d9be78c	0.076125234
38	0xbd67b5a8	-0.056569725
39	0xbd493448	-0.049122125
40	0xbd15a2c0	-0.036532164
41	0x3db65b16	0.08904092
42	0x3dcfcb14	0.10146156
43	0xbd6c0638	-0.05762312
44	0x3de18894	0.11012378
45	0xbda4673e	-0.080275044
46	0x3cee0bf0	0.029058427
47	0x3d893cdc	0.06701061
48	0x3db99ec8	0.09063488
49	0xbcd6d478	-0.02622436
50	0xbc622e40	-0.013804972
51	0xbd992602	-0.074779525
52	0x3da3fe7a	0.08007522
53	0xbdc64d98	-0.096827686
54	0x3d0f99d0	0.035058796
55	0x3cc48578	0.023989424
56	0xbdf5de3a	-0.12005277
57	0x3d65a568	0.056065947
58	0x3d8b0fec	0.06790146
59	0x3c2be690	0.010491982
60	0xbde7d556	-0.113199875
61	0xbd3d8204	-0.04626657
62	0xbc7383f0	-0.014862999
63	0x3d3213b8	0.043475837
64	0x3b0598c0	0.0020385236
65	0x3d80a7f8	0.062820375
66	0xbc4d9510	-0.012547746
67	0xbcbbf518	-0.022944018
68	0xbdfd208c	-0.123597234
69	0x3c93ce30	0.018042654
70	0xbcbbf240	-0.022942662
71	0x3d152be0	0.036418796
72	0xbc0c9b50	-0.008581951
73	0x3c8a5010	0.01688388
74	0xbd03cec0	-0.032179594
75	0xbd3e6a60	-0.046488166
76	0x3df7c23e	0.12097596
77	0xbd475fe4	-0.048675433
78	0xbdcd0f54	-0.10012689
79	0x3d7d8f94	0.061904505
80	0xbdb86dc6	-0.090053126
81	0x3df34b1c	0.1187956
82	0x3d570124	0.052491322
83	0xbd7e6928	-0.062112004
84	0xbd83270c	-0.06403932
85	0x3d93baf0	0.0721339
86	0x3d8a364a	0.06748636
87	0x3dd5f91c	0.104479045
88	0xbc0f7630	-0.008756205
89	0x3d91c35a	0.071173385
90	0x3dd28b7e	0.10280512
91	0xbc732670	-0.014840707
92	0xbd088a38	-0.03333494
93	0xbdfb6728	-0.12275535
94	0xbd4332cc	-0.047655866
95	0x3cf23610	0.029566795
96	0xbcfbfee8	-0.030761197
97	0xbda9174e	-0.08256398
98	0x3c5c3fc0	0.013442934
99	0x3d83f79a	0.064437106
100	0xbd19a988	-0.037515193
101	0xbd923066	-0.071381375
102	0x3df8b7f2	0.1214446
103	0x3d81ea4e	0.06343518
104	0xbd3982dc	-0.045290813
105	0x3d34ab20	0.04410851
106	0x3dcb985a	0.09941168
107	0x3de613ce	0.11234246
108	0xbd865b2c	-0.065603584
109	0x3d17c2a4	0.03705086
110	0x3ddec122	0.10876681
111	0x3daa26c6	0.08308177
112	0x3d926346	0.07147841
113	0xbb0a0d40	-0.0021065027
114	0x3cd7b588	0.026331678
115	0xbddb9b88	-0.107230246
116	0xbd9190b2	-0.071076766
117	0x3dc28804	0.09498599
118	0xbd58c6bc	-0.052923903
119	0xbd3eebe8	-0.046611696
120	0x3d452c78	0.04813811
121	0xbde2bd80	-0.110713005
122	0x3c8af2f0	0.016961545
123	0x3dfddffe	0.12396239
124	0x3dae6c7e	0.08516787
125	0x3d6a23d4	0.057163075
126	0x3df18c98	0.11794394
127	0x3dbb83b8	0.09155983
128	0xbd2e8bf8	-0.042613953
129	0x3dc358b8	0.09538406
130	0xbd316378	-0.04330775
131	0xbb273c80	-0.0025518239
132	0xbdf29bd8	-0.11846131
133	0x3d30f8f4	0.04320617
134	0x3d9ceaa4	0.07661942
135	0x3da80f36	0.08206026
136	0x3d31340c	0.043262526
137	0xbd1e1c50	-0.03860122
138	0x3c9aa460	0.018877208
139	0xbd5b10c8	-0.0534828
140	0x3d2d5ec8	0.04232672
141	0xbde780a2	-0.11303832
142	0x3d66ea98	0.05637607
143	0xbde74442	-0.11292316
144	0x3d92e484	0.07172492
145	0x3aaaae80	0.0013021976
146	0xbd26e71c	-0.040747747
147	0x3d894da6	0.067042634
148	0xbd938efe	-0.07205008
149	0xbd6b603c	-0.057464823
150	0x3cbcf0c0	0.023064017
151	0xbca13fb0	-0.019683689
152	0xbdfb7e00	-0.12279892
153	0xbd6e1344	-0.058123842
154	0x3ded32e0	0.11581969
155	0xbbfe8a20	-0.0077679306
156	0x3cd22c48	0.02565588
157	0xbcb50d80	-0.022101164
158	0x3dc83e3a	0.09777494
159	0x3d18d688	0.037313968
160	0x3dc0e6e2	0.094190374
161	0xbcd17f70	-0.025573462
162	0xbd1f7e4c	-0.038938805
163	0xbda01498	-0.07816428
164	0x3d1127e0	0.03543842
165	0x3d874842	0.06605579
166	0x3dafaa3e	0.08577393
167	0x3cd1ba58	0.025601551
168	0xbdb4182c	-0.08793673
169	0xbddc1e04	-0.107479125
170	0xbc856c18	-0.016286895
171	0xbcfa0980	-0.030522108
172	0xbd6fe018	-0.05856332
173	0xbadbbd80	-0.001676485
174	0x3db573e4	0.08859995
175	0xbd4db9d0	-0.050226033
176	0xbd6dc868	-0.05805245
177	0xbc759ab0	-0.014990494
178	0x3c907250	0.017632633
179	0xbded8082	-0.115967765
180	0xbdf56af4	-0.1198329
181	0xbd84e1a8	-0.06488353
182	0xbdaadaa8	-0.083424866
183	0xbdab6658	-0.0836913
184	0xbce34600	-0.02774334
185	0x3d7a7574	0.06114717
186	0xbd469fb8	-0.048492163
187	0xbd8ed81c	-0.06974813
188	0x3c0c8760	0.008577198
189	0xbc808690	-0.015689164
190	0x3c4912d0	0.012272552
191	0x3deffa38	0.11717647
192	0xbcc478f0	-0.023983449
193	0x3d85ebf4	0.06539145
194	0x3ce6efa0	0.028190434
195	0xbc845968	-0.016155913
196	0x3d9962c6	0.07489543
197	0xbd623510	-0.055226386
198	0xbdb18c34	-0.0866932
199	0x3d753500	0.059864998
200	0x3d86fd2c	0.065912575
201	0xbce6b910	-0.028164417
202	0xbdcee302	-0.10101892
203	0x3ddbadee	0.10726534
204	0xbd09e738	-0.033667773
205	0x3db7497c	0.08949563
206	0xbdfec83c	-0.124405354
207	0xbd581834	-0.052757457
208	0x3cc8ef70	0.024528235
209	0x3df239d8	0.11827439
210	0xbd412fac	-0.047164604
211	0x3dbd4cda	0.09243174
212	0xbcded5d0	-0.027201563
213	0x3dae7c40	0.085197926
214	0xbdc72704	-0.097242385
215	0x3d1885b0	0.03723687
216	0x3b73d8c0	0.003720805
217	0x3d4ad0ac	0.04951541
218	0xbdfd9bf4	-0.12383261
219	0xbcd19c08	-0.025587097
220	0x3dd54cb4	0.104150206
221	0xbd584dfc	-0.052808747
222	0x3dc07420	0.09397149
223	0xbdcd1580	-0.100138664
224	0xbd701d1c	-0.05862151
225	0x3da9ccda	0.082910255
226	0x3d636c74	0.05552335
227	0x3de107aa	0.1098779
228	0xbd9e2d4a	-0.07723482
229	0x3d4a9fd0	0.049468815
230	0xbdb0e440	-0.08637285
231	0x3c443990	0.011976615
232	0xbdfda2bc	-0.12384555
233	0x3d50fef8	0.051024407
234	0xbdfe636c	-0.12421307
235	0x3dbbdd8c	0.09173116
236	0x3dc69f36	0.09698336
237	0xbddc48d0	-0.107560754
238	0xbd8ad888	-0.06779581
239	0x3c878b40	0.016545892
240	0xbd5bab88	-0.05363038
241	0x3df8a16a	0.12140162
242	0x3dc28b84	0.09499267
243	0xbdaf0f40	-0.085478306
244	0xbc7cdce0	-0.01543352
245	0xbdc19d8e	-0.09453879
246	0xbd04077c	-0.0322337
247	0x3d1a6ee8	0.037703425
248	0x3dfcd028	0.1234439
249	0x3d133adc	0.035944805
250	0x3dc0d648	0.09415871
251	0x3dab347e	0.083596215
252	0x3d8b7be0	0.06810737
253	0x3ccd0c90	0.025030404
254	0x3d6b91ec	0.05751221
255	0xbdd2fb38	-0.103018224

gru.bias_ih_l0_reverse f4 [192]
0	0x3e011251	0.12604643
1	0xbdd977bd	-0.106185414
2	0x3c20520d	0.009785187
3	0x3b89a3f0	0.004200451
4	0xbdbe597e	-0.09294413
5	0xbe250468	-0.16114962
6	0xbc7123d5	-0.014718016
7	0xbcffc319	-0.03122096
8	0xbe4207d7	-0.18948303
9	0x3d536685	0.051611442
10	0xbe333215	-0.17499574
11	0x3d2fed6f	0.042951044
12	0xbdd601cf	-0.10449564
13	0x3d95702e	0.07296787
14	0xbdac6e87	-0.08419519
15	0xbc8a80f5	-0.016907195
16	0x3e1ac446	0.15113935
17	0x3d829455	0.06375948
18	0xbe5f336a	-0.21796957
19	0x3dae74ff	0.08518409
20	0xbe3c19a6	-0.18369159
21	0x3d7bb4ce	0.061451726
22	0x3da59047	0.08084159
23	0x3ab388e9	0.0013697419
24	0xbcb2e581	-0.021837952
25	0xbd78524b	-0.060625356
26	0x3e019138	0.12653053
27	0xbd987e59	-0.07445974
28	0xbbdb5f50	-0.0066947117
29	0xbdb98598	-0.09058684
30	0x3db44c4b	0.08803614
31	0x3c032a06	0.008005625
32	0xbdfee8c1	-0.12446738
33	0x3d8ce73e	0.068800434
34	0xbde7d8c3	-0.11320641
35	0x3c618787	0.013765222
36	0x3d20b880	0.039238453
37	0x3de1fbd5	0.11034361
38	0xbcafd3d8	-0.02146332
39	0xbc8c2a25	-0.01710994
40	0xbe27386a	-0.16330114
41	0xbe800bcb	-0.25008997
42	0xbe122eda	-0.14275685
43	0xbdc3aa14	-0.09553924
44	0x3e1ac419	0.15113868
45	0xbe3af939	-0.18259133
46	0xbd4cac19	-0.049968813
47	0xbd315637	-0.04329511
48	0xbd017c0b	-0.031612437
49	0xbcab114f	-0.020882277
50	0x3cd78f66	0.026313495
51	0x3c09c1c4	0.008408014
52	0xbd8f1900	-0.0698719
53	0xbc9b1b1e	-0.018933829
54	0x3ddd1ff4	0.1079711
55	0x3dd4eefa	0.10397144
56	0xbd5bbaca	-0.053644933
57	0xbdb89753	-0.09013238
58	0xbde55415	-0.11197678
59	0x3dc88503	0.09790995
60	0x3d827883	0.06370642
61	0x3da9209f	0.08258175
62	0xbdc21593	-0.09476771
63	0x3d2c008b	0.041992705
64	0x3e980f39	0.29699114
65	0x3e95b37b	0.29238495
66	0xbcd814a5	-0.026377032
67	0x3e11ef56	0.14251456
68	0xbd5a059e	-0.053228013
69	0x3dade1a8	0.08490306
70	0x3e2d8daf	0.16948579
71	0x3d084cfc	0.033276543
72	0x3ee4e1bd	0.44703475
73	0xbe318cc1	-0.1733885
74	0x3dcbebed	0.09957109
75	0x3d88981d	0.06669638
76	0xbce7b4da	-0.028284479
77	0x3deb34e1	0.11484695
78	0x3d073b32	0.033015437
79	0x3d885080	0.06655979
80	0xbd147f15	-0.036254007
81	0x3dd9e399	0.10639114
82	0x3e1c836b	0.15284507
83	0x3cdc5cba	0.026899684
84	0x3b0d0cae	0.002152245
85	0x3e377b7e	0.17918202
86	0x3d843ec4	0.06457284
87	0x3e0d3e47	0.13793288
88	0x3df2ba7a	0.11851974
89	0x3e083070	0.13299727
90	0xbd6ac3e5	-0.057315726
91	0x3e0ab3a7	0.13545094
92	0x3e2dda17	0.16977726
93	0x3ea91338	0.33022475
94	0xbc1fdbcf	-0.009756996
95	0xbd151a5c	-0.03640209
96	0xbd883285	-0.06650261
97	0x3dda2717	0.10651987
98	0x3e4bb860	0.19894552
99	0x3caa2363	0.020768827
100	0x3e7d0deb	0.2471234
101	0xbd8ef3df	-0.069801085
102	0x3d5e1618	0.05422029
103	0x3e65e593	0.22450857
104	0x3c91288b	0.017719528
105	0x3e1c7559	0.1527914
106	0x3e5dce5b	0.2166075
107	0xbd2b6180	-0.04184103
108	0xbd1dea33	-0.038553428
109	0x3e85c63c	0.26127803
110	0xbc2dcfe7	-0.01060865
111	0xbcd10a51	-0.025517615
112	0x399cb3a4	0.0002988848
113	0x3e4cc0d9	0.1999544
114	0x3daeb214	0.085300595
115	0x3d943c0a	0.07238014
116	0x3e94b53a	0.29044515
117	0x3e819f2a	0.25316745
118	0x3e70120f	0.23444389
119	0x3e0b5d42	0.13609794
120	0x3e458b8b	0.19291513
121	0x3d0542fc	0.032534584
122	0x3da7cdb1	0.081935294
123	0x3dcd9fc1	0.10040236
124	0x3e55f234	0.20893174
125	0x3e466758	0.1937536
126	0x3e1d280f	0.15347312
127	0x3e48fce3	0.19627719
128	0x3c8dabce	0.017293837
129	0x3d696675	0.056982476
130	0x3e04d469	0.12971653
131	0x3c8995f8	0.016795143
132	0x3df284e0	0.1184175
133	0xbdda92dc	-0.106725425
134	0x3c886c24	0.016653128
135	0xbdde84f0	-0.108651996
136	0xba84df41	-0.0010137336
137	0xbe0d8f3a	-0.13824168
138	0x3db34658	0.087536514
139	0x3deed892	0.11662401
140	0xbdfe1441	-0.12406207
141	0x3e00ad1d	0.12566037
142	0x3df19412	0.1179582
143	0x3c537ce3	0.012908193
144	0xbcf58066	-0.029968452
145	0x3d03591e	0.03206741
146	0xbde4a6d1	-0.1116463
147	0x3df88680	0.12135029
148	0x3e0e4a52	0.13895538
149	0xbc1354db	-0.008992399
150	0x3d2f4ae5	0.042796034
151	0x3d8d0448	0.06885582
152	0x3d31c1bb	0.043397646
153	0x3e03ea1c	0.12882274
154	0x3db9a8f5	0.09065429
155	0x3c7e2cad	0.015513581
156	0xbcdf6fcf	-0.027274994
157	0xb99b946e	-0.00029674493
158	0xbce48a65	-0.027898023
159	0x3c5b9306	0.013401752
160	0xbe1aebb3	-0.15128975
161	0x3e1b0246	0.15137586
162	0x3d849396	0.06473462
163	0xbd97d113	-0.074129246
164	0xbd07d6ee	-0.033163957
165	0x3d85b037	0.06527751
166	0xbde7d73b	-0.11320349
167	0xbd5b8567	-0.05359402
168	0xbd6593dc	-0.056049213
169	0x3dbf5d89	0.09344012
170	0x3b99b7ec	0.0046911146
171	0x3db92946	0.090410754
172	0xbd1bd303	-0.038043033
173	0x3c87047f	0.016481636
174	0x3e13341b	0.14375345
175	0x3cc9acc5	0.024618516
176	0x3cef766c	0.029231273
177	0xbc8d4659	-0.017245458
178	0xbdd3cf96	-0.10342328
179	0xbdf96c4e	-0.121788606
180	0xbc04687f	-0.008081554
181	0xbd36ab16	-0.044596754
182	0xbd4e14eb	-0.050312918
183	0xbc9381e8	-0.01800628
184	0xbcba2b7a	-0.02272581
185	0x3d869b5d	0.06572602
186	0xbe0fbb9c	-0.14036411
187	0xbba03bd5	-0.004889945
188	0x3d9b5d74	0.07586184
189	0xbc87e583	-0.016588932
190	0xbd4aa227	-0.049471047
191	0xbddc0428	-0.1074298

gru.bias_hh_l0_reverse f4 [192]
0	0xbd20a40c	-0.039218947
1	0x3dcfff52	0.1015612
2	0xbe05dadb	-0.13071768
3	0xbd8f5225	-0.0699809
4	0xbd927343	-0.07150891
5	0xbd7609da	-0.06006799
6	0x3d6c0af8	0.057627648
7	0x3d915deb	0.070979916
8	0xbd9607a5	-0.07325677
9	0x3e144682	0.14480022
10	0xbe5b885a	-0.21438733
11	0xbd0df062	-0.034653075
12	0xbdd42d6b	-0.10360225
13	0x3da3b88b	0.07994183
14	0x3a162878	0.0005728076
15	0xbdbf83c7	-0.093513064
16	0x3e28c7f0	0.1648252
17	0xbd5e6a48	-0.054300576
18	0xbe9bce33	-0.30430755
19	0x3c468f19	0.012119078
20	0xbd1e7348	-0.03868416
21	0x3cf96a5f	0.03044623
22	0x3c8eb9ac	0.01742252
23	0x3ca63842	0.020290498
24	0x3d8ac5bc	0.06775996
25	0x3e1e3501	0.15449907
26	0xbd41ce85	-0.047316093
27	0xbd1292cd	-0.03578453
28	0x3dac226b	0.08405002
29	0xbe0b6a11	-0.1361468
30	0x3df56df6	0.11983864
31	0x3ca262bf	0.019822476
32	0xbe06d563	-0.13167338
33	0xbca1303c	-0.01967632
34	0x3dcffd81	0.10155774
35	0x3daf557a	0.08561225
36	0xbe07195a	-0.13193265
37	0x3e1f9c2f	0.15586923
38	0xbcae3a0c	-0.021267913
39	0x3cc00ae0	0.023442686
40	0xbe16f3d7	-0.14741455
41	0xbe81b094	-0.2533003
42	0xbe4c853a	-0.19972697
43	0x3e092bd6	0.13395628
44	0x3e211f4f	0.157346
45	0xbd03f1e1	-0.032213096
46	0x3b681299	0.0035411476
47	0x3d86e61f	0.06586861
48	0xbdeb98c3	-0.11503746
49	0xbbe6a770	-0.007039003
50	0x3da88371	0.082281955
51	0x3da0fbad	0.07860503
52	0xbd5abeca	-0.053404607
53	0xbd146ac4	-0.036234632
54	0x3e079518	0.13240469
55	0x3de4c377	0.111700945
56	0x3d252851	0.04032165
57	0xbd82835e	-0.063727126
58	0x3d3b0f74	0.045669034
59	0x3db0bef3	0.08630171
60	0x3d807c21	0.06273676
61	0xbd1b855e	-0.037968986
62	0x3c2cde30	0.0105510205
63	0xbcb0e0d2	-0.021591578
64	0x3df9ef74	0.12203875
65	0x3da20928	0.07911903
66	0x3da51361	0.08060337
67	0x3e2b940e	0.16755697
68	0x3d91a164	0.07110861
69	0xbd9b1cf8	-0.07573885
70	0x3df06cb0	0.117394805
71	0xba9c6e0e	-0.0011934654
72	0x3e7571b2	0.23969153
73	0xbe1ddde8	-0.15416682
74	0x3d493b59	0.049128864
75	0x3e0a7800	0.13522339
76	0x3c6cfc7c	0.014464494
77	0x3d98c1c3	0.07458832
78	0x3d7ecc8d	0.062206794
79	0x3e70cf15	0.23516496
80	0xbbd8ff27	-0.0066222134
81	0x3d6b4d77	0.057446923
82	0x3e6ff44e	0.23433039
83	0x3e16b60c	0.14717883
84	0x3e14a64a	0.14516559
85	0x3ddfa63a	0.10920377
86	0x3e8c111a	0.27356797
87	0x3e85507b	0.26037964
88	0x3e053b4c	0.13010901
89	0x3e00280e	0.1251528
90	0x3d8c43ad	0.06848846
91	0x3e85118c	0.2598995
92	0xbb82e173	-0.003994161
93	0x3e25cb01	0.16190721
94	0x3e14174d	0.14462014
95	0xbd287ce7	-0.04113474
96	0xbdc87149	-0.097872324
97	0x3e1ea8fd	0.15494151
98	0x3e04f2c4	0.12983233
99	0x3e1991c2	0.14997008
100	0x3e91b5ee	0.28459114
101	0x3d2d7e8b	0.04235701
102	0x3d3e74d3	0.04649813
103	0x3e0e5237	0.1389855
104	0x3e00f531	0.12593533
105	0x3dec8216	0.115482494
106	0x3e9a54ad	0.30142727
107	0xbd4f59b1	-0.050622646
108	0xbd93e5f0	-0.072215915
109	0x3e894051	0.26806882
110	0xbcaa34b2	-0.02077708
111	0x3d6e12dc	0.058123454
112	0x3d09301f	0.033493157
113	0x3dfb9f3e	0.122862324
114	0xbc38c4a3	-0.011277351
115	0x3e40c57f	0.18825339
116	0x3e85262e	0.2600569
117	0x3d54c542	0.051945932
118	0x3dc1d5e8	0.094646275
119	0x3e93aa4a	0.28840858
120	0x3e3685fe	0.17824551
121	0x3d9ffc23	0.07811763
122	0x3c5841ea	0.013199309
123	0x3d92aaa2	0.07161452
124	0x3dd50c8e	0.10402785
125	0x3e7a1418	0.24421728
126	0x3dd0fb8e	0.1020423
127	0x3e7859ba	0.24252978
128	0xbd8de90a	-0.06929214
129	0xbd6371a6	-0.055528305
130	0x3bd9f507	0.006651524
131	0x3d5a17f6	0.053245507
132	0x3d348f24	0.044081822
133	0x3cdf418c	0.027252935
134	0x3daccde0	0.08437705
135	0x3d423834	0.04741688
136	0x3b581d59	0.0032976477
137	0xbe3eb3c5	-0.18623264
138	0xbcc26004	-0.023727424
139	0x3c694484	0.014237527
140	0xbd5c215e	-0.05374276
141	0x3dcba729	0.09943993
142	0x3c85a671	0.016314717
143	0xbcca65b5	-0.0247067
144	0xbe224781	-0.15847589
145	0x3de4d111	0.11172689
146	0xbaded66d	-0.001700116
147	0x3dd40f62	0.103544965
148	0xbbbc64b6	-0.0057493104
149	0x3d58f6ff	0.05296993
150	0xbddf52fe	-0.109045014
151	0xbbd2454e	-0.006416953
152	0xbd85fb09	-0.06542022
153	0x3e069213	0.1314166
154	0x3e124a7c	0.14286226
155	0xbd4481b9	-0.047975276
156	0x3d01f60a	0.03172878
157	0xbdb80358	-0.08985013
158	0xbcce1c8e	-0.0251601
159	0x3e06d004	0.13165289
160	0xbc30d69e	-0.010793356
161	0x3cf95c6c	0.030439578
162	0xbdaafc83	-0.08348944
163	0xbd922b01	-0.071371086
164	0x3d7f2191	0.06228787
165	0x3d52d55d	0.05147301
166	0xbdea6855	-0.11445681
167	0x3c55680d	0.013025296
168	0x3bbc7099	0.0057507274
169	0xbc7a26b7	-0.015268019
170	0x3bdaa049	0.0066719395
171	0x3d3f9860	0.046776175
172	0xbdbc96c2	-0.09208442
173	0x3c06e4c2	0.008233251
174	0xbc036a00	-0.008020878
175	0xbd9326cb	-0.071851335
176	0x3d5bc38b	0.05365328
177	0xbd818aa2	-0.0632527
178	0xbcca40ec	-0.02468916
179	0xbad1661e	-0.0015975868
180	0xbc11fc86	-0.008910304
181	0xbd64eaba	-0.055887915
182	0x3d8ee336	0.06976931
183	0x3e3d923e	0.18512818
184	0xbdb0f097	-0.08639639
185	0x3da5cf5a	0.0809619
186	0xbdfd7241	-0.12375308
187	0x3dcaab35	0.098959364
188	0xbc745e63	-0.014915082
189	0xbdb3a58b	-0.08771809
190	0xbafd120c	-0.0019307747
191	0x3da66722	0.0812514
