ablation_study/results/pure_lstm_model.pth (torch, 100977 bytes, 7 tensors)

lstm.weight_ih_l0 f4 [256, 13]
000000 3a d8 44 3e de 5f 06 bd 65 ed 1f bd 7b cd 40 3d
       0.19223109 -0.03280627 -0.039044756 0.04707096
000010 e3 44 ab 3d b4 a8 01 be 4f 93 91 bd a4 41 92 bd
       0.083627485 -0.12662011 -0.07108175 -0.07141426
000020 22 c9 13 bc 10 fb 5b 3d 64 c6 75 3a 63 93 94 bd
       -0.009020122 0.05370623 0.0009375571 -0.07254674
000030 fc 93 b7 bd 7b 1d a0 3c 36 8a 11 be 00 75 07 bd
       -0.08963773 0.019545307 -0.1421288 -0.033070564
000040 1e 61 f6 3c 3d c2 04 3e 8e 4d 62 3d cd 52 4f be
       0.030075606 0.12964721 0.055249743 -0.2024643
000050 56 b9 b0 3d 0e d0 85 bd 43 03 9f bd fa 70 29 3d
       0.086291 -0.06533824 -0.07764294 0.04136751
000060 53 0e 45 bd 90 62 c0 3d f4 5e 3b 3d e2 68 a3 bd
       -0.048109364 0.09393799 0.04574485 -0.07978989
000070 77 2e aa bd 8a 14 b5 bc 79 43 3c 3c 1c 13 7e 3d
       -0.08309644 -0.02210452 0.011490696 0.062029943
000080 08 e7 2e be 48 7c 8b bc 66 cc 08 3e a8 ba f2 3d
       -0.17080319 -0.017027035 0.13359222 0.11852008
000090 e8 55 88 3d 8a c0 79 3e 53 e7 84 3e 96 c0 b5 3c
       0.0665701 0.24389854 0.25957736 0.022186559
0000a0 70 e7 26 3e d9 fc 17 3d c9 a8 9a bb 9e 1d ab bd
       0.16299224 0.03710637 -0.004719828 -0.083552584
0000b0 bf 97 e6 3d 62 c3 1a be 00 30 c1 38 38 41 3e 3d
       0.11259412 -0.15113595 9.211898e-05 0.046448916
0000c0 64 a0 3e bd d2 85 02 3e b1 59 dc bd a9 d4 07 be
       -0.04653968 0.12746361 -0.10759295 -0.13264717
0000d0 90 b3 94 bc 1b 71 c2 3a d4 19 08 3d 0b 2f 0f bd
       -0.018152028 0.0014834733 0.033227757 -0.034956973
0000e0 93 ed 05 3e 95 cd c3 bd 68 e2 6f 3c 00 45 3e 3a
       0.13078909 -0.09560696 0.014641382 0.00072582066
0000f0 db dd 9d bd 86 a3 e7 3d 24 43 c0 bd 33 03 a0 3d
       -0.07708331 0.113104865 -0.09387806 0.0781311
000100 8e 9a 7d 3d 93 90 3a 3d fb 53 08 be 56 e5 2e bd
       0.061914973 0.045548033 -0.13313286 -0.04269918
000110 e6 d3 7f 3d 1e 65 85 3d 83 18 7f bd fa 24 9d bc
       0.06245794 0.06513427 -0.062279236 -0.01918267
000120 70 c3 7a 3d 03 4d 84 bd 1b 83 89 bd 13 2e d3 3d
       0.06122154 -0.06460001 -0.067144595 0.10311522
000130 40 46 81 3d d2 20 f6 bb e2 6b c7 bd 2b d5 d1 bd
       0.06312227 -0.0075112367 -0.09737374 -0.10245737
000140 6a 14 52 3d 80 af 96 3d 17 b0 9b 3c b3 01 ab 3d
       0.051289 0.07357693 0.019004865 0.083499335
000150 04 2e f9 bd 00 71 58 ba 47 49 ba 3c 38 33 f4 bd
       -0.1216698 -0.00082565844 0.02274002 -0.11923832
000160 ea 89 06 bc dc bf 3e be fe 73 01 be bc 82 59 3d
       -0.008211592 -0.18627876 -0.12641904 0.053103194
000170 ef 9b 8f bd 9c a3 7b 3c bc e4 01 3d 44 be 9c 3d
       -0.07012164 0.015358832 0.03171228 0.07653478
000180 e2 08 0a be 88 eb 9b bb 76 01 8e 3d 29 04 45 3e
       -0.13479951 -0.004758302 0.069338724 0.19239868
000190 d6 62 ac 3d 17 55 12 3d 37 f8 03 bd 8e 1b f7 bd
       0.08417289 0.03572568 -0.032219138 -0.120658025
0001a0 11 d2 8a bc 89 fa a3 3d 1e 7f e5 bd b2 e3 c5 bd
       -0.01694587 0.0800677 -0.11205886 -0.0966257
0001b0 ce 6c 03 bd 28 e5 58 3e 6c e2 3c 3e 40 33 88 bb
       -0.032086186 0.21181166 0.18445748 -0.0041565
0001c0 2e 3a 2e be 30 1c 08 bd 60 52 19 3d c9 53 4f 3d
       -0.17014381 -0.033230007 0.037432075 0.050617013
0001d0 4d c2 d2 3d d9 bb 5c 3d f2 10 3a 3d eb 30 97 3d
       0.10290966 0.053890083 0.045426317 0.07382377
0001e0 6f f1 93 bd 1e 62 6c 3d b8 8b 80 3d 2f 20 1d bb
       -0.07223784 0.05771076 0.06276649 -0.0023975482
0001f0 28 5f 21 bd 88 0e 24 3d aa 94 12 3e 75 87 78 bc
       -0.03939739 0.04005292 0.14314523 -0.015169014
000200 15 8c aa 3d f4 6c 74 3d 1f 7c 0b 3e d8 84 16 3e
       0.083275 0.05967422 0.13621567 0.14699113
000210 41 5d bd bd 98 da 43 be 01 d7 12 bc b1 0b 38 3d
       -0.092463024 -0.19126356 -0.008962394 0.044933025
000220 f3 d6 72 bd 00 9e cd ba 95 ff ed 3d 11 ac 92 3d
       -0.059287023 -0.0015687346 0.11621014 0.07161725
000230 3f 97 46 3e d2 2a 6a 3d f6 1e 6c 3c 15 cd 9d 3c
       0.19393633 0.057169743 0.014411679 0.01926283
000240 f3 c3 1c be 46 26 35 3e 97 00 39 3d 33 86 a7 bd
       -0.15309124 0.17690381 0.04516658 -0.08179893
000250 b7 92 24 3d 97 32 44 3d a0 95 b3 3c eb 0b 4d 3c
       0.04017898 0.04789981 0.021921933 0.0125150485
000260 f4 71 a3 bc 2f 7e 86 3c b9 47 71 3e b0 87 84 3e
       -0.019951798 0.01641759 0.23562516 0.2588477
000270 f5 ae bb 3d e1 ff 78 bd eb 2c 30 bd 5b 9e a7 bd
       0.0916423 -0.0607909 -0.043011587 -0.08184501
000280 33 d3 f8 bd 1d 90 83 bd 5c 09 4d bd 40 8f a5 bd
       -0.12149658 -0.06423972 -0.050057754 -0.080839634
000290 f3 3e ae bd 37 cd 15 bc 76 86 b8 3d fc 6e 43 3e
       -0.085081 -0.009143165 0.090100214 0.19085306
0002a0 4e 57 29 3e 5f e3 dc 3d 67 4e de bd b7 5d 08 3c
       0.1653721 0.10785555 -0.10854798 0.008323125
0002b0 8c a1 c5 bd 2f a5 a3 bc 3a c6 d4 bd 6f 5f d2 bc
       -0.09649953 -0.019976227 -0.10389371 -0.025680272
0002c0 0a 01 93 bd 66 43 4a 3e ee da 02 3d 99 87 1f 3e
       -0.071779326 0.19752273 0.03194707 0.1557907
0002d0 e0 08 5c 3d 4f 57 36 3b 6d 97 82 bb c5 3f 87 3d
       0.0537194 0.0027823036 -0.0039853365 0.0660396
0002e0 ac c0 f4 bd eb 06 a8 3c 1a fd 38 be ef 26 3c bd
       -0.11950812 0.020511111 -0.180653 -0.045935567
0002f0 1c 87 1e bc 74 dd 0e bd ca 1e 1a 3e 21 47 a7 3c
       -0.009675767 -0.034879163 0.15050808 0.02041966
000300 e6 52 b0 3c e9 57 00 3e 65 d7 47 3e 89 29 36 3e
       0.021523904 0.12533535 0.1951576 0.17789282
000310 b5 93 27 bd 59 53 a6 bc 8f 6a 97 3d b9 91 25 3d
       -0.04091235 -0.020303415 0.07393371 0.040422175
000320 7c 81 7b bd 6b f7 ea ba e8 f6 eb 3c ee dc 07 3e
       -0.061402783 -0.001792652 0.028804258 0.13267872
000330 80 09 12 3e ee 33 31 3e cb 21 ee 3d 53 56 47 bd
       0.14261436 0.17304966 0.11627539 -0.04866631
000340 94 24 fc bd f8 0d 09 bd cd bb c6 bd 53 b6 24 3d
       -0.12311664 -0.033460587 -0.09703789 0.04021294
000350 62 18 e6 bd 39 44 d6 3d cd f8 09 3b 16 9d fa bd
       -0.112351194 0.10462231 0.0021052838 -0.12236993
000360 4d 51 5c bb 7d 71 5e bc 88 da ad bd 45 eb 80 3c
       -0.0033617795 -0.013576862 -0.08488947 0.015737185
000370 88 ae 11 bd 8b fd a8 bd 6d 16 21 be 74 b5 a0 3c
       -0.035566837 -0.082514845 -0.15731211 0.019617774
000380 93 f2 97 3d c3 94 cb bd 38 92 ee 3d 8e 9c ec bd
       0.07419314 -0.099404834 0.11648983 -0.11553298
000390 26 18 b7 3d 37 a6 72 bd 77 d7 f1 bc a2 02 8d 3d
       0.08940153 -0.059240546 -0.029521687 0.06885268
0003a0 11 20 d9 bd 9b ee b0 bd 70 0d f9 3d 5f b7 02 bd
       -0.10601819 -0.086392604 0.12160766 -0.031913158
0003b0 5e 2c e6 bc 06 d2 95 bd 41 a2 c7 3c 6e ab 9a bd
       -0.028097328 -0.073154494 0.02436936 -0.07552229
0003c0 f8 57 45 3d 70 fa 89 bc 35 6f 9a 3d 22 13 bf 3d
       0.048179597 -0.01684305 0.07540742 0.09329821
0003d0 54 62 91 bb 68 57 b5 3b 9a 83 50 3e 79 9b 9e bd
       -0.0044367705 0.0055341013 0.20362702 -0.07744498
0003e0 97 48 56 3d be c0 41 3e d6 ed 4f be 31 10 9a bd
       0.05231532 0.18921182 -0.20305571 -0.075226195
0003f0 8a e1 2a 3e 22 ab 6d bd d0 52 de bc c0 d6 3c bc
       0.16687599 -0.058024533 -0.027139097 -0.01152581

lstm.weight_hh_l0 f4 [256, 64]
000000 28 da 05 3e a9 7d 9c 3d b7 6f 9c bc 46 3f a3 bd
       0.13071501 0.07641155 -0.019096239 -0.07971053
000010 90 e4 80 bd a9 b1 f4 3d ea c9 c1 bc 05 e9 dd 3d
       -0.06293595 0.119479485 -0.02365585 0.108354606
000020 66 c9 28 3e e1 c6 bb bd fb 07 90 bd c7 17 a5 3d
       0.16483077 -0.091687925 -0.07032772 0.08061176
000030 54 a1 ce bc f9 a8 20 3d 5e 8e 9d bc b9 fe c1 3d
       -0.025223412 0.039223645 -0.019232925 0.094724126
000040 ee b2 8c 3d 03 a8 a2 3c 4a 06 c5 3d ac 4e 1b 3e
       0.06870066 0.019855505 0.0962034 0.1516673
000050 3c e0 3f 3b e6 95 8a 3d f8 e4 38 bd 66 48 9b bd
       0.0029277941 0.06766872 -0.045140237 -0.07582168
000060 f9 02 67 3c 70 ad 7c 3d c9 eb 38 bd c0 27 94 bd
       0.01409983 0.06168884 -0.045146737 -0.07234144
000070 4d 10 df 3c bf cd 6f 3d c0 e2 8c bd 05 bf ce bd
       0.027229453 0.058545824 -0.06879187 -0.10095028
000080 d2 de 35 bd 79 cc aa 3d d4 0a 4c bb 96 85 79 3d
       -0.04440195 0.08339781 -0.0031134384 0.060918413
000090 99 44 2d 3d 87 f3 e1 3d fa ba 67 bd 79 ae cf 3d
       0.042301748 0.11032777 -0.0565748 0.101407
0000a0 93 0c 7a 3d f7 ca 16 bd c0 c8 d4 bd ab be cc 3d
       0.061047148 -0.036814656 -0.103898525 0.099973045
0000b0 b3 d9 a4 3d b7 ff 56 3d 7b e7 cd bd 87 5c 9f bd
       0.08049335 0.052489962 -0.10053917 -0.0778132
0000c0 d7 b8 49 bd 67 88 87 bd 00 2e 2a bc ab c6 8b 3c
       -0.049248543 -0.066178136 -0.010386944 0.017062506
0000d0 5d 01 0d bd 73 fb 69 bd 21 b1 d6 3c 67 54 08 be
       -0.03442513 -0.057124566 0.026207509 -0.13313447
0000e0 07 12 6e 3d a1 c0 89 3d 6f b9 13 bd c5 c0 c4 bc
       0.05812266 0.06726194 -0.036065515 -0.0240177
0000f0 2b cc c5 3d ca 7e a8 bd 6c c4 c5 bc 8e 93 83 bc
       0.096580826 -0.08227308 -0.024141513 -0.01606157
000100 94 32 15 3d f1 80 1d be db 29 e3 3c 33 33 02 3e
       0.03642519 -0.15381218 0.02772992 0.12714843
000110 57 b9 fc 3c f8 d8 a5 3c ad 3b 4d bd fe 1e d8 bd
       0.030850096 0.02024506 -0.05010574 -0.10552786
000120 1a db db bd 77 79 9f 3d 77 4d e2 bd d4 46 0f be
       -0.1073515 0.077868395 -0.110499315 -0.13991863
000130 3c b8 09 be 06 01 b1 3c c5 4e 21 bd 06 60 ef 3c
       -0.13449186 0.021606933 -0.03938176 0.029220592
000140 8b 5a f5 3d 87 55 32 be fa c8 02 bd 4c 11 03 be
       0.1198016 -0.17415439 -0.031929947 -0.12799567
000150 a8 32 73 bd fc 98 9f 3d 3d 6e 82 bd 50 1f a5 bd
       -0.05937448 0.07792851 -0.063686825 -0.08062613
000160 bf e8 4f be a3 4f ef 3d 47 52 d6 bb 95 85 a9 3d
       -0.2030363 0.116851114 -0.00654057 0.08277432
000170 9a 3f 12 3c 20 c5 40 3d e1 1f 40 3c b4 45 90 3d
       0.008926297 0.047062993 0.0117263505 0.07044545
000180 21 66 60 3d 2d 43 10 3c 5c 88 01 be f0 57 03 be
       0.054784898 0.008805078 -0.12649673 -0.12826514
000190 d4 ed e2 bd 10 3c 11 bd ef 93 45 bd 55 66 93 3d
       -0.11080518 -0.03545767 -0.048236784 0.07197253
0001a0 00 64 d4 bd 57 ed 3d 3e d2 db c8 3d 18 1d 4e bd
       -0.10370636 0.18547569 0.098075524 -0.050320715
0001b0 9a 68 d1 bd a1 f5 6d 3d 45 cd 43 bd 35 9e 12 3e
       -0.10225029 0.058095578 -0.047803182 0.14318164
0001c0 af 73 0a 3e bc 01 87 bc 23 0d 9f 3d 02 7f 40 3d
       0.13520692 -0.01648032 0.077661775 0.046996124
0001d0 41 68 3e be 9c f7 dd 3c f1 4e 09 be 76 94 ae 3c
       -0.18594457 0.027095608 -0.1340902 0.021311026
0001e0 16 d1 33 be 53 ea 93 3d a2 b9 25 be 0a da 3e 3e
       -0.17560229 0.07222428 -0.16184095 0.18637863
0001f0 ac ff fc bd 85 f4 a9 bc 3f 63 2f be 5d f9 04 3e
       -0.12353453 -0.020746479 -0.17127703 0.1298575
000200 01 95 59 3d 79 24 4d bd c5 1f 2d bd ae 18 93 3c
       0.053120617 -0.05008361 -0.042266626 0.017956104
000210 e2 0c 01 3e b4 82 56 3b 2c 73 46 bc ab b4 13 be
       0.1260257 0.0032731714 -0.01211242 -0.14424388
000220 31 3e 0c bd d8 17 be 3d 84 36 92 bd d2 9a 12 be
       -0.034238998 0.092818916 -0.07139304 -0.14316872
000230 f5 29 3e be de cb 1e be c8 e1 c1 bb 4b b0 10 be
       -0.18570693 -0.15507457 -0.005916808 -0.1412975
000240 30 65 99 3d 91 f0 03 be 92 d9 f6 3d 34 ce f1 3d
       0.07490003 -0.12884738 0.12053217 0.11806908
000250 76 6a fe 3d 78 42 5e bc 8b 44 31 bd 38 98 d7 bd
       0.124226496 -0.013565652 -0.04327826 -0.1052708
000260 4a 0e 04 be f3 85 83 3c 24 30 28 be ca 8a 81 bd
       -0.12896076 0.016055083 -0.16424614 -0.063253
000270 16 90 05 bd d7 08 28 3d 1c 36 69 bd 39 1e 18 3e
       -0.032608114 0.041024055 -0.05693637 0.14855279
000280 a4 e3 f1 3d 67 99 7b 3d 0b 99 32 bd 32 3a 20 bd
       0.11810997 0.061425593 -0.043602984 -0.039118
000290 a0 b6 41 bd 5c 5a 8d 3d 48 1f 12 bc a0 ee 12 3d
       -0.047293305 0.06902 -0.008918591 0.0358721
0002a0 99 2e 91 bd 0f 0a 9a bc dc 16 50 bd d2 16 1d 3d
       -0.07088966 -0.018803624 -0.05080305 0.03835184
0002b0 49 70 01 be 8c d5 8e bd 62 cf 45 3d 3d 92 19 3d
       -0.1264049 -0.069743246 0.04829348 0.03749298
0002c0 18 d3 df 3d 0f 1d 91 3d 1a 47 23 bd ef 2a 13 be
       0.10928935 0.070856206 -0.03986273 -0.14371847
0002d0 a7 44 9e 3c 7a a3 8b bd 0f b5 61 3d ac 1a 96 3d
       0.019319845 -0.0681829 0.05510431 0.07329306
0002e0 24 71 55 bd 6a 61 e0 bd 47 5f fd bd 87 9b e4 3c
       -0.052109852 -0.1095608 -0.12371688 0.027906192
0002f0 af 26 ac 3c 2a df ad bc 81 d0 06 be c4 84 14 3e
       0.02101454 -0.021224577 -0.13165475 0.14503771
000300 4f f0 f4 3c c4 2a 2a 3b 3e fa 45 bd 67 33 90 3b
       0.029899744 0.0025965432 -0.048334353 0.004400659
000310 2e b0 ab bc 4a dc 55 3d ca 23 cd 3c 77 03 81 3c
       -0.020958032 0.052212037 0.02504148 0.015748722
000320 58 f6 d2 3d 4a 9d d5 3c 0b 00 ac bb 7e 5d eb 3d
       0.103008926 0.026075978 -0.0052490286 0.114924416
000330 de ab ae bc 81 f9 ce 3b ca 68 04 3e 54 53 c2 3d
       -0.021322187 0.0063163643 0.12930599 0.0948855
000340 09 1d 17 be 89 d6 bd 3d 50 0d ce bb 4b 88 6a bc
       -0.1475717 0.09269435 -0.006288208 -0.014314721
000350 a1 da 70 3b 63 f0 19 3d 79 db f1 3c cc 74 e7 3d
       0.0036751407 0.037582766 0.029523598 0.11301574
000360 a1 2e 57 bd 42 84 8d bd 44 8a 9a 3d 73 e0 16 be
       -0.052534703 -0.06909992 0.07545903 -0.14734058
000370 14 93 60 bd 90 83 25 be 04 b9 d6 3d 32 b5 10 bd
       -0.054827765 -0.16163468 0.10484508 -0.03532905
000380 cb 76 2e 3d 65 7d 12 3e 21 ff 02 3d 42 37 11 3c
       0.04259376 0.14305647 0.03198159 0.008863272
000390 a5 be d5 3c 4f 93 83 3c 4a 31 24 3c 7b 33 80 3d
       0.026091883 0.016061453 0.010021517 0.06259819
0003a0 37 3b 7e 3d 7a 0a bf bd 0e 27 40 3d e4 83 bf 3d
       0.06206819 -0.0932817 0.046912245 0.09351328
0003b0 36 cf a5 3d 0a b8 53 3c 0b c4 86 bd 8a 7d 7a bd
       0.08096163 0.012922296 -0.06580361 -0.06115488
0003c0 5a 19 20 3d 60 f0 b5 3d a2 86 3f be 31 74 cc 3d
       0.039086677 0.088837385 -0.18703702 0.09983099
0003d0 e8 a5 96 3d 78 72 e4 ba 7f 04 27 3e a3 ba db bd
       0.07355863 -0.0017429134 0.16310309 -0.107289575
0003e0 9c 56 63 bd fd fd b8 3d 8b 13 d0 3c d6 be e6 bd
       -0.05550252 0.090328194 0.025399944 -0.11266868
0003f0 3d 79 ee 3b a8 34 c0 3d 88 c2 16 bd b5 6e 0e be
       0.0072776363 0.093850434 -0.036806613 -0.13909419

lstm.bias_ih_l0 f4 [256]
000000 31 32 3f 3c 76 69 9b bc 15 ce 22 3d 04 20 1d be
       0.011669681 -0.018971186 0.039747316 -0.15344244
000010 b8 b3 24 3e 83 34 48 3e 57 7a b5 bc 83 5d c5 3c
       0.16084182 0.19551282 -0.022153063 0.024092441
000020 cc 70 10 3e 64 30 2f 3e f0 df ab 3d eb 42 ca ba
       0.14105529 0.17108303 0.08392322 -0.001543132
000030 f3 d5 20 3e 7c 38 1a 3d af 6b 0a 3e f9 b1 cf 3d
       0.15706615 0.037651524 0.1351764 0.101413675
000040 7b 4d 7d bc 74 f4 bd 3d 6d 3a be 3d 2d 6f 8b 3d
       -0.015460367 0.09275141 0.092884876 0.068083145
000050 d8 80 85 3d 2a c2 54 bd 04 76 fb 3c 41 12 26 3b
       0.065187156 -0.05194298 0.030695923 0.002534047
000060 fe ba 62 3d 5e 3d ba 3d 69 65 4b bd 3f 0d 39 3e
       0.05535411 0.09093736 -0.04965726 0.18071459
000070 8e e5 13 3e 60 a2 a4 bc e9 c3 fe 3d 4f e6 82 3d
       0.14443037 -0.020096958 0.12439711 0.06391584
000080 5b bd c1 bd 1a 1e 36 3d eb 0f d8 bb 03 63 e4 3c
       -0.09459945 0.0444623 -0.0065936944 0.027879244
000090 d0 31 1b ba 31 37 2a 3c 9b ee 14 3d 16 c0 21 3e
       -0.00059202034 0.010389135 0.036360364 0.15795931
0000a0 f7 d7 1e 3c 76 73 9c 3d d2 4e 32 3d a4 ba d8 3d
       0.009695045 0.0763921 0.0435322 0.10582474
0000b0 06 c7 38 bc 25 f1 93 3d 53 3a 34 3e 77 d4 64 3b
       -0.01127792 0.07223729 0.17600374 0.0034916678
0000c0 35 70 9b 3d 4c d8 47 3e 4d f9 38 3e 04 ca 4e 3d
       0.07589761 0.19516104 0.1806385 0.050485626
0000d0 2e bc b1 bb 7e 22 1c 3e 29 aa 60 bd c6 f8 29 be
       -0.005424044 0.15247533 -0.054849777 -0.16598806
0000e0 f3 c1 0d 3e 25 a1 71 3d de 96 0b 3e c8 34 37 3e
       0.13843517 0.05899157 0.1363177 0.17891228
0000f0 32 a1 12 bd b7 43 29 3d 54 c3 d3 bc f1 16 68 3c
       -0.03579826 0.041324344 -0.025849976 0.014165626
000100 26 ab 6e bd dd 98 20 bd 0f bb e5 ba 8c 55 0f 3d
       -0.05826869 -0.03920828 -0.0017527061 0.034993693
000110 31 dd 9c 3c 15 9c aa bc da 09 35 3e 10 5c d5 3d
       0.019148441 -0.020826379 0.1767954 0.1041795
000120 fc 74 4f 3e ac 24 e9 bc a5 e6 0f bc 72 20 2a 3d
       0.2025947 -0.02845987 -0.008783017 0.04153485
000130 40 02 01 3e 8d ff b0 3d d1 b0 4f 3c 11 35 43 3d
       0.12598515 0.086424924 0.012676434 0.04765803
000140 2d 43 b6 3d e0 e8 a9 bc 20 c8 d8 bd d1 d2 70 3d
       0.088995315 -0.020740926 -0.10585046 0.0587948
000150 92 65 4e 3e dc dc 7d 3d ba c5 1f 3c 66 b3 33 bd
       0.20155933 0.061978206 0.0097517315 -0.04387226
000160 b3 c7 ce 3d 23 d8 06 3e c9 fe bb 3d 0f 08 10 3e
       0.10096683 0.13168387 0.09179456 0.14065574
000170 d3 cf c3 3d 77 b4 23 3e 8f 2f 4b bd 92 d3 73 3d
       0.09561124 0.1598681 -0.049605902 0.05952794
000180 cc 7f 30 3d 76 69 40 bc 50 2e a9 bd aa e9 33 3e
       0.043090627 -0.011743894 -0.082607865 0.17569605
000190 33 d2 12 bd 0d f2 01 bd ac 38 1e be 9e 35 28 3e
       -0.035844993 -0.03172498 -0.15451306 0.16426703
0001a0 e2 fc ba 3d 2c 86 37 3a fc a3 ff 3d a7 6a 89 3d
       0.09130265 0.0007000889 0.124824494 0.067097954
0001b0 49 1b 37 3e 93 b7 00 bd 7e 0e b2 bc 00 99 db 3d
       0.17881502 -0.03142507 -0.021735426 0.10722542
0001c0 e3 ea 05 3e 7c 87 1a 3d e8 4e 63 3b 05 ca 5c 3c
       0.13077883 0.037726864 0.0034684483 0.0134759
0001d0 2f d8 95 bd 3d b5 85 3d 95 7e a6 bc 9d 07 e1 bb
       -0.073166244 0.06528709 -0.02032403 -0.0068673627
0001e0 31 5f fe bd 21 01 a3 3d 0a 91 f5 3d bc 21 24 3e
       -0.124205 0.079592 0.11990555 0.16028494
0001f0 8e 89 32 3c 7d c7 52 bc 40 e0 19 bd 74 2c 0b 3e
       0.010897053 -0.0128649445 -0.037567377 0.13591176
000200 52 40 8b bd 6c 16 27 bd 8d d9 de bd 53 01 93 3d
       -0.067993775 -0.040792868 -0.10881338 0.07177987
000210 ed 92 3e 3e 34 a7 34 be 56 87 4e be 0d 55 c6 bd
       0.18610735 -0.17641908 -0.20168814 -0.09684191
000220 a1 66 b2 bd 9d ba 28 3b 9c 57 25 bd ee 19 87 bd
       -0.08710981 0.0025745996 -0.040366754 -0.065967426
000230 4d 4f 11 be 9b e6 0d be c8 6d f4 bc 4f e2 07 be
       -0.14190407 -0.138575 -0.029837504 -0.13269924
000240 de bd 67 3d 6a 26 df bd 35 fa c4 3d c9 16 8c bd
       0.056577556 -0.10895999 0.09618036 -0.068402834
000250 56 7d 4d 3e ed 05 43 3e b7 72 13 3d c6 b0 c9 bd
       0.20067343 0.1904523 0.035998072 -0.0984817
000260 99 4f 03 be 3e a0 f7 3d 25 b3 09 3b 79 d8 0c 3e
       -0.12823333 0.12091111 0.002101132 0.13754453
000270 7b d2 3c 3d ea 82 1b 3e ec a3 bc bd 99 e4 ca 3d
       0.046099167 0.15186659 -0.09210953 0.09906883
000280 2b 39 3e 3d 81 02 63 be 87 f4 50 bd 64 5b a7 bd
       0.04644124 -0.22168924 -0.05101445 -0.08171728
000290 00 0f b0 bd 0a 64 50 be 71 d7 8e bd 5e f8 58 3c
       -0.08596611 -0.20350662 -0.06974686 0.013242809
0002a0 c4 11 48 be e8 e3 53 3e 5c 81 9a 3c 28 2c f4 bd
       -0.19538027 0.20692408 0.018860511 -0.11922485
0002b0 38 84 16 be d3 1f 22 3e 2b 4f 33 3e 7f e8 86 bd
       -0.14698875 0.15832452 0.17510669 -0.06587314
0002c0 d0 e9 0d ba 8d 3c 87 bd 77 35 0d 3b 0d 9a 2d be
       -0.0005413564 -0.06603346 0.002154676 -0.16953297
0002d0 e3 52 25 be c2 01 c9 bd 7b 33 36 be 89 a4 e8 3d
       -0.161449 -0.098147884 -0.17793076 0.113595076
0002e0 c7 0a 03 be ad 35 04 be 4f 8c e3 bc fc b3 3b 3e
       -0.1279708 -0.129111 -0.027776865 0.18330377
0002f0 a4 a6 4e be 70 0e b1 bd 6b 6b 3f be c3 a1 b1 3d
       -0.20180756 -0.08645332 -0.1869332 0.08673432
000300 8c 85 aa 3c 16 d0 37 bd a5 85 98 3d 6d 36 57 3d
       0.020815633 -0.04487618 0.07447366 0.05254214
000310 52 5d 6b 3d 04 06 2c 3e 79 a5 38 3c a3 c9 1d 3d
       0.057462044 0.1679917 0.0112699205 0.038522374
000320 0c b1 2a bd 52 92 88 bd 05 6e 51 3d fd a4 32 3d
       -0.04167275 -0.066685334 0.051130313 0.043614376
000330 d9 30 5f 3e a1 f5 8c 3d de 7c a2 3d 0c a2 29 3e
       0.21795978 0.068827875 0.07933973 0.16565722
000340 77 6d 15 3e 84 72 36 3e 86 12 a6 bc 83 ee 0d 3d
       0.14592539 0.17817122 -0.020272505 0.03465129
000350 9e ae 05 3e 01 9e 18 3e d6 83 0b 3d 84 79 0e be
       0.13054892 0.14904024 0.034061275 -0.13913542
000360 98 9b 7d bc 49 cc 22 3e ac 39 df 3d 4f b2 fe 3d
       -0.015478991 0.15898241 0.10899672 0.124363534
000370 2e 75 75 3d ec 9a 86 3d 15 3d 4e 3d b3 ab 81 3d
       0.059926204 0.06572518 0.05035122 0.06331577
000380 a0 f7 99 bd af 71 39 3e fc d4 d5 bd 44 61 d8 bd
       -0.07517934 0.18109773 -0.10441014 -0.10565427
000390 f4 b1 3a be d8 ad cb 3d 8b fa e8 bd ea 04 02 be
       -0.18231946 0.099452674 -0.11375912 -0.12697187
0003a0 91 a3 a0 bc da d2 01 bd da 05 9e 3b a9 28 fd 3d
       -0.019609245 -0.031695224 0.004822475 0.12361271
0003b0 89 71 94 3d 89 50 cb 3d aa a6 e2 3d b2 d7 d7 bd
       0.072482176 0.0992747 0.11066945 -0.105391875
0003c0 43 a0 08 be 4e 87 d9 3d 3f 1b 16 3d 20 aa 3f bb
       -0.13342385 0.106215104 0.036647078 -0.002924569
0003d0 10 bf 69 3d 82 15 c4 bd 49 07 ae bc 9e 8b 0d be
       0.057066977 -0.09574415 -0.021243708 -0.13822791
0003e0 15 9b 80 3d 3f b3 3b 3e 60 a7 f9 3d c0 c3 f6 3d
       0.062795796 0.18330096 0.121901274 0.12049055
0003f0 47 b3 2e 3e fb 8e 04 bd 81 e7 41 3e fa a9 c1 ba
       0.17060576 -0.03236292 0.18935968 -0.0014775388

lstm.bias_hh_l0 f4 [256]
000000 47 d1 3a 3d 43 be 3c 3e b1 f9 8b 3d 42 52 58 bd
       0.04560974 0.18431954 0.06834734 -0.052812822
000010 4d 46 a5 3d a3 b9 31 3e 5c 44 e7 3d e4 18 13 3e
       0.080700494 0.17355971 0.112923354 0.14364964
000020 cc a6 bf 3d a0 54 23 3d 74 42 b2 3c 85 a6 ea 3d
       0.09357986 0.039875627 0.021760203 0.11457542
000030 78 a1 8e bb cd f7 58 3e 8b 51 5d bd d9 18 25 3d
       -0.0043527447 0.21188278 -0.054032844 0.0403069
000040 47 f9 0e 3e c8 0a 9e 3d 67 fc 16 3d 66 bd 94 bd
       0.1396228 0.077169 0.036861803 -0.072626874
000050 71 14 04 3d a7 0a fd bc e2 96 11 3d 95 4a c4 3c
       0.032246057 -0.030888868 0.035544284 0.023961345
000060 44 50 c2 bc 33 72 df 3c 41 54 03 bd 14 8a 94 bc
       -0.023719914 0.027276134 -0.032062773 -0.018132247
000070 cf 4d 91 3d bc a4 6f 3a ce 7b a5 3d 5b 98 26 3e
       0.07094919 0.0009141674 0.080802545 0.16269056
000080 75 7b 72 bd 52 d7 00 bd 9d d3 46 bd b5 5f 2c 3e
       -0.05919977 -0.031455345 -0.048541654 0.16833384
000090 56 e9 2c be d4 f9 10 3e 33 d7 3f bd f7 26 60 3d
       -0.16885886 0.14157802 -0.04683609 0.05472466
0000a0 74 92 b8 3d be 30 1f 3e 36 20 13 3e 30 ab 60 3d
       0.09012309 0.15545937 0.14367756 0.054850757
0000b0 c7 e6 d3 bc 56 d5 ff 3d 3e 46 a6 3c 4c fc 3b bd
       -0.02586688 0.124918625 0.020297166 -0.045894906
0000c0 51 b2 85 bd a4 00 a3 3d c3 09 39 3e e3 72 2e 3d
       -0.06528152 0.079591066 0.1807013 0.042590033
0000d0 db 0b 97 bd e3 8d 23 3b 68 ee 84 bd 0b 93 1e bd
       -0.07375308 0.0024956397 -0.06490785 -0.03871445
0000e0 c8 82 1e 3e fd e6 48 3e a8 f2 17 3e 97 d7 02 bd
       0.15479577 0.19619365 0.1483866 -0.031943884
0000f0 db ae e3 3d 18 51 19 3e dd 80 fb 3d ae c3 09 3e
       0.111173354 0.14972341 0.12280438 0.13453552
000100 73 2c eb bd a8 dc 27 3e 18 d1 19 bd 58 33 b8 bc
       -0.114830874 0.16392767 -0.037552923 -0.02248542
000110 d0 55 8e bb d5 cf 58 3d a4 6e 82 bc 3f 12 30 bd
       -0.0043437257 0.05293258 -0.015921898 -0.04298615
000120 16 f7 d1 3d 76 15 d6 3d 40 6a 4f 3d a6 9f 31 3d
       0.10252206 0.10453312 0.050638437 0.043365143
000130 63 26 cc 3c d2 39 27 3e 75 1a af 3d 84 0c 10 3e
       0.024920648 0.1633065 0.08549968 0.14067274
000140 15 00 4f 3d 4a 42 09 bd b0 c7 de bd 50 47 e0 3d
       0.050537188 -0.033510484 -0.10877931 0.10951102
000150 71 80 7d 3d 3e ee d7 bc 82 de da bb ee 84 ee bd
       0.06189007 -0.02635872 -0.006679357 -0.11646448
000160 13 af 1d 3d ca 0d 2a 3e f0 e8 f8 3d 6f fc 2e 3e
       0.038497042 0.16606823 0.12153804 0.17088483
000170 b9 ab b2 bd 72 60 85 bc 0e 88 61 3d 5b 61 00 3e
       -0.0872416 -0.01628134 0.055061392 0.12537138
000180 55 d2 47 bb 0c 62 aa bb f8 e5 6b 3d 7d 08 bd bc
       -0.0030490358 -0.0051996764 0.057592362 -0.023075337
000190 d5 6a e2 bc 6d bc b4 3d 53 4f 16 be 75 51 20 bd
       -0.027638832 0.08825002 -0.14678697 -0.039140183
0001a0 d8 b6 45 3e 4c e0 62 bd 54 af 17 3e a7 0a 28 3d
       0.1930803 -0.055389687 0.14812976 0.041025784
0001b0 43 11 40 bd 10 03 e9 3d 7e 34 9b 3d d8 5f 25 3c
       -0.046891462 0.11377537 0.075783715 0.010093652
0001c0 9e e1 d0 3d 2b 6b 30 bb 0f bb 48 3e 9d 2c ea 3a
       0.10199283 -0.0026919346 0.19602607 0.0017866079
0001d0 5b 4d af 3d d2 be 31 3e b6 36 60 3d ff 07 20 be
       0.08559676 0.17357948 0.054739676 -0.1562805
0001e0 1e d3 fb 3d 22 28 4a 3e 51 7e f9 3d 1c a5 91 3c
       0.12296127 0.19741872 0.12182296 0.017778926
0001f0 cd b4 0d 3e 77 f3 05 3d 28 6d d4 3d b9 01 19 3e
       0.13838501 0.03270289 0.103723824 0.14942063
000200 f5 45 a9 3d 7d 24 0b be 15 4b a4 bd 97 51 92 bd
       0.08265296 -0.13588138 -0.08022133 -0.07144468
000210 2d 98 37 3e aa 6d 2f be 0a a6 46 be fd 89 44 be
       0.17929144 -0.17131677 -0.19399276 -0.19193263
000220 b4 32 30 be c5 b0 1e be 62 b0 07 3d 63 6d ec bd
       -0.17206842 -0.1549712 0.033127196 -0.11544301
000230 13 9e 3d be 36 3f c3 bd f5 7a bc 3c e7 b5 41 be
       -0.18517332 -0.09533541 0.02300785 -0.18917046
000240 3f 61 2a 3e b5 7d f7 bd 12 81 97 3d b1 89 dd 3d
       0.16638659 -0.120845236 0.07397665 0.10817278
000250 26 5b d5 3d 85 54 12 bd 7f a1 59 bd 5a 83 d6 bd
       0.10417776 -0.035725135 -0.05313253 -0.10474272
000260 fb 67 b4 bd 58 2a 14 3e d8 3c 1c be 96 4b 25 3e
       -0.08808895 0.14469278 -0.15257585 0.16142115
000270 31 5d 5b 3d b3 41 cd 3d 17 8b 94 bd a1 37 3d 3e
       0.05355567 0.10022297 -0.07253092 0.18478252
000280 26 45 bf 3d b4 3c dd bd 07 ff 05 3c c4 2a 44 bd
       0.09339361 -0.10802594 0.008178479 -0.047892347
000290 a4 b5 bc bd 9d 4d 30 be 48 b2 d6 3c d7 7c 34 be
       -0.09214333 -0.17217107 0.026208058 -0.17625748
0002a0 9d ec 2e be 4e 6e ae 3d 26 65 0a 3e 81 7f 5d bc
       -0.17082448 0.08517133 0.13515148 -0.013519169
0002b0 2f 83 8e bd 31 32 c8 3d e3 1e 1f bc 0f 9a 55 3c
       -0.06958615 0.09775198 -0.009711954 0.013037219
0002c0 1f c8 c2 3d c7 8b 38 be 7d b8 26 3e ca 1d 2f be
       0.09510826 -0.18022071 0.16281314 -0.17101207
0002d0 19 42 4c bd 38 37 06 be 31 f7 39 3d 36 3d c3 3d
       -0.049867723 -0.13107002 0.045401756 0.095331594
0002e0 28 d0 02 be 2d b9 37 be d7 f6 ee bd 4b ec d6 3d
       -0.12774718 -0.17941733 -0.11668175 0.10494288
0002f0 8c 10 01 bc d2 c3 fa bd 17 9c 3d be 39 ca 99 3d
       -0.00787748 -0.12244381 -0.18516575 0.07509274
000300 fa 7e 05 be b7 e1 28 3e 18 10 41 bb f3 c8 9f bd
       -0.13036719 0.16492353 -0.0029459056 -0.07802
000310 16 aa 3c 3d e8 fb bd 3d 8a 2b 20 3e 03 af e2 3d
       0.046060644 0.09276563 0.15641609 0.11068537
000320 36 e1 f6 3d 91 cf d9 3d e9 39 ed 3d 91 06 06 3e
       0.12054674 0.10635293 0.11583311 0.13088442
000330 96 d2 1a bc fc fe 15 bd 19 d0 be bd 22 cf 06 3e
       -0.009449622 -0.036620125 -0.09317035 0.13164952
000340 ad 51 28 3e d9 52 54 3e bc 47 4d bd 41 94 fe bd
       0.16437407 0.20734729 -0.05011724 -0.12430621
000350 d9 71 7e 3c 5a 25 ad 3d c1 39 a9 bc 1b 35 dc bd
       0.015530073 0.0845439 -0.020657422 -0.107523166
000360 94 79 18 3d 09 bb 21 3d 91 03 f7 3d 08 3a 52 3e
       0.03722532 0.03948501 0.12061227 0.2052995
000370 64 ce 93 bd c1 77 21 3e e9 cc 0e bd 67 89 32 bd
       -0.072171 0.15768339 -0.034863386 -0.04358807
000380 df ec 4a bd 5e a0 e6 3d c6 25 b3 bd 58 50 23 3c
       -0.049542304 0.11261056 -0.08747439 0.009967886
000390 c1 ec 02 bd 7d 33 a4 3c d1 23 15 be a7 4b 4b 3d
       -0.031964067 0.020044083 -0.14564444 0.049632695
0003a0 e7 cb 45 bc b1 ca ce 3c 21 6d 89 bd 05 54 06 3e
       -0.01207254 0.025243135 -0.06710268 0.13117988
0003b0 c6 fe f3 3c c1 56 be 3d 90 0b e5 3d c8 ed 76 bd
       0.029784571 0.09293891 0.11183846 -0.06028536
0003c0 2f 3b 1e 3d c4 1f 28 3e f2 d1 3e 3d 9e e3 43 3e
       0.03863066 0.16418368 0.04658694 0.19129798
0003d0 b5 f4 8c 3c c5 cc aa bd 01 db 7f bd 7f 32 e2 bd
       0.01720653 -0.08339838 -0.062464718 -0.110447876
0003e0 d2 94 65 3d 51 29 29 3e c5 50 0b 3e 9e ea 11 3e
       0.05605013 0.16519667 0.1360503 0.14249656
0003f0 1d 43 eb 3d c1 13 1a 3e da ac e8 3d 78 92 be 3d
       0.1148741 0.15046598 0.11361094 0.093052804

dense.weight f4 [64, 64]
000000 66 ea 83 3d e6 2a 9c 3c 7f 37 84 3d a2 72 a5 bd
       0.06441192 0.019063424 0.064558975 -0.08078505
000010 90 a9 96 3c a8 a3 34 bd a5 3e fc 3a bb 6c b0 3d
       0.0183914 -0.044101387 0.0019244744 0.08614489
000020 73 f4 24 3d 64 a5 92 bd 37 07 97 3d 74 c7 35 3d
       0.040272187 -0.07160452 0.07374423 0.044379666
000030 d8 d4 c8 3d d2 09 99 bd 17 b0 17 bd 7a e7 f2 3c
       0.09806222 -0.07472576 -0.037033167 0.029651392
000040 39 45 11 bd 72 03 0d bc fc cd 9c 3d 57 8e 32 3d
       -0.035466406 -0.008606778 0.07656476 0.043592777
000050 80 a2 8b 3d 60 8c 12 3c a8 78 6c 3d 3f 91 e3 3d
       0.06818104 0.008944601 0.057732254 0.11111688
000060 91 a0 02 3e 3a da f9 bd 8d 6c a7 3b ad f6 8a bd
       0.12756564 -0.121998265 0.005109376 -0.06785331
000070 b3 64 02 be 33 31 0c be b7 3f 81 bd 08 cb f6 bd
       -0.12733726 -0.13690643 -0.06310981 -0.12050444
000080 25 58 a5 3c 9d d6 74 3d e4 6d 64 bd 0e f4 69 3d
       0.020183632 0.059774984 -0.055768862 0.057117514
000090 be 14 f3 bd 08 a9 6b bd 18 08 91 3c 4a 84 80 bd
       -0.11869191 -0.057534248 0.017704055 -0.06275232
0000a0 31 d4 69 3d c2 35 cc 3a 68 a5 e5 3d ab ed a4 bd
       0.057087127 0.0015579986 0.11213189 -0.08053144
0000b0 e2 9f e7 3c 3b f7 d3 3c 29 80 a4 3d 9a f3 83 bd
       0.02827448 0.025874725 0.08032257 -0.06442948
0000c0 5f 74 cb bb f3 08 df 3d 92 e3 00 be ce 1c 3b 3d
       -0.006208941 0.10890379 -0.12586811 0.045681767
0000d0 1a 80 a2 3d 14 85 65 bd d8 d0 ab bd cc ae 19 3c
       0.0793459 -0.056035116 -0.08389443 0.009380054
0000e0 f1 d3 93 bd ea 65 b5 bd 40 60 ac 3c 0f b8 dd 3c
       -0.07218159 -0.08857329 0.02104199 0.027065305
0000f0 5c 54 e4 bd 6a 2c ca bc 1c 28 2e 3c b7 12 a4 3d
       -0.11148903 -0.024679381 0.01062968 0.08011382
000100 34 16 ab bd 78 7d 00 be 50 4f 9e bd 07 bc e2 bd
       -0.08353844 -0.12547863 -0.077299714 -0.110710196
000110 e8 7c 12 3e 29 3e 13 be 55 32 3d be 74 1d 2a be
       0.1430546 -0.14379181 -0.18476231 -0.16612798
000120 0a fa 2b be 02 d4 53 3d b3 5c ca bd ee 05 0e be
       -0.16794601 0.05171586 -0.09880962 -0.1386945
000130 a1 31 8f 3b 63 6d 6e 3c 75 31 c3 3d 56 1b e0 bd
       0.00436993 0.014552447 0.095309176 -0.10942714
000140 8d 87 33 3e 11 7b 98 3c c5 60 13 bd ae c6 27 bd
       0.17532177 0.01861337 -0.03598096 -0.04096096
000150 45 60 28 3e c2 ad 8d 3d ef 60 b3 bd b5 53 0e be
       0.16442974 0.06917907 -0.08758723 -0.13899119
000160 a6 7b 5a ba d7 d7 d9 3d ce 17 a8 3c 2c e3 09 3e
       -0.0008334465 0.10636871 0.020519163 0.13465565
000170 b1 ed 6d 3c 86 6b 0f bd 0c 90 0a be b9 08 99 3d
       0.014522002 -0.03501465 -0.13531512 0.07472367
000180 c7 e5 96 3d 3f 7f 4d 3c 79 30 1f bd 9e 8f 5c 3d
       0.07368045 0.012542545 -0.038864587 0.0538479
000190 3a 21 a1 3d 3e 62 b2 bd b7 b2 8b 3d 38 a2 97 bd
       0.078676656 -0.087101445 0.068211965 -0.07403988
0001a0 c0 88 2d be 10 17 72 3d 41 05 4e 3d 08 0c cf bb
       -0.16946697 0.059104025 0.05029798 -0.006318573
0001b0 99 bb fe bb d8 01 35 3e 9b e7 e7 3c 80 47 2e bd
       -0.007773828 0.17676485 0.02830868 -0.042548656
0001c0 ec 47 b0 3d 77 5b 2e 3d 47 8f 0a 3e 1e 87 80 bd
       0.08607468 0.042567696 0.13531218 -0.062757716
0001d0 f2 67 b0 3c 0a 52 c8 bd db da 19 be 4d ac 13 3e
       0.02153394 -0.09781273 -0.15024893 0.14421196
0001e0 3b 45 07 be cf c9 1d 3d f9 ac 8b 3d 6b 62 e9 bc
       -0.13210003 0.038522538 0.06820101 -0.028489312
0001f0 c6 d6 7a 3d b4 b9 fc bd 08 4a e6 bd 05 d5 b4 3d
       0.06123998 -0.123401076 -0.11244589 0.08829693
000200 31 1a 73 3d b2 03 e3 3d e2 97 d9 3d 16 14 8c 3d
       0.05935115 0.11084689 0.106246725 0.068397686
000210 3c 73 be bd 88 90 49 3d 0d 06 d9 bc 31 5f 8d 3d
       -0.09299323 0.0492101 -0.026492143 0.06902922
000220 c9 ca c8 ba bf ee 59 bd d7 e5 8b ba 2f 14 77 3d
       -0.0015319224 -0.0532062 -0.0010673356 0.060321983
000230 cb cc b8 3d c1 e7 3f 3d b8 b6 37 bd e1 1f 6e bc
       0.09023436 0.046851877 -0.04485199 -0.014533968
000240 1c 65 50 3d b8 72 81 3d c1 02 fe 3c 63 3d e9 3d
       0.050877675 0.06320709 0.031007173 0.11388662
000250 51 0f cb 3d 65 70 3a 3d b2 ef 1c 3d 7c 2a 41 3d
       0.09915031 0.045517344 0.03831453 0.047159657
000260 b9 4f 97 bd ba d9 c8 bd 3e a0 99 3d 41 cc ba bd
       -0.07388253 -0.09807153 0.07501267 -0.091209896
000270 6e 77 d1 3c 0c 6c 05 bb 27 cf 72 bd 2b a0 cd 3d
       0.025569644 -0.002035859 -0.059279587 0.10040315
000280 63 ed db 3d 5b 74 48 bd 26 76 9e 3d da f7 b0 bd
       0.10738637 -0.04893909 0.07737379 -0.08641024
000290 7d e4 cd bd 87 75 31 3d 6d 55 b1 3d a2 e4 7c bd
       -0.10053346 0.043324973 0.08658872 -0.06174148
0002a0 c2 ef ab bd 16 0b 6e 3d 8d 3f 9f 3d b7 05 0b bc
       -0.083953395 0.05811604 0.07775793 -0.008485249
0002b0 b1 f3 07 3e 69 ef d9 3c a3 0f 86 bd 37 10 9a 3c
       0.13276555 0.026603417 -0.06545951 0.01880656
0002c0 e4 d4 c8 3c e5 80 88 bd 97 df 89 3b 01 8c 33 3d
       0.024515577 -0.0666521 0.004207562 0.04383469
0002d0 1d 0d 54 3c 74 3a b5 bc 31 41 2d 3d 10 a1 b2 bd
       0.01294258 -0.0221226 0.0422985 -0.087221265
0002e0 f1 f3 71 3c e4 33 94 3c 1a b5 82 3c 3a c7 51 bd
       0.014767633 0.01809115 0.015955497 -0.051215388
0002f0 53 24 85 bd bb e5 c7 3d fc 65 59 3c e0 ef 41 bd
       -0.06501069 0.097606145 0.013268944 -0.047347903
000300 56 95 ae bd 90 2d 59 bd 98 7f 0c bd da 29 8e bd
       -0.08524577 -0.053021967 -0.03430137 -0.06941576
000310 cb 51 b7 bd 95 29 7f bd 2f 05 e0 3d 1d 35 82 3d
       -0.08951148 -0.062295515 0.10938489 0.06357787
000320 11 2d 82 bd 52 86 86 bc 52 45 d5 3d ea 02 14 bc
       -0.06356252 -0.01642147 0.104136124 -0.009033898
000330 5f 84 2c 3d a3 1b e5 bc 51 20 7e 3c 7d 3d 4e 3c
       0.042118426 -0.02796728 0.0155106345 0.012587902
000340 65 25 63 3d f8 3f 50 3d 77 24 09 bd 80 f5 88 3d
       0.055455584 0.050842255 -0.03348204 0.066874504
000350 61 7c e8 bd c5 f0 99 3d 34 51 b9 3d 5e 8f ea bc
       -0.113518484 0.07516626 0.090486914 -0.028632816
000360 45 74 ba 3c 6a fc fc 3c 1f 5a 71 3d 8e 24 06 be
       0.02276052 0.03088208 0.058923837 -0.13099882
000370 c5 a9 11 bd 55 4e 77 b9 00 f3 f6 3c cd f1 b1 3d
       -0.035562295 -0.00023584937 0.030145168 0.08688698
000380 ed 5a 01 3c 91 86 b5 bd 0f d9 e9 bd 85 54 23 3b
       0.007895214 -0.08863557 -0.11418354 0.0024922204
000390 36 8e a5 bd 87 00 79 bd b9 0b d3 3d 51 67 a9 bd
       -0.08083765 -0.06079152 0.1030497 -0.08271659
0003a0 1a 74 cb ba b1 62 b3 bc d4 03 da bd ef f9 4f 3d
       -0.0015522272 -0.021897646 -0.106452614 0.050775465
0003b0 56 38 6d bc aa 5b 3c bd 7a ff de bd f0 18 25 3d
       -0.014478764 -0.045985855 -0.10888572 0.040306985
0003c0 08 08 bf bb f9 9f 17 3e 85 58 3b bd f2 22 ab 3b
       -0.005829815 0.14807118 -0.045738716 0.0052226717
0003d0 97 81 0f 3d 89 a1 5e bd 1d 75 93 bd 66 e7 aa bc
       0.035035696 -0.05435327 -0.07200072 -0.020862292
0003e0 8d e2 c3 bd c8 3b 29 3c 31 a8 20 3c f9 b9 fc bc
       -0.095646955 0.010329194 0.009805725 -0.030850397
0003f0 91 fa 96 3d 4c 21 5b bd 64 29 07 39 02 8a d2 3c
       0.073720105 -0.05349855 0.00012890022 0.025700573

dense.bias f4 [64]
000000 3e 47 0c be 57 87 af 3d 7b f4 d6 bc 10 be 5a bc
       -0.13699052 0.08570736 -0.026239624 -0.0133509785
000010 3e 1f 0c 3e 8c 36 88 bc fe ea ca 3d 5b 42 38 3d
       0.13683793 -0.016627572 0.099081025 0.044985157
000020 b5 64 fb 3d de 33 16 bb 50 7c 12 bc 9e 50 0a 3d
       0.12275068 -0.00229191 -0.008940771 0.03376829
000030 bf f0 28 3e 77 ec f9 bd b1 b3 f8 3d 91 43 49 bc
       0.16498087 -0.12203305 0.121436484 -0.0122841755
000040 95 93 ab 3c d7 b6 07 be 52 71 1e 3b 8d 2f ff 3c
       0.020944396 -0.13253342 0.002417643 0.031150604
000050 55 b1 fa bc 86 5d 8e 3d a2 ec b1 3d 04 eb e4 bd
       -0.030602137 0.06951432 0.08687712 -0.11177638
000060 44 60 f3 bc f4 40 ac 3d c4 ff 18 3c 21 66 00 3e
       -0.029708989 0.08410826 0.009338323 0.12538959
000070 fd ba 41 3e 61 62 9a 3d 88 b6 86 3d 95 1a b3 3d
       0.18918987 0.075382955 0.06577784 0.087453045
000080 7b fe b7 3d b8 b3 66 bd 10 57 60 bc bd 6d 6f 3c
       0.08984085 -0.056323737 -0.013692632 0.014613566
000090 e5 ca 8a 3d 4c bd 18 3e 1f 73 a9 bd d0 4c 17 3e
       0.0677698 0.14915961 -0.08273911 0.14775395
0000a0 a3 83 e4 bb 45 d2 3d 3e 37 93 92 bc cb 6c 09 3c
       -0.0069737 0.18537243 -0.017892463 0.008387755
0000b0 f7 0c 0e 3e 47 f6 13 3d 97 c0 76 3d 8f ab 81 bd
       0.13872133 0.03612354 0.06024226 -0.0633155
0000c0 51 0d 07 bd 02 a6 52 bd 7c d6 db 3d 4b 53 16 3e
       -0.032971684 -0.05142785 0.10734269 0.14680211
0000d0 93 2f 27 3e 37 24 c3 3d c8 89 16 3e 32 f0 52 bd
       0.16326742 0.09528392 0.14700997 -0.0514986
0000e0 dc 12 3e 3e 05 f8 0b be 6e 37 f3 bd 96 57 e8 bd
       0.18561882 -0.1366883 -0.11875807 -0.11344831
0000f0 ae 75 94 3d a9 9a a1 3d 26 b4 8e 3d 28 0e 90 bc
       0.07249008 0.07890827 0.06967954 -0.017584875

output.weight f4 [1, 64]
000000 fd 2f 2c bd 6c 67 a7 3d 63 4a 59 bd 38 72 d7 bd
       -0.042037953 0.08174023 -0.053049456 -0.105198324
000010 13 43 94 3d f0 74 a4 3d 53 03 8b 3d 30 1e 9b 3d
       0.07239356 0.080301166 0.067877434 0.07574117
000020 3d 93 e9 3d f6 8d bc 3d 40 93 26 bd 12 74 a7 bc
       0.114050366 0.092067644 -0.040667772 -0.020441089
000030 0d 5c ad 3d 14 33 1c bd 49 62 a0 3d 3f 07 16 bd
       0.08464823 -0.03813465 0.078312464 -0.036628004
000040 34 bf 33 bd 41 d0 c8 bd 61 e4 df 3d 3e 9d a7 bd
       -0.043883517 -0.09805346 0.10932232 -0.081842884
000050 0b 11 a0 3d 02 4e 3e 3c 4b ba ce 3d dc 30 e5 bc
       0.07815751 0.011615278 0.10094126 -0.0279774
000060 09 24 ce 3d 7f a3 ec 3d 64 69 89 bd 6e 16 b1 3d
       0.10065467 0.11554622 -0.06709555 0.08646856
000070 6f 1b b2 3d 5b 42 5d bd 64 5b e6 3d e9 05 e5 3d
       0.08696639 -0.05401836 0.112479 0.11182768
000080 b9 79 c1 bd 72 66 ed 3d 10 c9 da bd ec 1c 94 3d
       -0.09447045 0.115918055 -0.10682881 0.07232079
000090 c1 6b 97 3d c0 d5 da 3d 72 92 99 bb 21 9e c2 3d
       0.07393599 0.10685301 -0.004686647 0.09502817
0000a0 40 6b 13 3a b9 a4 97 3d 11 a1 b6 3d 21 a5 99 bc
       0.00056235865 0.07404465 0.0891744 -0.018755497
0000b0 f6 2e f7 3d 4e 02 d0 3d 16 45 d5 3d 4c 0a d6 bd
       0.12069504 0.101566896 0.10413568 -0.10451183
0000c0 17 25 f0 3d 61 f1 e8 bd 1c 76 a1 3d d5 aa 90 3d
       0.11725824 -0.113741644 0.07883856 0.070638336
0000d0 4f 4f 9b 3d c2 76 f2 3d d2 3a 96 3d 86 ec 02 3e
       0.07583486 0.118390575 0.07335438 0.12785539
0000e0 66 34 88 3d cf 8b 28 bd 7c 22 e5 bd 1d 20 fb bc
       0.06650619 -0.041148957 -0.11188218 -0.030654961
0000f0 be 31 34 bc a4 bd e1 3d e8 81 00 3e 86 f0 d0 bd
       -0.010998188 0.11022499 0.12549555 -0.10202126
