ablation_study/results/unidirectional_gru_lstm_model.pth (torch, 123485 bytes, 11 tensors)

gru.weight_ih_l0 f4 [192, 13]
00000000: 8ae2 df3d ebcf b2bc 090c 923c 811c 4fbd
00000010: 017c cd3b 7b76 2f3c 4dd9 d53d 40bd 643d
00000020: cbeb 893d 498d e43c 7b19 f93d df45 573e
00000030: 893f 473e 0be0 863d fe7f b3bd f4a5 3f3e
00000040: bdc8 f73d 9d53 c5bd a18a 623c 5ffa 6f3d
00000050: 5af8 b4bd 9b4d 8c3d 28ff 153d 4390 60bc
00000060: 37f2 5c3e badd 733e fbca 133e 4d5e 4f3e
00000070: 3fb0 1d3e 3b83 6bbe c8ef 6d3d 39d6 2dbe
00000080: 8acf ca3d 58cd 58bd d53c 0c3e a8c3 203e
00000090: efb5 103e e86d bd3e aa60 b63e b267 5c3e
000000a0: 7db3 493e f2af c8bd 5c06 4d3c f904 2f3d
000000b0: 9c69 98bd 7b09 843c 0042 d23d 19a2 333e
000000c0: 5c82 923e 5e0a 313e 1e07 05bd 9ed7 64bd
000000d0: feae 313e 3601 cd3c f280 a3bd ae82 07bc
000000e0: e708 acbc b4b0 48be 3ba0 10bd ce67 efbd
000000f0: e850 8bbc dc83 023e 6379 843c 4cab c53d
00000100: 4c39 803d 7051 fa3e 2f9d 2a3e e892 cd3d
00000110: 9cab ccbc 7a72 b53d 518d bfbd ff54 9dbc
00000120: 68d7 203d b19b d73e 1ff0 8d3e aaee 03bd
00000130: 7d31 4d3e 3ffb 683e 0596 dcbb 5559 fbbd
00000140: a4d8 3dbc bb46 12be 2b23 41bd d915 af3d
00000150: 5f46 10be 7487 4e3d 46c0 04be 739f f6bd
00000160: 835d 0d3e 8526 b33c 286e 0cba 0295 493e
00000170: 11d1 0d3e 6999 8b3d 578d c53d 1769 233d
00000180: dfdd 20be 0856 b13d 4aa4 c2bd 1883 9f3e
00000190: 6059 2a3e ae30 2f3e 9f73 463e a1a8 ad3d
000001a0: ecbf 9f3d fc46 353e 4a04 853c 8e80 503d
000001b0: edb9 de3d e518 01be b069 f13d 803a 18bc
000001c0: a780 723e 60c5 063d 0bb0 683d b5a9 663d
000001d0: 5c7c 53bd 21f6 523e 7cc2 bebc 5dfb c33d
000001e0: fdf3 3c3c c942 103d 16c6 15bb 3699 2f3e
000001f0: b8a7 07bd 4ce7 2d3e 048b 603d 8e60 5b3e
00000200: ad1d 653d 6aeb db3c ea45 e83d 6cc2 d0bd
00000210: b510 a73c 108c 1abb 2a72 22be 39a1 23bd
00000220: 3f9a be3d c011 0f3d b12e ca3d a209 11bd
00000230: be87 233e 35e1 eb3d e83e 193d 4c86 833e
00000240: 604a 1a3e c8d4 c03d 3bba 52bc 898e 8a3a
00000250: 188e 653c 7a4e 533e 00c2 f8bc dff7 703e
00000260: d8d7 083e c2ae b23d ff78 6a3e 9817 5f3e
00000270: 57e0 1b3e 45f5 213e 152a c83d 50d5 a53a
00000280: 83e2 223e 005e 03be 173b cf3d 403e da3c
00000290: c765 453e ed32 76bd 731d b83d 19b0 353e
000002a0: ceea ae3e 62de c23e d85b 063e f64c 6abb
000002b0: 5c4e fc3b 554d a8bd 3578 1cbe 99f1 2e3e
000002c0: faba fb3d 7aa0 9f3e 450e ae3e 23af 543e
000002d0: fd0c 953c ac71 d73d cf29 85bd b136 11be
000002e0: 2061 14be c842 0f3e 9541 5a3d 3ae2 083e
000002f0: d394 a0bd fca6 993d 7909 87bd b62c ba3d
00000300: b586 203e 579a 0cbe f240 3ebe bb1c efbc
00000310: c9de e2bd 380f ff3d 6b2f 50be 0cbf d43d
00000320: 0fc7 39bd 0017 c53d b61b 963d 5fc9 353e
00000330: de87 073e 3a4c 493c 1df8 5b3e 65de 053e
00000340: 821c 30be 2e91 3e3e 31a8 5dbc 9c45 4bbe
00000350: 4176 4fbb f3fc bb3d ab3d 603e 32c7 cd3d
00000360: 4793 71be 7c60 753e 8090 d33d be9d 43be
00000370: 4d9b 89be 2c35 b93e 7ddb 963c 6d05 1a3e
00000380: b868 58bd d2d5 a3bd 08d4 36bd 72ea 463e
00000390: c09e 673c cbac bc3e 5c31 463e 1af8 503e
000003a0: 338c 453e ee2b 993e 1c73 073e 56f9 fc3b
000003b0: ebad f0bd 8967 dd3b c4b4 13be 09c7 afbd
000003c0: a3ba a33d 601f efbc a773 903e 2b94 133e
000003d0: 2276 2f3d e83a 853e c55e f43d def7 0e3d
000003e0: 73b1 fe3b 8e23 073e e37d b33b c599 57bd
000003f0: 62f3 113e f3c1 2abd 46ec ec3d ecce 17be
0.10931881 -0.021827659 0.017828004 -0.050564293 0.006270886 0.0107094 0.104418375 0.055844545
0.06734427 0.027899401 0.12163063 0.21022747 0.1945783 0.065857016 -0.08764647 0.1871565
0.12098835 -0.096350886 0.013826997 0.05858838 -0.08836432 0.068507396 0.03662029 -0.01370627
0.21576773 0.2381505 0.144329 0.20250817 0.15399264 -0.22999279 0.05809 -0.1697625
0.09902866 -0.052930206 0.1369508 0.15699637 0.14131902 0.36997914 0.35620624 0.21523932
0.19697376 -0.09799184 0.012513723 0.04272935 -0.074420184 0.016117802 0.10266495 0.17542304
0.2861508 0.17289111 -0.03247749 -0.05586969 0.1735191 0.025024991 -0.07983579 -0.008270903
-0.021000339 -0.19598657 -0.035309058 -0.11689721 -0.017006353 0.12745613 0.016171163 0.09651813
0.062609285 0.48890257 0.16661523 0.10037786 -0.024984173 0.08859725 -0.09353126 -0.019205568
0.039267927 0.4211097 0.2772226 -0.03221003 0.2003841 0.22752093 -0.006731751 -0.12272898
-0.011587296 -0.14284794 -0.04715268 0.08549089 -0.14089344 0.050422147 -0.12963971 -0.12042131
0.13805203 0.021868953 -0.0005356991 0.19685748 0.13849284 0.0681637 0.09646099 0.039895143
-0.15709637 0.08658987 -0.09503992 0.31154704 0.16635656 0.17108414 0.19380043 0.08479429
0.07800278 0.1770286 0.016237397 0.05090385 0.10875306 -0.12607153 0.117877364 -0.009291291
0.2368189 0.032903075 0.056808513 0.05631419 -0.05163227 0.20601703 -0.023286097 0.09569428
0.011532781 0.03521994 -0.0022853664 0.17148289 -0.033118933 0.16982764 0.054820076 0.21423551
0.055936504 0.026845653 0.1134146 -0.10193333 0.020393709 -0.002358202 -0.15863863 -0.039948676
0.09306764 0.034929037 0.09872187 -0.035409577 0.1596975 0.11517564 0.037413508 0.25688398
0.15067434 0.09415585 -0.012861784 0.0010571043 0.014010929 0.20635405 -0.030365944 0.23532055
0.13363588 0.08724739 0.22897719 0.21786344 0.15222298 0.15816219 0.097736515 0.0012652073
0.1590672 -0.12828827 0.10118692 0.026641011 0.19277106 -0.06010716 0.08989992 0.17742957
0.34163517 0.3806029 0.13120973 -0.0035751439 0.007699771 -0.08217875 -0.1528023 0.1708435
0.12291522 0.3117712 0.33995262 0.20769934 0.01819467 0.10519728 -0.06502115 -0.1418102
-0.14490175 0.13990319 0.0532852 0.13367549 -0.07840886 0.07502553 -0.06593604 0.09090559
0.15676387 -0.13730751 -0.18579462 -0.029188504 -0.11077649 0.124540746 -0.20330589 0.10388002
-0.045355853 0.096235275 0.07329504 0.17752598 0.13235423 0.01228624 0.21481366 0.13073118
-0.17198375 0.18610069 -0.0135288695 -0.19850773 -0.0031656178 0.091791056 0.21898524 0.10047759
-0.23591338 0.23962587 0.103302956 -0.19103143 -0.26876298 0.3617338 0.018415207 0.15041132
-0.052834243 -0.07999767 -0.044635803 0.19425371 0.01413697 0.3685058 0.19354767 0.20407143
0.19291763 0.29916328 0.13227504 0.007720153 -0.11751922 0.006756727 -0.14424425 -0.08582885
0.079945825 -0.029189765 0.28213236 0.1441199 0.04283727 0.26021504 0.11932138 0.034904353
0.0077726184 0.13197157 0.0054776534 -0.05263688 0.14253 -0.04168887 0.11568503 -0.14825028

gru.weight_hh_l0 f4 [192, 64]
00000000: 6655 d83d b67e 2e3e b933 1f3e e7db a0bd
00000010: 34ce 033e c1f1 05bd 2be1 483e af27 3abe
00000020: 0d75 7e3e bbf8 1c3c 24f1 8d3d 7c77 9ebc
00000030: 2c62 7bbc bff2 25bd 477d 34bd fe08 933a
00000040: 961a 90bd c7a9 083e 14ff 823e aba2 edbc
00000050: 84a3 d0bd b55f e03d 1b7a f43c 7419 9abd
00000060: 0af9 003e 7902 fa3d 2595 153e 40a0 55bb
00000070: aba8 7dbe d3b8 fd3c 9663 f73d cab1 65bc
00000080: ecae d33d 63fa eb3d 1208 e3b9 8f59 5f3e
00000090: 37ea 063d 405b 4dbe 5489 8bbd 237b 9d3d
000000a0: edc2 9a3c 9c1b b9bd 9198 e53b b177 9e3d
000000b0: 2867 70be e02a ea3c bceb afbd ae62 28be
000000c0: 488e 913d 40ed 4b3e cdc4 08be a808 213e
000000d0: 30c0 0dbe 0e36 a8bd 8656 04be 4f72 9bbb
000000e0: 7dcb 25bd da78 90bd c874 06be eb2e 17bd
000000f0: 6095 43bd f99a 72bd 1f39 3b3d c5f8 24be
00000100: 3ad5 02be 9ec6 ba3a 0f32 133d 6327 4dbd
00000110: 53b9 8c3d 73a6 f2bd edc3 593c a257 353c
00000120: 130b b339 9a8c 4bbe c721 423c e6a2 23be
00000130: 6477 083e 792f 61bd 9784 9f3d d1b0 abba
00000140: 4410 de3d 980a e23d a092 133d a07d d1bd
00000150: a7fe 00be 2895 cbbd 69b9 a83b 9ddf 80bd
00000160: e309 8f3d e92b 9e3c 1411 96bc efdf c7bd
00000170: 063a 39bd b0bc 7dbd 3ec3 8e3d 7522 a9ba
00000180: 4438 79bd 2703 ed3d 23c0 873d 4e79 f1bb
00000190: 640d 663d dfc1 3cbd 0000 8a3d 7fd5 a8bd
000001a0: 8df9 953d db3f 083d 1565 db3d b0f6 c93d
000001b0: 5f5d 4c3d 6d4d 93bc 1bd6 5ebd 98b8 b13d
000001c0: 82c9 8abd 655a 0e3e 82f4 0bbe fb6c 253d
000001d0: 15e2 c73d a4c2 cfbd 9ba9 873d 6964 a03c
000001e0: 2d09 9fbd 72aa 5bbd 3c32 433c d615 4ebc
000001f0: b557 4d3d 5265 c7ba 5ca9 78bd 9aac 2e3d
00000200: ba47 13be 91d0 88bc 422e 863c 50de 9b3c
00000210: e486 f3bd 612d c6bd babf 273d 55fb 9abd
00000220: 2300 483d 1ec0 393c 7a9f 8dbc 427c 753d
00000230: 14ba 0dbd e330 333d c5e0 4139 c19b 06bd
00000240: fd57 c9bd 4302 fcbd 8d05 c63d a21b 23bc
00000250: 3d93 47bb d825 253c b72f e9bd 756d 933b
00000260: f2f9 f6bd c80e 7a3b 08b0 6a3c fddd 88bd
00000270: fd54 603c c295 d93d 08bc 983d 325f 13be
00000280: f1c3 5f3c 5d3c 643b 709a b3bd ddcc 29bd
00000290: 6bfa 2e3d 2184 df3d 0c2f f43d 5c06 8f3d
000002a0: ccb0 7dbd 6808 07bd 6d5b 4d3e a477 313e
000002b0: fe91 9a3d 29c6 763c 58d1 ba3d 57a8 053e
000002c0: 59c4 1f3d d44a f13d 2449 19bd d9eb 73bd
000002d0: 53c3 08bd 35ee 483e 2cb4 f23d 422d c73d
000002e0: 964d aa3b d307 bdbd f74d 853d 3c90 863d
000002f0: 79bd 53bd 76c7 65be 3707 fbbd d8ee b2bc
00000300: e8fc 11bd c709 d5bc f8ef 5d3d 47cb e03d
00000310: 4922 823c dd4a 84be 8b15 663d 941e 83be
00000320: ae65 1b3e 8c89 53bd 673e 653d 1ce5 aa3d
00000330: 8d9d 45bb e9b0 443d 882e 663d 50b8 e1bd
00000340: de09 62be 8afc d53d e68e 3a3e e392 c73c
00000350: c3d6 64be b931 e73d 2740 eabd a05b 923d
00000360: 0a1c 11bb fc1c f6bd 8472 d2bd d389 efbd
00000370: f308 4ebe 66b7 dabb e2a7 81bb 0675 3d3d
00000380: 623d 1dbd 43d8 553d af21 353c 4410 cb3d
00000390: 520d e03d 9b15 a1bd e755 4f3d 702c 9cbd
000003a0: 95b6 ed3d 6729 993d 4796 0c3e 10d8 7b3e
000003b0: 2b4f 03be 5e84 9d3d 5926 bdbd 9a3a 91bd
000003c0: 076a a33d 0d3e 443e 0cc8 9bbe d41d f23d
000003d0: fb6e 9b3d 877e 093e 87b7 da3d e90a c4bc
000003e0: 48e2 68bd 6024 24be c4ba b73d d0a7 9b3d
000003f0: cfc7 e9bc 3831 24be 90c3 9d3d 63f9 1e3c
0.105631635 0.17040524 0.15547074 -0.07854443 0.12871629 -0.032701258 0.19617145 -0.181792
0.24849339 0.009580786 0.069307595 -0.019344084 -0.01534323 -0.040514704 -0.044064786 0.001121789
-0.07036321 0.13346015 0.25585234 -0.02900823 -0.10187438 0.10955755 0.02984338 -0.07524386
0.12595001 0.12207503 0.14607675 -0.0032596737 -0.24771373 0.03097192 0.120795414 -0.014019439
0.10336098 0.11522367 -0.00043302827 0.21811508 0.03293821 -0.2005434 -0.06813303 0.07689502
0.018891776 -0.09038469 0.0070067127 0.07737673 -0.23476851 0.028584898 -0.08589885 -0.16443893
0.07107216 0.19914722 -0.13356324 0.15725958 -0.13842845 -0.08213435 -0.12923631 -0.0047438513
-0.040477265 -0.070543006 -0.13130486 -0.03690998 -0.047749877 -0.059229825 0.04570877 -0.16110523
-0.12776652 0.0014249866 0.03593641 -0.05008639 0.06871285 -0.11848154 0.013291341 0.011068257
0.00034149791 -0.19877854 0.011848873 -0.1598011 0.13326794 -0.054976914 0.077889614 -0.001309896
0.10842946 0.11037177 0.036028504 -0.10229039 -0.12597142 -0.09940559 0.0051490557 -0.06292651
0.069843076 0.019308047 -0.01831869 -0.09759509 -0.04522135 -0.061947525 0.06970833 -0.0012903946
-0.060844675 0.11572867 0.06628444 -0.007369197 0.056165114 -0.046083327 0.06738281 -0.08243846
0.07322989 0.033264022 0.10712639 0.09861505 0.049893733 -0.017981255 -0.054403406 0.086777866
-0.06776716 0.1390167 -0.13667491 0.040387135 0.097599186 -0.10144547 0.066241466 0.01957913
-0.07765422 -0.053629346 0.011913832 -0.012578448 0.050132472 -0.0015212691 -0.06070839 0.042645074
-0.1438283 -0.016701015 0.01637948 0.019026905 -0.11890963 -0.09676624 0.04095433 -0.07567469
0.048828255 0.011337308 -0.017287958 0.059932955 -0.034601286 0.043747794 0.00018489647 -0.032863382
-0.098312356 -0.12305119 0.096690275 -0.009955319 -0.003045275 0.010079823 -0.11386054 0.0044991323
-0.12059392 0.0038155783 0.014324196 -0.06682966 0.013692138 0.10624267 0.07457739 -0.14391783
0.013657556 0.0034826018 -0.08769691 -0.04145514 0.042719286 0.109138735 0.11923036 0.06983635
-0.061936185 -0.032967 0.20054407 0.17330796 0.07547377 0.0150618935 0.091219604 0.13052498
0.03900561 0.117818505 -0.037423268 -0.059551094 -0.0333894 0.19622119 0.11850771 0.09725429
0.0051972372 -0.09230008 0.06509011 0.06570479 -0.051694367 -0.2243937 -0.122572355 -0.021842405
-0.03564158 -0.026005639 0.05418393 0.10976272 0.015885489 -0.25838366 0.05617289 -0.25609267
0.15175506 -0.051644847 0.055967715 0.083444804 -0.0030153722 0.048020277 0.05619672 -0.11021483
-0.22074077 0.10448559 0.18218574 0.024362033 -0.2234755 0.11288781 -0.11438017 0.07146382
-0.0022141957 -0.12017247 -0.10275748 -0.1169621 -0.20120601 -0.006674695 -0.003956781 0.04625418
-0.038388617 0.052208196 0.011055394 0.09915212 0.10940041 -0.07865449 0.050619032 -0.07625663
0.116070904 0.074786 0.13729201 0.2459414 -0.12823169 0.07691263 -0.0923583 -0.070912555
0.079792075 0.19164295 -0.3042606 0.118220955 0.07589527 0.13427173 0.10679536 -0.023930984
-0.056856424 -0.16029501 0.089711696 0.07600367 -0.028537659 -0.160344 0.07703316 0.009703013

gru.bias_ih_l0 f4 [192]
00000000: 4292 913c ee76 0a3e eacb 1e3c 42da 903d
00000010: 1a15 1c3d 7d9d b23d b9f8 253e e81d bf3d
00000020: e53d ecbc a5c1 dc3d e8fc 8a3d 1e58 833d
00000030: 9f74 6bbd 5dbb 8a3d db6a 223e 2791 073e
00000040: 9317 81bd 6539 da3c 6a80 ea3d eb34 25ba
00000050: 8e38 1fbe 4fb3 85be 0816 4a3e 049c 9bbb
00000060: 9b76 ba3d 6f3a 6c3d e954 493e 3b2b 0c3e
00000070: 65ba 36bc bc95 bf3c 97d8 ffba d388 b83d
00000080: c5e4 213d 0248 8f3d 9335 213e 4311 3abd
00000090: 95b3 92bd 2368 56bc 2601 8f3d a19b 43be
000000a0: deba 46bb 0396 933d a1cf 55be 84a8 aebb
000000b0: a213 5639 5839 2b3d 67a9 173d 8dcd 9c3d
000000c0: 54e2 bcbc c63e 7c3d fbb0 963d 6658 cabc
000000d0: 10fd 2a3e 7666 73bc 89b6 683e 9d52 41bd
000000e0: 853b 823c 03b5 cb3d 1a35 263e fc9d c63c
000000f0: a20c c13c 7f11 25ba 6111 133e b6a3 6a3c
00000100: 91bc 1cbc 6d8e 00be 9b53 d9bd 88c9 2abd
00000110: 0a23 66bd ad52 f0bc 6cc3 50bd 5fae a1bd
00000120: 735a b83b 0e6e 37be f63e cc3b 3b0e 5a3c
00000130: f661 fcbd a6ab bebd 5a56 85bc fb16 3b3c
00000140: 8948 2cbe 3072 15bd 0aea 943d 1460 11be
00000150: e703 af3d e7ae febd 4e0f 17be e4f2 23be
00000160: b883 12be 1cba b9bd 3b98 8ebd 5a2b b33c
00000170: d69e bb3d 7522 01be 5129 4abe ec31 ca3d
00000180: 9f2e ffbd d477 17be 7cc6 103d 373c 32be
00000190: 1ef3 35be 74b1 813c 0260 0bbb fbb6 57be
000001a0: f1ba e13b d288 353d 77bb fc3c 0712 ff3a
000001b0: 2a5d 5fbe da84 59be 2101 943d 8a94 8b3c
000001c0: 85d7 afbd f8d0 5ebd d562 24be 2899 08be
000001d0: 8757 1ebe 4474 e3bd cd3b 3abe 9782 b53b
000001e0: e40d f9bd 3e24 433d 5073 2abe 4fd6 d9bd
000001f0: 9671 293d a230 ffbc 719a 163d 9d26 d7bd
00000200: 036c 6e3d cab5 393e aa86 9dbd cea0 a2bb
00000210: 2f24 ea3d 224d 30be 421a 173e 8cf1 70bd
00000220: b808 0c3e e311 38be 1e66 24be 40d0 40be
00000230: fca5 2b3e f469 4f3e ad60 ed3d c094 343e
00000240: 3e4a 023e b8b0 233e ac1c 033e 804f 243e
00000250: 752e 15be 4076 10be 3801 c5bd 8f96 ffbd
00000260: bb34 143e 4a11 663e ae0b f63d a6ac 99bd
00000270: 4847 1abd 0a53 8d3d 8587 bd3d ca1d 3c3e
00000280: 0796 cb3d fa38 363e d16b fe3d de33 343e
00000290: 90ed 613e 6c93 d0bd a08b 46be c309 453e
000002a0: 7b59 343e 7fa4 05be 5c93 ef3c fc84 083e
000002b0: 9540 51be 331e 503e cf03 37be 3081 aebc
000002c0: 56a6 f9bd 20a0 263e 19d7 0bbe add1 013e
000002d0: a0bd 30be e4c1 843d 436b 46be 4e71 4d3e
000002e0: ea21 e5bd 341c 06be 6769 78bd d297 a1bd
000002f0: 98b8 54be da68 18be 8305 2b3e 85b3 b8bd
0.017769936 0.1352193 0.009692172 0.070728794 0.03810606 0.08721445 0.16208161 0.09331876
-0.028838107 0.10779122 0.06786519 0.064132914 -0.057484265 0.06774018 0.15861075 0.13238965
-0.063033246 0.026638696 0.11450274 -0.0006302136 -0.15548918 -0.26113364 0.19734967 -0.004748823
0.091046534 0.057672914 0.19661297 0.13688366 -0.011152838 0.023386829 -0.0019519505 0.09010472
0.039524812 0.06996156 0.15743093 -0.04542662 -0.07163159 -0.013086352 0.06982641 -0.19102336
-0.0030323784 0.07206347 -0.20879985 -0.005330147 0.00020415944 0.041802734 0.03702679 0.07656393
-0.02305714 0.061583303 0.07357975 -0.024700355 0.16698098 -0.014855972 0.22725882 -0.047197927
0.015897522 0.099466346 0.16231194 0.024245255 0.023565594 -0.00062968576 0.14362098 0.014321258
-0.009566442 -0.12554331 -0.106116496 -0.0416961 -0.05618576 -0.029336298 -0.05096762 -0.07894587
0.0056260168 -0.17913076 0.0062330915 0.013309057 -0.12323372 -0.09310083 -0.016276527 0.011419053
-0.16824545 -0.03648585 0.07271202 -0.14196807 0.08545666 -0.12435704 -0.14751932 -0.16010624
-0.14308059 -0.09068701 -0.069626294 0.021871258 0.09161155 -0.126108 -0.19742323 0.09872803
-0.12460064 -0.14791805 0.03534554 -0.17405783 -0.17768523 0.015831687 -0.0021266942 -0.21065895
0.00688874 0.044319935 0.030851109 0.0019460329 -0.21812883 -0.21242085 0.07226778 0.017038602
-0.08586029 -0.054398507 -0.16053326 -0.13339674 -0.15463077 -0.1110616 -0.18186875 0.005539249
-0.121608526 0.047641985 -0.1664555 -0.10636579 0.04136809 -0.03115112 0.03676838 -0.10505412
0.058208477 0.18135753 -0.07691701 -0.004963017 0.11432683 -0.17216924 0.1475611 -0.058824107
0.13675201 -0.17975573 -0.1605458 -0.18829441 0.16762537 0.20255262 0.11590705 0.17634869
0.12723634 0.15985382 0.12803906 0.16045952 -0.14568503 -0.14107609 -0.09619373 -0.12479889
0.1447324 0.22467533 0.120139465 -0.07503633 -0.037665635 0.06900604 0.09254364 0.18370739
0.09940725 0.17795172 0.12422908 0.17597911 0.22063279 -0.101843685 -0.193892 0.19242005
0.17612259 -0.13051032 0.029245071 0.1333198 -0.20434792 0.2032402 -0.17872547 -0.021301836
-0.12189929 0.1627202 -0.13656272 0.12677641 -0.17259836 0.06482294 -0.19376855 0.20062754
-0.11188109 -0.13096696 -0.060647395 -0.078902856 -0.20773542 -0.14883748 0.16701321 -0.09018616

gru.bias_hh_l0 f4 [192]
00000000: ff90 8c3d d19d 12bd e24d aa3d 9f8b fd3d
00000010: db6d 1d3e 9187 93bd d40f 9d3c 2d01 c83d
00000020: 302d 03be f5d8 9ebd d919 5d3e 58cc 663d
00000030: 2943 e43b 1571 1ebb 81cb 273e 0f28 1e3e
00000040: ca9f 97bd e831 d2bd 7891 403d 99fd 723c
00000050: aebf 273c aea2 79be 8c8a ed3d b5d0 183e
00000060: 4740 90bc a8fc 6c3e b2c9 043e 3a07 313e
00000070: 575b 443d f66e ee3d c287 9e3d e0e2 363c
00000080: 50d9 fbbc 500e 803d a6d7 5c3e 62f4 323d
00000090: ced6 cbbd 6b9b 51bd a06a 963d e1c1 c4bd
000000a0: 7ab5 0c3e 9687 aa3d c12c 54be fb82 dfbd
000000b0: ce50 1d3e b70c 0e3e b0d6 7a3d 6018 d2bc
000000c0: eb85 3d3d 2db4 5e3d 1bed 6f3d bd29 8a3d
000000d0: c47d 943d 33eb ac3d b289 2d3e 7ac9 d03d
000000e0: 9c53 f23c fbe0 ab3d a6f2 163e 8415 c23d
000000f0: 0d2a 0e3e d722 a6bd c890 493d f18c 333e
00000100: 90b7 3aba 6823 ed3b 6127 8dbd 7651 d73d
00000110: b8ac edbd 522f 563c 1159 a1bd 544a ac3d
00000120: 0ca1 8d3d 6fb5 41be b099 7d3c d257 f739
00000130: 04b9 893b fe3a b7bd 853b 8abd 62f1 a23d
00000140: 25d4 4abe e2af 5bbc d399 1bbd fd78 0cbe
00000150: ce03 253e 4282 d53c 59f9 74bd faf4 25be
00000160: e2f4 1ebc 346a 0bbd 5bac 95bd a33c 40bd
00000170: 3602 63bc e378 363d c8ac cfbd f229 fa3c
00000180: ceac 083c ac5a aabd a8cd 393c d399 4fbd
00000190: 5e09 dfbd f01b 53bd 981e 2bbe 25d0 a2b9
000001a0: 83f6 2fbe a586 bfbd f006 01bc 78a9 cf3c
000001b0: e253 0cbd ab8a cfbd 1705 693c 0048 a83c
000001c0: d304 90bd df51 5fbc da59 ed3c 7cd7 553d
000001d0: 79b1 7fbd 967d d2bc b14d 8dbd 841d f5bd
000001e0: bcc2 a53d cb3d b7bd 7af1 e8bd 0e24 753c
000001f0: 8f66 e6bd ab03 603c 996a 903d 0b86 b3bc
00000200: cb43 ba3d cb80 f13d b98e 3dbd f610 3cbd
00000210: 339f 8a3d b2b3 86bd 5437 483e a0f3 88bd
00000220: 27f4 f6bc 55e9 05be 7604 36be 4cfc 0abe
00000230: b4b6 663d 1fc9 cd3d 71fe c83b ed88 bf3d
00000240: 198a dfbc f491 3a3d ea88 423e 6253 cf3d
00000250: 1f6c 80bd c95d 743c b320 39be 76fa 4abe
00000260: 13ff 4d3e ba6c 533e 91df 473e e431 f1bd
00000270: a36f c2bd 9b52 1c3e 112a 2f3d 3e25 1d3e
00000280: e69b 343d 46d3 233e 1427 433e 9fdc 93bc
00000290: 6781 7e3d 3788 10be 06ee 79bd 3510 5ebd
000002a0: 9fbd 3b3e e64c 8ebd 0f7c debd 9c25 be3d
000002b0: de39 c5bc 6155 113e 7e93 adbd edf7 efbd
000002c0: 7d37 46be de3c 153c 1197 30be f945 ac3d
000002d0: 5eff 0dbe f663 bebd 42f3 11be a5f1 dc3d
000002e0: 627c 09be a233 3dbe dbb1 97bd 7e62 7bbd
000002f0: 1a61 26be 4257 0bbe afae 513e 7bda 0ebe
0.06863593 -0.035795037 0.08315636 0.12380146 0.15373938 -0.072035916 0.019172587 0.09765849
-0.12810206 -0.07756225 0.21591891 0.05634722 0.006966014 -0.002417629 0.16386224 0.15444969
-0.07403524 -0.10263425 0.04701373 0.01483097 0.010238571 -0.24378464 0.11598691 0.14923365
-0.017608775 0.23143256 0.12967566 0.17287913 0.04793867 0.11642258 0.077407375 0.01116249
-0.030743271 0.0625273 0.21566638 0.043690093 -0.0995308 -0.05117361 0.07344556 -0.09607292
0.13741103 0.08326642 -0.20720197 -0.109136544 0.15362856 0.13872038 0.0612399 -0.025646389
0.046270292 0.054371048 0.05857573 0.06746242 0.072505504 0.08443298 0.16947058 0.101946786
0.029580884 0.08392521 0.14741 0.0947676 0.13883229 -0.08112114 0.04921034 0.17534234
-0.000712269 0.007236887 -0.068922766 0.10513584 -0.11605209 0.0130728055 -0.07878316 0.084126145
0.06915483 -0.18916868 0.0154785365 0.00047176942 0.004202964 -0.08946799 -0.06749634 0.07956196
-0.19807489 -0.013408633 -0.037988495 -0.13718028 0.16114733 0.026063088 -0.05980811 -0.16206732
-0.009701939 -0.03403683 -0.07308265 -0.046932828 -0.013855508 0.04454888 -0.10140377 0.03053758
0.008341981 -0.083180755 0.011340536 -0.050683808 -0.108904585 -0.051540315 -0.1671089 -0.00031054128
-0.1718388 -0.09351853 -0.007875189 0.025349364 -0.034259684 -0.10133871 0.014222405 0.020542145
-0.0703217 -0.013630359 0.028973509 0.052207455 -0.06242511 -0.02569465 -0.06899584 -0.1196852
0.08093783 -0.08947333 -0.11374183 0.014962209 -0.1125003 0.0136727495 0.07051582 -0.021914503
0.09094962 0.117921434 -0.04627869 -0.045914613 0.06768646 -0.06577243 0.19552356 -0.06687093
-0.030145718 -0.1307729 -0.17775139 -0.13572806 0.056326583 0.100481264 0.0061338474 0.093522884
-0.02728753 0.045549348 0.18997541 0.10123326 -0.062706225 0.014914938 -0.1807888 -0.19822106
0.20116834 0.20646945 0.19518878 -0.11777094 -0.09493949 0.15265886 0.042764727 0.15346238
0.04409399 0.15998563 0.19057876 -0.018049536 0.062135126 -0.14114462 -0.061018012 -0.054214675
0.18334053 -0.06948261 -0.10863506 0.09284517 -0.024075445 0.14192726 -0.084753975 -0.1171721
-0.19357105 0.00910875 -0.17245127 0.08411784 -0.13866946 -0.0929641 -0.14252952 0.107882775
-0.13426355 -0.18476728 -0.0740697 -0.061373226 -0.16247979 -0.13607505 0.20476793 -0.13950531

lstm.weight_ih_l0 f4 [128, 64]
00000000: 4d6a 2b3d f087 883d 5e0c 02be 7d98 d43d
00000010: 6670 063d ab04 4cbe 25b0 c5bc d3f1 8abd
00000020: d13f d9bc 31f7 e2bc eba6 f03d 624b 873c
00000030: 6c19 64bd 30ac c73d 7d2a 1f3e 480b d1bd
00000040: 5874 be38 8709 9f3c 4508 3f3e c0f2 953d
00000050: 49ca f0bd 4912 f8bc 4a83 02be 7445 803d
00000060: d533 a5bc f9f2 aabd fdde 033d 36a6 a0bc
00000070: 860b a9bd d47c 363e 4e4d b6bd 3b52 ea3d
00000080: 8e07 ef3d 8288 553e 317a 203e 9aea eb3d
00000090: 468f af3d c98f b73d 7c96 0c3c f79e 8239
000000a0: 682a 80bd 1129 1abe f6e3 60bd 401c d6bd
000000b0: 0683 38be f9f8 533e 20b2 443c ee8c 863d
000000c0: 1cd3 c9bd d5bf 8dbd db26 b3bd 9567 323e
000000d0: 5609 86bd 0ca3 a1bd 3304 0bbd 774e 11bc
000000e0: ea80 35bd 2a90 2bbe 6e82 9b3d 3b73 51be
000000f0: c249 26bd 9242 25be a825 87bc 90ba a03d
00000100: 5759 64bd 46d5 283a 4ca8 9d3c f8a8 083d
00000110: 5d5f 66bd 469b 7dbb e534 833d 4cbf 673d
00000120: 5843 86bd 9514 7a3b fef5 93bd 579b 19be
00000130: 2f88 043e 7432 d33d 2602 4c3e 031e 4abc
00000140: 13b4 3a3e 3c74 32bd 5ed8 1d3e 1ade f3bc
00000150: 7a25 bbbd 1452 8d3b 3e65 3b3d 775a df3d
00000160: 6b18 34bd bbc4 d0bd f507 c03c bdb1 10be
00000170: 7ac9 a13d 6147 26bd 74c8 eb3d 5450 d53d
00000180: 3843 ca3d d6d8 bc3d ab2f 033e b44e 0c3e
00000190: 127f 353e 2554 da3c d447 35bd 3856 193e
000001a0: 0679 013e 3381 1bbe a5f7 c23d 94f9 923d
000001b0: 8b7a bdbd acb4 5c3e 36dc b2bc a7a6 0dbe
000001c0: f189 c53d 0231 563d 240b 953c 206a cc3d
000001d0: 6649 06be 14f4 2fbe e890 2dbe 932e 68bd
000001e0: 65d9 bebb 9e5b 04be 9c13 a8bc 03df b8bd
000001f0: 845d 3cbe 5f3f b63d 4a56 33bd 0d56 bf3b
00000200: b662 653c d6d6 a039 28f7 35bc 77ab 153d
00000210: 8111 b53d 403a 15be 2c87 b0bd 24a0 72be
00000220: 256d ea3d 079d 2abe 883a fdbd 9106 84bd
00000230: e337 8a3d 4e65 a13b 7d52 473d a588 1f3e
00000240: 8daa 683e bb96 2c3e a581 2e3d 085a ed3d
00000250: 3d51 adbd 7685 343d be37 bf3d 96e8 bfbd
00000260: 55dc f23c 176f b43d 0759 1f3e ba44 9cbd
00000270: 1b35 b43d c858 9cbd b785 1a3d 587a 35bc
00000280: f0f2 363c 5a98 b6bd 469e 7a3e 863d c7bd
00000290: 522f 9abd 5ab4 87bd 6973 593c 9c6a 003e
000002a0: fcf0 e339 988c 2d3d d474 2fbe ffb2 c4bc
000002b0: c710 18bd b82c bb3c e817 01be 9b30 2dbe
000002c0: 3ad5 40be 91e4 91bd 0f4a fcbd 9f12 03be
000002d0: 8462 8abd 567d fbbd 9793 8b3d d501 8f3d
000002e0: 48d7 a23d 1aa2 ed3d 8b0c c23d 8f69 9e3b
000002f0: 9d5c 70bd d6d6 19be df5d ec3d f64b 113b
00000300: ede0 463e 366e fcbd fbf3 6ebd 2939 e63c
00000310: 200f ecbd 5d2f 0ebe b9e1 d03c bf7d 8b3c
00000320: 0828 0c3e 6215 47be 131d e03d b063 49bd
00000330: 2fcb 543e 5934 2c3e ae05 0d3e 7ac9 b8bd
00000340: a6de 0f3e 9393 ea3d 053f 1b3e 8233 1b3e
00000350: 6ceb 13bd 40cb 80bd 90c8 ca3c b2e5 23be
00000360: e17e 3b3e 6d7c 82bd 2010 393e f446 b5bd
00000370: 74fe 8d3d 1329 1c3d a403 e63d f24b b93d
00000380: d995 e53b 939e b03d 2326 143e c87b efbd
00000390: 0717 b93b a51f 493d e95a 62be 6f1a 703d
000003a0: ddde 153d 06fb 493a ba09 2abd 4e8a eebc
000003b0: d72e 31be 9dc6 2d3e 1904 e43d f69f 3bbe
000003c0: 6b36 3c3c bd73 d3bd db83 b23d 7abd 043e
000003d0: 93b8 243d 6006 9cbc c29e cfbd 7c7b 6a3e
000003e0: ea19 0dbe a45d e93d 80a0 3cbe d72c dd3c
000003f0: f64d bf3d f4e4 e9bd 9be4 bcbd 6b58 aa3d
0.041849423 0.06666553 -0.1270003 0.10380647 0.032822035 -0.19923656 -0.024131844 -0.067844056
-0.026519688 -0.02770576 0.11750587 0.016515438 -0.055688307 0.09749639 0.15543552 -0.1020723
9.081577e-05 0.019413723 0.18655498 0.073216915 -0.11757333 -0.030282157 -0.12745395 0.06263247
-0.020166317 -0.083471246 0.03219508 -0.019610506 -0.08254151 0.17821056 -0.089014634 0.114414655
0.11671363 0.20852855 0.15671612 0.11519356 0.08572249 0.08962972 0.0085808 0.0002491397
-0.06258088 -0.15054728 -0.0549049 -0.10454607 -0.18018731 0.20700444 0.012005359 0.06569849
-0.09854719 -0.06921355 -0.087476455 0.17422326 -0.065447494 -0.07892427 -0.03393955 -0.008868805
-0.044312395 -0.16754213 0.07593237 -0.20454113 -0.040597685 -0.16138676 -0.016497448 0.07848084
-0.055749264 0.00064404716 0.01924529 0.033364266 -0.05624329 -0.0038697287 0.06406573 0.05657892
-0.065558136 0.003815924 -0.07224654 -0.15000664 0.12942575 0.103123575 0.19922695 -0.012336257
0.18232755 -0.04356788 0.15414569 -0.029768992 -0.091380075 0.004312763 0.04575085 0.10905927
-0.0439686 -0.10193773 0.023441294 -0.14130302 0.07899757 -0.040595416 0.11512843 0.10415712
0.09876102 0.09221046 0.12811153 0.13701898 0.17724255 0.026651451 -0.044257954 0.14974296
0.12643823 -0.15186004 0.09519891 0.071765095 -0.09251889 0.21553296 -0.02183352 -0.13833104
0.09645451 0.05229283 0.018193789 0.09981179 -0.13113937 -0.17182952 -0.16949809 -0.05668504
-0.0058242553 -0.12925574 -0.020517163 -0.09026911 -0.18395048 0.08898806 -0.043783464 0.0058391155
0.014000585 0.00030677643 -0.01110629 0.036540475 0.08841229 -0.14573002 -0.08619532 -0.23693901
0.11446599 -0.16661464 -0.123646796 -0.06446565 0.06748941 0.0049254065 0.04866265 0.1557947
0.2272131 0.16854374 0.042604107 0.11589438 -0.084627606 0.04407259 0.09336804 -0.09370534
0.029646078 0.08810251 0.15561305 -0.07630296 0.087991916 -0.07634121 0.037725177 -0.011076532
0.011166319 -0.089157775 0.24474439 -0.097285315 -0.07528557 -0.06626196 0.013272145 0.12540668
0.0004347636 0.04237041 -0.1713441 -0.024011133 -0.037125375 0.022848472 -0.12606776 -0.16913073
-0.1883134 -0.07123674 -0.12318813 -0.12800072 -0.067570716 -0.12279765 0.0681526 0.06982771
0.07951218 0.11603184 0.09475049 0.004834361 -0.058682073 -0.1502336 0.11541342 0.002217052
0.1942174 -0.123257086 -0.058338147 0.028103428 -0.11526322 -0.13885255 0.025498258 0.017027734
0.13687146 -0.1944175 0.109430455 -0.049167335 0.20780633 0.16816844 0.13771698 -0.090228036
0.14049777 0.11453929 0.15160759 0.15156367 -0.036113188 -0.06288767 0.024753839 -0.1600559
0.18310119 -0.063713886 0.18072557 -0.08851424 0.06933299 0.03812511 0.11231163 0.090476885
0.0070063886 0.08623996 0.14467673 -0.11693531 0.005648497 0.049102444 -0.22104992 0.05861896
0.036589492 0.0007704947 -0.041513182 -0.029118683 -0.17303024 0.16970296 0.11133594 -0.18322739
0.011487584 -0.1032481 0.08716556 0.12962905 0.040215086 -0.019046009 -0.101377025 0.22898668
-0.13779417 0.11394814 -0.18420601 0.02699892 0.09341042 -0.114206225 -0.092232905 0.08317646

lstm.weight_hh_l0 f4 [128, 32]
00000000: 0ca0 4abe 5be8 673d 3d76 983d 17cb abbd
00000010: 0e5a 9c3c d326 47be 69dd 3c3e 05cc ac3d
00000020: da9d 4ebd 3795 bc3d 90b2 babc 4a21 fbbc
00000030: b262 653d 5ad0 663c 43c8 5f3e 5cd9 063e
00000040: e05b 2cbd 0735 aabc 4d77 05bd 10f5 193e
00000050: 84a1 9c3d c62f e43c b5de 323e 8ac3 53be
00000060: c5f7 c73d 2934 ff3c 4502 883d b98b 103e
00000070: f615 6bbd 9266 a03d 8edf 2abe baef 2e3e
00000080: 0bd5 443d f703 5d3d 91cf 24bb 60a3 783e
00000090: 1e8b 473e a94e a23b 60d7 173e 795c dcbc
000000a0: 8729 b2bd aa3f 8ebd e166 d4bd 25dc 44be
000000b0: 146d bfbd 569d 75be 2fee e8bb 07fa 513e
000000c0: 480b e8bd d65e 77bc 12af a83c a160 323d
000000d0: d8e2 89bd e4dc edbc becf 453e 5ce5 023d
000000e0: 35a0 c3bd 1cc2 30bb f234 b8bd eefa d2bd
000000f0: 62b4 e53b 24b5 5d3d 122e b1bd b751 08bd
00000100: 1909 f6bd 7152 79be 847c 3e3d 5a1b 70bd
00000110: 1fe2 e53d b278 a4bc 9e74 6e3e 353e 46be
00000120: 70a2 febd b237 eebd a8f4 f8bd 16c7 8ebd
00000130: 995d 963c c29c bc3d 7502 5f3c 6912 f43c
00000140: e435 10be ca13 37bd e7f5 88bd c8da ccbd
00000150: 46a3 fdbd d762 253d 0794 2f3e 8cbc b53d
00000160: 2a4c e43d fca1 e9bd de4f ab3d de69 cc3d
00000170: 0508 a53d e9bd 15bd f952 2cbe 32d9 ebbc
00000180: aa31 3dbe 5e9c eabd 5e17 393c 337c a6bd
00000190: 10e9 4dbb 2773 ef3c 617d fb3d e4a5 c33d
000001a0: feb7 ea3d c878 81bd fb0f 5abe a8d6 fa3c
000001b0: 2e86 36be 171b de3d eca7 f03d 8c1d 613e
000001c0: 7237 87bd 2284 2bbb ade0 fdbd 3c21 b0bb
000001d0: cd74 0f3e b4aa 133e 910f 693d f839 8bbc
000001e0: dc4c 183d 17d6 4d3d b352 473d 677b 5c3d
000001f0: 265f 29be 4ebf b33d 7cd3 f33d 5075 c7bd
00000200: 523a 13bd 266d 453d 50b7 7bbd cda9 15be
00000210: 7ac4 d7bd 952f 7f3c fc28 5bbd c187 9d3d
00000220: 4ecc 1fbe ff06 3b3e 9f17 0dbe 021e 00be
00000230: aa97 1ebe 9637 76be a3c9 393e ce68 213d
00000240: 5b7d 35be 2fa1 2f3d 0651 c03d 9307 b43d
00000250: 7d95 123d 979d 3bba b59f 003e 6314 17be
00000260: 0d8e d43d edef 17bd a9ef eb3c 945f 0d3e
00000270: 745d 1cbe a755 573e b66a 4cbc 5b71 b1bd
00000280: d3d6 2fbe de86 df3d 68e3 d1bc d921 14bc
00000290: 4d1c 073e 4452 be3d 18aa c23c 9d29 5dbe
000002a0: 66fd 193d 2521 403e 0286 453d ffd2 ff3d
000002b0: bf11 f13c 296f 633c 131d 17be 7ba9 2abd
000002c0: 1b32 923c 0086 e6bd eb5e 92bd a7fe f33d
000002d0: 42ce d7bd 03c7 423e 5ee0 873d 9aba 4fbd
000002e0: 9d88 cebd d4dc eb3d 9c1a 6d3e 6c79 c43d
000002f0: 214b 923c fbcc be3d 8832 873d 52b7 d0bc
00000300: 2882 dfbc 7018 68be 7346 43be afd1 0f3e
00000310: ad1f 45bd 1bc2 f03d bc8e 64bd 220a 85bc
00000320: bf8b a23d 6761 383e ffd8 20be 4982 db3d
00000330: 140f 20be 43e2 b8bd 82fd 123e 7f4e aa3c
00000340: da75 863d 19f3 b7bc ac51 fd3b 2464 ddbb
00000350: 3896 253e 3fb9 7ebd 92f8 04be b353 56be
00000360: 2cf2 583e 9cdc 823d 3a8c b13d 0eb8 b6bd
00000370: 7d81 c93d c61b 493d e1ab 1cbd 8f16 2d3e
00000380: 49be 2fbe 65fe 3ebe 9687 883d 613e 8abd
00000390: 06ac b03d 56fe 92bd cc49 433d 3768 27be
000003a0: 4ac3 f8bd 00ce a2bb 903f 323d 5f24 a8bd
000003b0: 8623 6dbe ab42 b33d a271 9cbc 0249 b43d
000003c0: ddf6 3bbe 51a6 b8bd 7de5 84bd e921 093b
000003d0: 7246 7dbd d039 a3bd ce68 6dbd 8d53 1f3d
000003e0: 5be5 033d d266 50be df75 91bd 2d3f 893d
000003f0: 7d66 5ebe 6f3d 383d 08ee 153d c325 c33c
-0.19787616 0.056618076 0.07444427 -0.08388346 0.01908591 -0.19448404 0.18443836 0.08437351
-0.050443508 0.09208148 -0.022790223 -0.030655522 0.056002326 0.014087761 0.21853738 0.13168854
-0.042079806 -0.020777239 -0.032584477 0.1503489 0.07647994 0.027854811 0.17467768 -0.20680061
0.09764055 0.031152802 0.06641058 0.141158 -0.05739399 0.07832064 -0.16686842 0.17083636
0.048054736 0.05395886 -0.0025148133 0.24281073 0.19486663 0.0049532247 0.14828253 -0.026899563
-0.08699327 -0.06945737 -0.10371185 -0.19224603 -0.09346977 -0.239858 -0.007108472 0.20505534
-0.11330277 -0.015098294 0.020591293 0.043549184 -0.0673272 -0.029035993 0.19317529 0.031957015
-0.095520414 -0.0026971167 -0.089944735 -0.10301767 0.0070100287 0.054127827 -0.08651365 -0.033281054
-0.12013454 -0.24347855 0.046505466 -0.058619834 0.1122477 -0.020077083 0.23286673 -0.19359668
-0.12433326 -0.11631717 -0.121560395 -0.069715664 0.018355178 0.09209587 0.013611426 0.029793935
-0.14083058 -0.044696607 -0.06687527 -0.10002667 -0.123846576 0.040377464 0.17146312 0.08873853
0.1114734 -0.11407849 0.08364843 0.0998113 0.0805817 -0.036558066 -0.16828527 -0.02879009
-0.18475977 -0.11455606 0.011297075 -0.08129158 -0.0031419434 0.029229714 0.122797735 0.095531255
0.11460875 -0.06321865 -0.21295159 0.030619934 -0.17824623 0.10845011 0.117507786 0.21983927
-0.06602372 -0.0026171287 -0.12396369 -0.0053750556 0.140094 0.14420587 0.05689961 -0.016995415
0.037182674 0.050253 0.048662852 0.053828623 -0.16540202 0.08776723 0.11905572 -0.097391725
-0.03594429 0.048199795 -0.061454117 -0.14615555 -0.10535522 0.015575309 -0.053505883 0.07691909
-0.1560528 0.18264388 -0.13778542 -0.12511447 -0.15487543 -0.24044642 0.18143325 0.03940659
-0.177236 0.042878326 0.09390454 0.08790507 0.035787094 -0.00071569666 0.12560923 -0.1475387
0.103786565 -0.037094045 0.028800802 0.13805991 -0.15270025 0.21028768 -0.012476614 -0.08664199
-0.17171793 0.10914396 -0.025621131 -0.009041273 0.1319439 0.09293035 0.023762748 -0.21597905
0.037595175 0.18762644 0.048223503 0.12491416 0.029427407 0.013881483 -0.14757185 -0.041665535
0.017846158 -0.11256027 -0.071470104 0.119138055 -0.105373874 0.1902123 0.066345915 -0.050715066
-0.10084651 0.11516729 0.23154682 0.09593472 0.01785809 0.09316441 0.06601435 -0.025478039
-0.027283743 -0.22665572 -0.19069843 0.14044832 -0.04812591 0.11755773 -0.055800185 -0.016240183
0.07936811 0.18005906 -0.15707777 0.10718209 -0.15630752 -0.09027531 0.14354518 0.020789383
0.06565447 -0.022454785 0.0077306833 -0.0067563225 0.16170585 -0.062188383 -0.12985447 -0.20930366
0.21186131 0.06389734 0.08669324 -0.089218244 0.09839151 0.049098752 -0.038249854 0.16903137
-0.17162432 -0.18651731 0.06666486 -0.06750179 0.08626561 -0.07177417 0.0476778 -0.16348349
-0.121466234 -0.004968405 0.04351765 -0.08210062 -0.23158082 0.0875295 -0.019097153 0.08802988
-0.1835589 -0.09016097 -0.06489084 0.0020924753 -0.06183476 -0.07970011 -0.057961278 0.03889804
0.032201152 -0.20351723 -0.0710256 0.06701503 -0.21718784 0.044980463 0.036603957 0.023821717

lstm.bias_ih_l0 f4 [128]
00000000: 072c 5b3e c9c3 4f3e 445b c23d 6b2c 113e
00000010: 44b3 633e 9051 603e 6e44 f73d 4339 ba3d
00000020: 03e7 2c3d 8445 393c 7381 563d 3512 e2bc
00000030: 8526 00bd f701 693b f79f 073e f8a9 753d
00000040: 5f6d b8bd d8d7 263e e6fe 3d3e 83ff 2a3e
00000050: 0004 383e 7594 203c 5ec9 62bc 9812 6a3d
00000060: 9c7d 553e 3f70 1ebd fcde e73a 8b3f 4f3e
00000070: e910 9abd 70dd 523e b83e 8ebd 7d79 db3c
00000080: dfea 053c bf10 fc3d d76a 21bd 91e2 963c
00000090: 7e21 93bc a1ea 513c 990b 5ebd d43b 66bd
000000a0: f03b 0c3d 48c8 babd 0088 103e 207a 2b3e
000000b0: e91c b7bc f489 db3d 9c69 d43d a02a 2f3e
000000c0: c575 413e 4389 49bd 1432 5a39 bf61 d2bd
000000d0: 8f76 e43c 1d51 d6bd 7de7 80bb c7b7 a3bd
000000e0: ab01 4d3e fbff a03c 8adb 4d3e 37ae 6d3e
000000f0: 776d f73d b9f3 dbbd 8fc5 aebc cc59 183d
00000100: 0982 2dbe b17e 053d 6068 033d ea7a 5b3d
00000110: b485 4b3e b738 253d 6c1c ff3d a476 3cbe
00000120: f640 803d 2706 513e ec14 afbc 6fcd 1bbe
00000130: 6cf3 e4bd 510a 53be ae83 023e 3d08 493e
00000140: b67b 66bd 2e8b 7fbd f0fc e53c ac66 6a3e
00000150: d2ab 09bd 4b4d b83d 07e6 483e 24c3 40bd
00000160: 8d97 4b3d 60bf 83bc b2b5 5e3d 34df 523e
00000170: 26bb c3bd 1e59 ec3d 1310 69be 646e 813c
00000180: dc33 413e 3a49 4d3e f984 f3ba 1276 373b
00000190: 1f98 703e 0fe8 053e 41de 9c3d 88c0 1fbd
000001a0: f78f bf3d f443 ab3d c555 45bd e677 2e3e
000001b0: 1a4f 38bd f3dd 443e be3f f7bd c3ca 0b3e
000001c0: 11f8 ccbd 6ca1 2a3e 9ce9 483d 6cab 053d
000001d0: 7e98 3a3e d3c4 6dbd aade b13c 1cb2 973c
000001e0: 6e2b 403e 03e8 5fbd c23b c1bd 2aee 0f3e
000001f0: 7a84 bbbd 6b73 b5bd 1f59 e93d d81e a1bd
0.21403514 0.2028953 0.09490064 0.141771 0.22236353 0.21906114 0.12073599 0.09092953
0.042212497 0.011308078 0.052369546 -0.027596572 -0.031286735 0.003555415 0.13244615 0.059976548
-0.09005236 0.16293275 0.18554267 0.16699032 0.17970276 0.00980102 -0.013841955 0.05714664
0.20848697 -0.038681265 0.0017690356 0.20239083 -0.075227566 0.20592284 -0.069455564 0.026791329
0.008173673 0.123078816 -0.03940853 0.018418582 -0.017960306 0.012812288 -0.05421028 -0.0562094
0.03423685 -0.09120232 0.1411438 0.16745806 -0.022352653 0.10719672 0.10371706 0.17106104
0.18892582 -0.04920317 0.00020808756 -0.1027255 0.027888564 -0.1046469 -0.0039338456 -0.07994037
0.20020168 0.019653311 0.20103279 0.23210989 0.12081426 -0.10739846 -0.021334438 0.037195012
-0.16944136 0.032591525 0.03208196 0.053584017 0.19875222 0.04033729 0.12456593 -0.18404633
0.0626239 0.20412503 -0.021372281 -0.15215085 -0.111792415 -0.20609404 0.12745544 0.19632049
-0.056270324 -0.06238859 0.028074712 0.22890729 -0.033611126 0.089991175 0.19618998 -0.0470611
0.049705077 -0.016082466 0.054372497 0.20592958 -0.0955718 0.11540435 -0.22760038 0.015799709
0.18867439 0.20047465 -0.0018579058 0.002799396 0.2349553 0.13076805 0.07659579 -0.03900197
0.09353631 0.083625704 -0.0481775 0.17037925 -0.044997312 0.19225292 -0.12072705 0.13651566
-0.100082524 0.1666314 0.049050912 0.032634184 0.18222234 -0.058049034 0.02171262 0.018517546
0.18766567 -0.054664623 -0.09435226 0.14055696 -0.09156127 -0.08859905 0.113939516 -0.07867211

lstm.bias_hh_l0 f4 [128]
00000000: 8e64 cc3d 4484 c2bb 475f e03c 0ab0 c63d
00000010: 4e6c 253e 28a2 edbb 37aa 84bd 767f 93bd
00000020: 4d2a c9bd 82d3 c53c 6629 e73d d1a9 563e
00000030: 5ea6 8ebd 2da4 c7bc 3f01 f63d f355 babd
00000040: f25d 16bc 250d 183e d613 dd3c 138f 053d
00000050: 85cf f2bc f4e7 d8bc 49c7 efbb d528 c03d
00000060: 29d1 f93d de26 c63d c9f1 043e 24b3 13bd
00000070: 031c acbd c81b adbd 8833 0a3d ad90 433b
00000080: 6235 093e 5dd2 643e 5f6f 85bd 8c5c 3a3e
00000090: b952 093e 3706 483e 6479 e73d f6f9 cbbd
000000a0: f5b3 0bbd a9f7 3c3e fe5b 9d3d b5cd 2a3d
000000b0: 2956 393e be1e a13d 2a41 1b3e 9f7e 863b
000000c0: ae9c 363d ebbc 36bd 9b46 093d 3080 863d
000000d0: 188b 7fbd 7705 6d3e ffae b1bc 616a 163d
000000e0: a104 ff3d 8c42 7c3d 7612 c03d 70e7 cabc
000000f0: 3e15 5a3e b6a0 a23c ceaf 4ebd 847c 76bd
00000100: ead5 12bd dea3 03be 965e c73d 0701 2e3c
00000110: 16d3 053e df52 11be c571 e2bd a58a 40be
00000120: ef8a 733d 86e6 94bc b8c1 363d 1847 bcbd
00000130: 8c3f 633c 3272 2fbe 525f 82bd 174e 183b
00000140: bd08 d33b 0cea 32be bfc7 c9bd 9471 39bd
00000150: 5075 f03d 6caa 2d3e e2fd 3a3e e376 44bd
00000160: e8cf 303e a802 ebbd db09 4ebc 419d 133e
00000170: 45d4 eebd d95e 9b3d 7c42 3abe 3ff4 f93d
00000180: 1e76 debd 4483 523e fe3e 613d c4d7 ec3d
00000190: 1fad 1b3e 9985 033e 26fe 713d b8cd c23d
000001a0: 3049 09be fe80 b8bd e13f c2bc bee8 a6bb
000001b0: abf2 793d ba71 823e ba47 1bbe 8565 d53d
000001c0: 428f 2f3e 6f5b 633c bb7d a03c b501 f13d
000001d0: 67ad 83bd f40d 653d c9c0 b23d 686a c03c
000001e0: f724 7dbd 8554 89bd 952b c03d 7594 ccbd
000001f0: 88b8 5a3e e48e abbd 7300 a03d 7663 fb3d
0.09980117 -0.0059361774 0.027389182 0.097015455 0.16154596 -0.0072519965 -0.064777784 -0.072020456
-0.09822521 0.024148706 0.11287193 0.20963217 -0.06965326 -0.024370277 0.120119564 -0.09098425
-0.009177672 0.14848764 0.026986998 0.03260715 -0.029639969 -0.026477791 -0.007317458 0.09382788
0.12198097 0.09675382 0.12982859 -0.036059514 -0.0840378 -0.084525645 0.03374055 0.0029840872
0.1339927 0.22345872 -0.06515383 0.18199366 0.13410462 0.19533621 0.1130245 -0.09959786
-0.034107167 0.1845385 0.07683562 0.041700084 0.18099274 0.07867192 0.15161577 0.00410445
0.044583015 -0.04461376 0.0335146 0.065674186 -0.06238851 0.23146616 -0.02168989 0.036722545
0.12452055 0.0615869 0.09378521 -0.024768561 0.21297166 0.019852024 -0.05046063 -0.06017734
-0.035848536 -0.12855479 0.09734838 0.010620362 0.13068804 -0.14191769 -0.11056856 -0.18802889
0.05945867 -0.018176328 0.04461834 -0.091932476 0.013870131 -0.17133406 -0.06365837 0.0023239905
0.0064402507 -0.17472094 -0.09852552 -0.045274332 0.117411256 0.16959542 0.18260911 -0.04796494
0.1726681 -0.11475116 -0.012575592 0.14415456 -0.11661581 0.0758645 -0.18189424 0.12204789
-0.10862373 0.20557886 0.054991715 0.115645915 0.15202759 0.12843932 0.059080265 0.09511894
-0.13406825 -0.09008978 -0.0237121 -0.005093663 0.06102244 0.2547739 -0.1516408 0.10419754
0.17144492 0.01387678 0.019591203 0.11767904 -0.06429558 0.05592151 0.08728177 0.023488238
-0.06180283 -0.06705574 0.093833126 -0.099892534 0.21359456 -0.083768636 0.07812586 0.1227483

dense.weight f4 [64, 32]
00000000: 52f5 86bd 334c 7a3d acc5 e1bd 68f6 0f3d
00000010: de0b 853e 73cd 9c3d 0d49 2d3e c472 4fbe
00000020: 8630 0fbe 3dd9 45bc 65be aa3d 345d 723b
00000030: 8ef3 683d fddf 80be b401 d33d 7932 cd3d
00000040: 61e4 893d 03d1 9b3c d2fc 65be 067a ed3d
00000050: d58f 2d3d 4df0 08bb cb46 e93d cc47 23be
00000060: 7909 8dbd fba0 45be 106a cdbd 134c 9f3e
00000070: 4745 7dbe eeb5 293e c0b0 1abd 9742 853e
00000080: 42c6 6fbe 7b36 d2bd d8bc 39be 5bed 253e
00000090: b90a 2f3e d2a8 a5bd 7f34 0e3e 8133 9ebc
000000a0: 94b7 3ebe 4e56 b93d f57c 00bd 28b5 2ebe
000000b0: 91e9 47bd 2b6f da3d 0114 d53e 176d 8bbd
000000c0: 0728 1bbd ecbb 26bd 797c cebc babf 143b
000000d0: 895c 523c 4638 883d 1711 4c3e c3c8 b1bd
000000e0: b90f e13d 4e00 09be cdd1 683e e452 953e
000000f0: 3d73 42be df20 d9bc 7257 3abd f72d ec3d
00000100: 1185 12bd da24 96bd cc4a 883d 2125 333e
00000110: 2ebc 8fbd b39d 09be 1b42 4d3d 80af 8abd
00000120: f256 db3d 5327 ed3d b71c 023e b0f4 003d
00000130: 2897 63bd 97f6 f43d cc92 a43d e66f 4b3d
00000140: 3b5a 223e 6d39 3abc e70a 7e3d 2969 2a3d
00000150: 395a c4bd 4101 89bd 3671 87bd 02e8 273e
00000160: 357e 03be 8e83 a3bd a1cf 29bb 2d05 fcbd
00000170: d765 433e 2ce8 043e 1984 cdbd ca26 f33b
00000180: 20c9 18be 3a53 cabd 6930 0b3e 934b 1dbe
00000190: f007 623d 9c05 53bd 3d0b 243e 32e6 9a3b
000001a0: 6d44 00be 9155 66bd dbe8 adbc f790 623c
000001b0: eb03 de3d 55f8 343d bb58 873d 620c 073e
000001c0: ab8f 8a3d a58e 043e 4b22 be3d 0975 003e
000001d0: 0bcc ffbd b382 e8bd cae1 933a 5151 1cbd
000001e0: 0eb8 a5bd 5b90 3e3b 8545 80bd 9189 2abd
000001f0: 560a a93d 0326 cdbc 8323 973d 452a 143e
00000200: db72 4fbd eb1b 9e3d c77b 10be 1df2 02be
00000210: be0d 1bbe 7a3f 2ebd dcf3 afbd 5c8b 2ebd
00000220: 17ba 0e3e 4edf 26bd 6896 193d cee6 b33d
00000230: e4ef 0ebe 3708 fbbd d10c 13be 7dfb 11be
00000240: ef91 0e3e d3fe e53d 4a39 2a3d e90e 16be
00000250: 508b 15be d026 d93d da1e 2f3e 3d38 c13c
00000260: e386 cbbd d3d1 0ebe 20ec 68bd 8bfe 8ebd
00000270: a8ae 233e 81ff 3e3d 2985 b03d a280 383d
00000280: f051 f8ba ba0e 393d 34c6 3b3c 981f c63d
00000290: 41ea 743c ffd5 073d e07c 3b3e 39a8 9c3d
000002a0: 7e0c 7dbd 0f48 823e 5c82 55be 7b60 7abb
000002b0: 2618 02be da81 6b3d 072c c43e cf90 6b3e
000002c0: 80bf 53be adf4 6ebe 8b49 4abe 9b9e 97bd
000002d0: 0486 6fbd 39b7 acbd 0cff 643e 3a36 04be
000002e0: 8cc6 b7bd cc3a 99be a988 283e 69ae 993e
000002f0: f6b9 05bd 1414 503e e136 d1bd f787 7a3e
00000300: 9239 853d e17f e33d fbde 96bd 772f ccbc
00000310: 79b2 203e 0ebc 05be 5cf2 4abe fa48 f9bd
00000320: bd4d 1b3e a9ba bd3d 5ad0 2f3e 956a 893d
00000330: 0398 a5bd e5b8 143e 6660 183e 7ff8 253d
00000340: 720e 1ebe 06aa 423b 95a4 273e 29b7 4bbe
00000350: f71d 66bd 498f 20be bb1c 31be ebbd 4ebd
00000360: 6f61 943d 05d8 b43d 39cc 89bc 6195 0ebe
00000370: b91f cf3d 3803 913c 69e3 063e 7233 503d
00000380: 0fe0 dc3d 532c 3b3c 1b68 243e 295e 82bd
00000390: 04e9 23be ba53 013e 9259 3e3d d834 70bd
000003a0: c7b3 263e 9fba ee3d 011b 893d 0980 5cbd
000003b0: abf5 823d 0eec 6abd 56a6 253e 354a 35be
000003c0: a470 64bd ef11 c63d 162d 5c3c 864a 643d
000003d0: 71bb 753c 5de6 273e e2cf c2bc 32f2 e33d
000003e0: 0356 d43c 17f4 ab3d 36ac d43d 8a18 f8bd
000003f0: c489 93bc 134f 19be cfdd d33d 9510 12be
-0.0658976 0.061107825 -0.11024031 0.0351471 0.25985616 0.07656374 0.16922398 -0.20258623
-0.13983354 -0.012075719 0.08337096 0.0036981823 0.056872897 -0.2517089 0.10303059 0.100193925
0.06733013 0.019020563 -0.22459725 0.1159554 0.042373497 -0.0020895184 0.11390456 -0.15945357
-0.068865724 -0.1929969 -0.100299954 0.31112728 -0.24733458 0.16573307 -0.03776622 0.26027367
-0.23415473 -0.102642976 -0.18138444 0.16203825 0.17093934 -0.080888405 0.13887213 -0.019311668
-0.18624717 0.090496644 -0.03136917 -0.17061293 -0.04880673 0.10665735 0.41616824 -0.068079166
-0.03787997 -0.04070656 -0.025205838 0.0022697286 0.012839445 0.06651358 0.19928394 -0.086808704
0.10989327 -0.13379022 0.22736283 0.29164803 -0.18989272 -0.026504932 -0.04549355 0.115322046
-0.035771433 -0.07331248 0.06654891 0.17494632 -0.07018314 -0.13439064 0.05011187 -0.06771755
0.10709943 0.11579766 0.12706266 0.031483352 -0.055564076 0.11961096 0.08035812 0.04966726
0.15854733 -0.01136623 0.062022116 0.041604195 -0.09587521 -0.06689692 -0.0661339 0.16397098
-0.12841113 -0.079840764 -0.002591111 -0.12305675 0.19081818 0.12979192 -0.10034961 0.0074203955
-0.14920473 -0.098791555 0.13592686 -0.1536086 0.05518335 -0.05151902 0.16019912 0.0047271485
-0.12526102 -0.056233946 -0.021229198 0.013828508 0.10840591 0.04418214 0.06608721 0.13188317
0.06765684 0.1294504 0.092838846 0.12544645 -0.1249009 -0.11353054 0.00112825 -0.038163487
-0.08091746 0.0029077742 -0.0626326 -0.0416351 0.082539245 -0.02504254 0.0737982 0.1446925
-0.050646644 0.07720169 -0.14109717 -0.12787671 -0.15141961 -0.042541005 -0.08591434 -0.042613372
0.13938175 -0.040740304 0.037496954 0.08784257 -0.13958699 -0.12257426 -0.14360358 -0.14256091
0.13922857 0.112302445 0.04155854 -0.14654125 -0.14603925 0.10603106 0.17101613 0.023586387
-0.09937837 -0.13947229 -0.05686581 -0.06982144 0.15984595 0.046630386 0.08619148 0.04504455
-0.0018945318 0.04518006 0.0114608295 0.09673995 0.014948429 0.033163067 0.18309355 0.076492734
-0.06177949 0.254456 -0.2085051 -0.003820448 -0.12704524 0.057496883 0.3831484 0.23004459
-0.2067852 -0.23335524 -0.19754617 -0.074032985 -0.058477417 -0.084333844 0.22362918 -0.12911311
-0.08973417 -0.2992767 0.16458382 0.30015877 -0.03264805 0.20320159 -0.102155454 0.24465929
0.06505121 0.11108375 -0.07366749 -0.024924977 0.15693082 -0.13060018 -0.19819015 -0.12172122
0.15166374 0.09264118 0.17169324 0.06709782 -0.080856346 0.14523657 0.14880523 0.040520187
-0.15435198 0.0029703393 0.16371377 -0.19894089 -0.05618092 -0.15679659 -0.17296116 -0.05047409
0.072451465 0.08830265 -0.016821014 -0.13924171 0.101134725 0.01770173 0.13172688 0.050830312
0.10784923 0.011424142 0.16055338 -0.06365616 -0.16006857 0.12629595 0.04647214 -0.058644146
0.16279517 0.11656689 0.06694604 -0.05383304 0.06394514 -0.057354026 0.16176733 -0.17704089
-0.055771485 0.09671389 0.013438484 0.055735134 0.014998303 0.1639647 -0.023780767 0.111301795
0.02591992 0.08396166 0.10384409 -0.121140555 -0.018010028 -0.1497157 0.10345041 -0.14264138

dense.bias f4 [64]
00000000: 8cb6 9c3d de12 e7bb b17e 0b3d aa7d dfbd
00000010: e157 c8bd e51b 383e 6b32 01be 3882 f6bd
00000020: e7e0 003e 9c83 143e 5018 163c 91f2 a4bc
00000030: 019b 693d 30e2 963d 16fd a03d 1e23 613d
00000040: 6b15 c8bd eb6c 8abd 7b24 16be 61f5 2d3e
00000050: 82dd dd3d a884 423d 63ca c4bc f144 d93d
00000060: a486 1d3d ff98 013e a900 a8bb 63b8 5d3d
00000070: 3a8a 3fbc 53ed dc3d ad68 9e3b 167b acbc
00000080: be85 2d3e 8cb6 c7bd 0c70 223e 93cf 68bc
00000090: d603 a5bd f031 253e da95 14bc 050b 103e
000000a0: 8f3b 90bd 91ad 81bd fc14 5abc cb5b 143e
000000b0: 90ba bcbc 6b3b 2b3d 3f93 6d3d a131 12be
000000c0: f0e6 02be e406 f63c 32fe 76bd 5341 0a3d
000000d0: 4317 0b3e 17be a4bd 40c2 073e a360 523e
000000e0: f099 873c 39b1 183d bda3 1d3e 94a8 c6bd
000000f0: 3f7d 403e b5cd 1ebd b6e4 ad3c c43c 013d
0.076520056 -0.0070518097 0.03405637 -0.109126404 -0.097823866 0.17979391 -0.12616889 -0.12036556
0.12585793 0.1450333 0.00916107 -0.020135196 0.05703259 0.073673606 0.07860772 0.05496513
-0.0976971 -0.06759056 -0.14662354 0.16988136 0.10833265 0.047489792 -0.024022287 0.10608853
0.03845848 0.1265602 -0.005127032 0.054130923 -0.011690671 0.107874535 0.0048342557 -0.021054786
0.1694555 -0.09751615 0.15863055 -0.014209646 -0.08057372 0.16132331 -0.0090689305 0.14066704
-0.0704261 -0.06331933 -0.013310667 0.14488141 -0.023038179 0.041804712 0.058001753 -0.14276744
-0.12783408 0.030032583 -0.060301013 0.033753704 0.13583092 -0.08044069 0.13257694 0.20544676
0.016552895 0.037278388 0.15394492 -0.097001225 0.18797778 -0.038770396 0.021227222 0.03155209

output.weight f4 [1, 64]
00000000: e7cd 003e 35b6 de3d 98c7 d2bd f875 6ebd
00000010: 6039 333d de4a d63d e41d 503c 6bc2 dabd
00000020: 09be db3d 4bca 16bd 45e2 e13d aebe a63d
00000030: 1bfd 90bd c0a9 293e 1db0 7dbd 7cd9 93bd
00000040: 5ca5 03bd 6c40 b0bd 822a d8bd 1dd3 cf3d
00000050: 2e07 e73d 0b1e b73d 3122 c03d ea17 dd3d
00000060: 919f 1e3e 9acd 9abd 16b9 0d3e ece1 d7bd
00000070: 63d1 d4bc 5767 0fbd 5514 123e 3856 4ebd
00000080: e420 cc3d f882 3dbd 2829 ef3d 8669 493c
00000090: 2076 803b 368c e93d 6d0f 40bb 7a0f 6f3b
000000a0: e49c 54bd c983 b63d ed40 c4bd 4f03 6abd
000000b0: 0299 103e 1ba4 023e 788b 8dbd 73e2 ec3d
000000c0: dbe0 23bd 15fd 93bd 8cdf f73d 34fd 923b
000000d0: 042a d5bc a1fa c4bd b852 debc b138 d23d
000000e0: 1105 a8bd 1a2e 65bc bc19 c93d 0ee8 86bd
000000f0: 5cc1 e13c 2c58 603b c3f2 e63d 06c9 cb3d
0.12578546 0.10874597 -0.10291976 -0.058217973 0.04375589 0.104634985 0.012702439 -0.106816135
0.10729606 -0.036814015 0.110294856 0.08141838 -0.07079526 0.1656866 -0.061935533 -0.07219216
-0.03214012 -0.086060375 -0.10554983 0.101476885 0.11280666 0.08941277 0.093815215 0.10795577
0.15490557 -0.07558747 0.13840136 -0.10541138 -0.02597875 -0.035010662 0.14265569 -0.050375193
0.09967211 -0.04626748 0.11677772 0.012293225 0.0039203316 0.11403696 -0.002930607 0.003647773
-0.051907435 0.08911855 -0.09582696 -0.05713206 0.14120868 0.12757914 -0.06911367 0.11566629
-0.04000936 -0.07226006 0.12103185 0.0044857506 -0.026021011 -0.09618116 -0.027139053 0.10264719
-0.08204091 -0.013988042 0.098193616 -0.0658723 0.027558021 0.0034232242 0.11276772 0.099504516
