ablation_study/results/unidirectional_gru_model.pth (torch, 80916 bytes, 7 tensors)

gru.weight_ih_l0 f4 [192, 13]
000000 77 39 ca 3e 79 0b 29 3e e7 22 b0 3d 64 eb 20 3e
       0.39496967 0.16508283 0.08600407 0.15714794
000010 34 9b 59 3d 72 1b 1b be 86 aa 86 3d 28 58 96 3d
       0.05312653 -0.15147188 0.065754935 0.07341033
000020 80 c1 ba 3e bc f6 8c 3d 91 b0 0e 3e 99 a4 93 3e
       0.36475754 0.06882998 0.13934542 0.28836516
000030 8b 4d c7 3e 6d 11 d6 bd 1a c7 bf 3c 1e 18 38 be
       0.38926348 -0.104525425 0.023410369 -0.1797795
000040 db 01 1f 3e 57 cf 36 3e 2e 36 f5 bd 57 82 21 3d
       0.15528052 0.17852531 -0.119732246 0.039430942
000050 ac e5 6b bd 5f e5 cc bd 7a fb 97 bd 11 d0 2b 3e
       -0.05759208 -0.100046866 -0.07421012 0.1677859
000060 fc 75 66 be b4 6d 50 be 41 36 01 3e 1f 93 1a bd
       -0.22505945 -0.20354348 0.12618352 -0.03773796
000070 5a e4 2f bd bb 24 75 bd bd f3 7d 3e cc 29 4d be
       -0.042942382 -0.059849482 0.2480001 -0.20035475
000080 05 f0 2f 3e c8 69 aa 3c 5c d0 9f 3d d6 05 23 3e
       0.17181404 0.020802394 0.07803413 0.15920195
000090 77 85 05 3d 85 ab 9e 3e 14 7a 72 3e 30 c4 eb 3c
       0.032597985 0.30990234 0.23679382 0.028780073
0000a0 c1 96 4a 3d 49 1b 62 bd 5e 69 47 3d be b2 e7 3d
       0.049460176 -0.055201802 0.04868447 0.11313389
0000b0 05 21 a4 3d 37 fd e1 3a 9e c7 93 3d 47 bb 9c 3d
       0.080141105 0.0017241602 0.07215808 0.07652908
0000c0 88 fa b1 3d b6 a3 cc bd 59 92 86 bd 64 59 ae 3a
       0.08690363 -0.09992163 -0.06570882 0.0013301787
0000d0 2f 6d 1e bc e6 3a b1 3d 06 a7 6a 3c 3a 57 8f 3d
       -0.009669586 0.08653812 0.014322048 0.06999059
0000e0 f4 2a 38 3d 12 02 63 bc 42 eb b5 3d 38 e4 b5 bd
       0.04496284 -0.013855474 0.088827625 -0.0888142
0000f0 7b 99 af 3d 81 a6 94 bc ad 5b 9c 3d 3c bd 42 ba
       0.08574196 -0.018145801 0.07634673 -0.0007428711
000100 36 d2 b0 3d a5 39 23 3d 4a 76 b2 3d ea 98 0a bd
       0.086338446 0.039849896 0.08713968 -0.033837236
000110 f7 f1 06 be bb 4d 01 be a4 ef 14 3e 55 f3 5b 3d
       -0.1317824 -0.12627308 0.1454454 0.053698856
000120 10 56 f6 3d 34 28 9d bd 98 2a 24 be ae 37 47 be
       0.12028134 -0.07673684 -0.16031873 -0.19454834
000130 56 98 26 3c e5 ee 28 3e e3 ab 01 3e 51 31 c1 3d
       0.010168156 0.16497381 0.12663226 0.094332345
000140 11 74 a1 bd 22 6d bb bd 7b 92 e6 3d b9 4e b6 bd
       -0.07883466 -0.09151675 0.11258408 -0.08901734
000150 cb ea d0 3d f0 fe f2 bc 46 80 09 3e f2 db 47 bd
       0.10201033 -0.02966258 0.13427839 -0.04879374
000160 7f 30 17 bd 5e f0 d8 3d 98 74 cd 3d 00 f7 a0 3d
       -0.036911484 0.105927214 0.10032004 0.078596115
000170 0d 4a ab 3d 09 c8 81 3d fb 49 fe bc db 78 4c 3a
       0.083637334 0.06336982 -0.031041136 0.0007799991
000180 f6 f5 56 3d d7 bd 1f 3d 2c 83 35 bd 63 47 2a bd
       0.05248066 0.038999405 -0.04431455 -0.041571986
000190 5d f9 19 bd b9 34 0d 3d b8 f0 c3 3d 27 12 13 3c
       -0.037591327 0.03447411 0.09567398 0.008976496
0001a0 2c 61 6b 3d 07 45 cd bd f8 2a 02 be 59 72 84 bc
       0.057465717 -0.100229315 -0.12711704 -0.016167806
0001b0 f8 6c 0b be c7 4d a9 bd bb 6e a9 3d 70 68 c1 3c
       -0.13615787 -0.08266788 0.08273073 0.02360937
0001c0 fa 37 b2 3d 38 a3 85 bd 24 6a b6 bc 3f 1c 53 bd
       0.08702083 -0.06525272 -0.022267409 -0.05154061
0001d0 54 49 14 3d 55 91 43 bd d5 87 97 bd c0 9b 6d bc
       0.036202744 -0.04774602 -0.07398955 -0.014502466
0001e0 68 c8 c9 3b d9 86 9b bd 16 a8 82 bd d7 c9 76 bd
       0.0061579235 -0.075940795 -0.06379716 -0.060251083
0001f0 98 b7 af bd 70 3c a9 bc 8f 01 d9 bc 14 0d fd bd
       -0.085799396 -0.020658702 -0.026490001 -0.1235601
000200 5c 44 1c 3d c6 b2 9a bd a0 76 4f 3e b9 f0 41 3d
       0.03815113 -0.075536296 0.20260096 0.04734871
000210 0b ac a7 bd 37 27 0a 3e c0 99 82 3c 95 e1 e9 bd
       -0.081871115 0.13491522 0.015942454 -0.114199795
000220 67 9b 6e bb 50 81 fe bd d1 6f 0d 3e 3e a2 3c 3d
       -0.0036408545 -0.12427008 0.13812186 0.046053164
000230 c8 d5 52 3d 68 6f cb bd b1 2d df 3d 23 16 fe bc
       0.05147341 -0.099333584 0.10897387 -0.031016415
000240 74 08 a9 bc df 82 12 bd 7a 88 97 3d 8c 64 a5 3d
       -0.020633914 -0.03576934 0.07399078 0.080758184
000250 af 32 17 3e d7 91 29 be 88 da 00 3d 7b 2f 8f 3c
       0.14765428 -0.1655954 0.031458408 0.017478695
000260 2b af 2a 3d b2 76 7f bd c4 7c 01 3d 25 95 1e be
       0.04167096 -0.062369056 0.031613126 -0.15486582
000270 2e b1 6a 3d ff a9 03 3c ce 9d 83 3c ac 8d e7 bd
       0.057297878 0.008036136 0.016066458 -0.11306319
000280 a4 a2 47 3d ae dc d4 3d d6 6e 8d bd ea 99 e1 bd
       0.04873909 0.10393654 -0.06905906 -0.11015685
000290 66 6c 30 3d 8b 79 d8 bc 47 94 42 bd 35 e2 d8 3d
       0.043072127 -0.026425144 -0.04750469 0.105900206
0002a0 f9 26 0b 3d d2 44 aa 3a ba b5 c6 bd 6b 10 f3 ba
       0.033972714 0.0012990481 -0.0970263 -0.0018544322
0002b0 9f 56 a1 bd 87 2b 8c 3c af be e8 bc bf 22 82 bd
       -0.0787785 0.0171106 -0.028411238 -0.063542835
0002c0 4c 40 bf bd bc 45 1b 3d d8 26 ab 3c 1d 86 5b be
       -0.093384355 0.0379083 0.020892546 -0.21437879
0002d0 2a 2f fd 3d c9 24 52 3e 7d 4c 64 3d 90 7a ab bd
       0.123625115 0.20521845 0.055737007 -0.08372986
0002e0 1e b7 a3 3d bc 6b c9 3d 10 17 4c 3d c1 58 a1 bd
       0.07993911 0.09835002 0.04982668 -0.078782566
0002f0 90 28 c4 3c d0 18 5b 3c ef f9 6d 3b 44 af bb bc
       0.023945123 0.013372615 0.0036312302 -0.022910722
000300 9f 87 ad 3d 15 be e9 3d 30 55 c2 3b 87 5d 02 3e
       0.08473133 0.114132084 0.0059305653 0.1273099
000310 4e d9 c8 3d af ef 74 3d f7 bc 1b 3d 95 5e 66 bd
       0.098070726 0.059798893 0.038022008 -0.056242544
000320 a3 12 c4 bd 22 87 56 bd cc 95 d7 3d 14 2e 2a 3e
       -0.09573867 -0.052374966 0.10526618 0.1661914
000330 29 75 5e 3d a1 47 bb bd c2 90 92 bc d0 3c 35 bc
       0.05431095 -0.091445215 -0.017891292 -0.011061862
000340 b1 c2 2d 3e 2e 9c 62 3d 74 12 1a 3d 38 45 50 3d
       0.169688 0.055324726 0.037615255 0.050847262
000350 65 b8 cc bd c7 ff bc bd ad 7f 4c 3d 38 a4 f7 3d
       -0.09996108 -0.09228473 0.04992645 0.12091869
000360 d1 b0 69 3e 2c 03 25 3e 03 05 46 3e 48 2e 09 3e
       0.22821356 0.16114491 0.1933785 0.13396561
000370 c4 01 9c 3d 8c b3 dd 3d 13 a8 75 bd 13 18 1e bd
       0.07617524 0.108252615 -0.05997474 -0.038597178
000380 57 76 18 be cd 7a 78 3d 45 33 12 3e fa 8e 3f bd
       -0.14888893 0.060663987 0.1427737 -0.046767212
000390 90 80 b2 bd 7f 04 ec bd 35 df d6 bd dd 62 86 3d
       -0.087159276 -0.11524295 -0.10491792 0.065618254
0003a0 8d 47 18 3e ef 06 5a 3e be e4 eb 3d 51 ab 8d 3c
       0.14871044 0.21291707 0.115182385 0.017293604
0003b0 e6 11 d4 bc 73 78 70 bd 2c 37 07 be 8e f8 05 be
       -0.02588744 -0.05870862 -0.1320464 -0.13083097
0003c0 93 bb 42 3d 28 60 7b bd 96 5f 91 3c 14 70 09 bd
       0.047542166 -0.061371 0.017745774 -0.03355415
0003d0 07 e1 fc 3b b8 cd a7 3c 4a aa 5e 3c 63 41 0b 3e
       0.007717255 0.020483837 0.013590405 0.13599162
0003e0 f0 43 93 bc 82 cb 6e 3d 7c 58 83 bd eb b6 91 bd
       -0.017976731 0.05829955 -0.064133614 -0.07114967
0003f0 87 3c 21 bd 3e 0b 23 bd 60 a4 1c bd 9b a4 3d bd
       -0.039364364 -0.039805643 -0.038242698 -0.046299558

gru.weight_hh_l0 f4 [192, 64]
000000 26 4c 0f 3e 0c a1 af bc b2 12 45 3e 91 06 f9 3c
       0.13993892 -0.021439098 0.19245413 0.030398639
000010 0a 00 59 3d e9 70 8b bd a2 5f da bc 04 95 a3 bd
       0.052978553 -0.06808645 -0.02665693 -0.07987407
000020 3a d8 df bd 5a 17 a1 bd 73 fe 5b bd 6c ae 5c 3d
       -0.10929914 -0.07865782 -0.05370946 0.05387728
000030 d0 60 0a 3d 6d 69 93 bd d4 90 99 bd ff b7 9e 3e
       0.033783734 -0.07197843 -0.07498327 0.30999753
000040 9b ff b9 bd 7d 35 26 3c a0 20 9c 3d 09 b1 0b be
       -0.09081956 0.010144589 0.0762341 -0.13641752
000050 32 3a 72 bd 78 a6 bf 3c fb 68 77 3c 77 6c 4d bd
       -0.05913753 0.023394808 0.015100713 -0.05015227
000060 51 8a 53 3d 54 ba 55 bd 98 dd 7c bd 04 99 7a 3c
       0.05164558 -0.05217965 -0.061734766 0.015295271
000070 cf 02 3b 3b f8 c6 46 be d6 de 6c 3d 63 fb 21 bc
       0.002853561 -0.19411838 0.0578297 -0.009886595
000080 81 f4 fa 3d 2f 64 07 3e 39 38 de 3c e1 68 42 bd
       0.12253667 0.13221811 0.027126418 -0.0474633
000090 86 6b 51 3d b1 59 87 3d 93 84 bc 3d e6 a4 82 bc
       0.051127933 0.06608904 0.09204974 -0.01594777
0000a0 72 d8 3f 3d 9c 78 0a 3e b1 88 df 3c d8 99 09 be
       0.046837278 0.13522571 0.02728686 -0.13437593
0000b0 71 95 f5 3d e8 b4 ec bd 24 3b 9c bc 03 f9 a6 3d
       0.11991394 -0.11557943 -0.01907117 0.08152964
0000c0 19 b9 57 3c bf 22 c6 3c ee cd 0c bd f5 0a f0 3c
       0.013166689 0.02418649 -0.034376077 0.0293021
0000d0 3a 98 24 be d6 67 b1 3d d6 b0 98 3d 30 8d 36 bd
       -0.16073695 0.08662383 0.07455604 -0.04456824
0000e0 e5 99 3d 3e ef de b1 bc f3 f0 3e bc 58 8a 8d be
       0.18515737 -0.021712748 -0.011654126 -0.2764461
0000f0 12 e3 90 3e a4 53 32 3d 24 71 75 3c 90 ce 77 3c
       0.2829824 0.043536797 0.014980588 0.015124932
000100 5f f6 c9 3c c5 f9 0d 3d e7 fe 2b 3d 3d 73 5d 3d
       0.024653612 0.034662027 0.04199114 0.054064978
000110 dc e2 c0 bd cb af 3e bd b7 9b 49 bd 0d 12 d5 3d
       -0.0941827 -0.046554368 -0.049220767 0.104038335
000120 c5 cb f6 3c d8 93 c5 3c 2f 96 a1 bc ea 48 57 3d
       0.030126462 0.024118349 -0.019724933 0.05255977
000130 27 53 45 3d 09 c4 84 3d da d4 81 3d c0 12 6a 3d
       0.048175003 0.06482703 0.06339426 0.057146788
000140 19 11 88 bd 77 59 25 be 26 d0 a1 bd f3 98 59 bc
       -0.06643886 -0.1614741 -0.07901029 -0.013281095
000150 8c 15 7c bc 46 d9 6d bd 1e 40 e3 3c bf 4b 88 bc
       -0.015385997 -0.058068536 0.027740534 -0.016637681
000160 25 1d e0 bd 07 b5 d6 3b d6 8b 40 3d e5 d6 2f bd
       -0.10943059 0.006552342 0.047008358 -0.04292955
000170 26 f9 14 3e 36 5c f0 bd 10 b7 4e bd c5 98 6b 3d
       0.14548168 -0.11736338 -0.05046755 0.05751874
000180 8d 8d 9b 3d 97 fc c9 bd 8c 22 56 3d 1a c5 12 3c
       0.07595358 -0.09862631 0.05227904 0.0089581255
000190 fe 29 22 3e 37 0b 3a 3e 38 66 08 3e 57 1b 8c bb
       0.15836331 0.1816834 0.13320243 -0.00427572
0001a0 33 85 4a bd b0 e4 22 bd 7d da 1c bb 28 19 7b 3d
       -0.049443435 -0.039768875 -0.002393394 0.061303288
0001b0 97 6d b9 bd af 2a c0 3b c2 cc 08 3d c4 a5 69 3b
       -0.09054106 0.0058644633 0.033398397 0.0035651783
0001c0 a8 2d bf 3d 16 24 45 bd 5f 7c 18 3e f7 f5 58 3d
       0.0933488 -0.048130117 0.14891194 0.052968945
0001d0 ee 44 4e 3d b4 61 81 bd 56 c1 13 be 3c b3 57 3d
       0.050358705 -0.063174635 -0.1442922 0.052661166
0001e0 1e c4 a1 3d f6 27 33 3e 00 1c c3 3b 25 01 0f be
       0.078987345 0.17495713 0.0059542656 -0.1396528
0001f0 94 8f d5 3d 28 d8 03 be a3 5e 1d be 76 76 a4 3b
       0.10427776 -0.12875426 -0.15368132 0.0050190045
000200 0a f2 f0 bd 5d 9f 0d 3d 05 fd 08 be 00 8a 54 bc
       -0.11764915 0.03457581 -0.1337777 -0.012972355
000210 7f 71 e8 3d 7b cf ed 3b 09 3e 18 3e 6a 84 85 3d
       0.11349773 0.0072573996 0.14867415 0.065193966
000220 08 79 8c 3b b6 b0 59 3d 71 ac f2 3a 25 bc f1 bc
       0.004286889 0.05314704 0.0018514526 -0.02950866
000230 2d 49 3d 3d cd 7c 60 3d 1f 7f 81 3d ba b4 1b 3e
       0.046212364 0.05480652 0.063230745 0.1520566
000240 1b f8 13 bc c3 3e a2 bd 6c f3 ab 3a 55 8e be 3d
       -0.009031321 -0.07922127 0.001311881 0.093044914
000250 35 35 c8 bc 53 cc 87 3d 4a e5 3f be 6d e5 0d be
       -0.024439434 0.066307686 -0.1873981 -0.1385705
000260 39 46 21 3e 38 1f 9f bd 0c 1c 05 be 38 54 9b 3d
       0.15749444 -0.077696264 -0.1299898 0.07584423
000270 7a 0e 8a bb be 62 63 bd 3e ef f5 bd 02 62 1f be
       -0.0042131515 -0.05551409 -0.120085225 -0.15564731
000280 5f ad b6 3d 1f 5a 4b bd 29 5b a3 3d 63 0b 78 3d
       0.08919787 -0.049646493 0.07976372 0.060557734
000290 3c fe e5 bd b5 99 f9 bb c6 fd 19 be c5 93 1e be
       -0.11230132 -0.0076172003 -0.15038213 -0.15486057
0002a0 5b f2 b2 bd 62 69 0e be ab 83 9c bd 19 85 01 3e
       -0.08737632 -0.13907388 -0.07642301 0.12648429
0002b0 27 c0 ce 3d 36 c5 18 bd fe a1 b5 3d e6 6a d9 3c
       0.10095244 -0.03729745 0.08868788 0.026540231
0002c0 59 c1 01 be f2 64 d5 bb 80 09 2f bd d7 2a 8f bd
       -0.12671413 -0.0065122778 -0.04273367 -0.06990593
0002d0 ef 11 57 3d 7b b4 22 be 00 0f 23 3e 7d 84 29 be
       0.052507337 -0.1588916 0.15923691 -0.16554447
0002e0 1d 21 02 3e 5a 73 e1 bd f6 86 33 3d 6f 1b 09 bd
       0.12707944 -0.1100833 0.04382988 -0.03347343
0002f0 5f 87 c4 bc e2 fe 35 3e f8 58 43 bc 69 19 88 3d
       -0.023990331 0.17773011 -0.011923067 0.066454716
000300 2c 88 17 bd f3 27 c6 3d 80 b7 1c 3e 55 e4 2c 3e
       -0.036995098 0.096755885 0.15304375 0.16883977
000310 fa 69 66 bd cb 09 f4 bd f5 0d 8e 3d 4b 91 17 bd
       -0.05625341 -0.1191593 0.06936256 -0.037003797
000320 61 da 19 3e 95 ef b5 bb c3 0f bc bd 3b d3 a7 bd
       0.15024711 -0.005552242 -0.09182694 -0.08194586
000330 6a 45 37 3e ac 29 1f bd 2b af 1c be 45 b9 df 3c
       0.17897573 -0.0388581 -0.15301196 0.027310023
000340 fb 2c d0 bd fe ed 66 3d 40 b4 bf 3d 3b a8 d9 bd
       -0.10164829 0.05637931 0.09360552 -0.106277905
000350 c3 41 07 bd bb 5b 0d be c6 d6 8a 3d 7c 05 ae bd
       -0.0330217 -0.13804524 0.06779246 -0.0849714
000360 48 6c a1 bc 23 8e 3d 3e ef 13 2e 3e 6f 7a bd bb
       -0.019704953 0.18511252 0.16999792 -0.0057824175
000370 5b 6c 00 3e 04 ea 1f 3d 79 00 c5 3d 36 69 d9 3d
       0.12541334 0.039041534 0.09619231 0.106157705
000380 90 14 17 bd b5 86 a9 3d 31 a4 4c 3d 6a ad de bd
       -0.036884844 0.082776465 0.049961273 -0.1087292
000390 b5 e5 65 3d 94 ea 8c bc d1 b7 eb 3d f7 b2 81 bd
       0.05612727 -0.0172017 0.115096696 -0.06332963
0003a0 5f b7 b9 3d 35 9d d5 3c c7 0f c0 bc 8f fc 80 bc
       0.090681784 0.026075939 -0.023445023 -0.01574543
0003b0 cf 5c d0 bd 85 b5 88 3c 2b ac 2e bc 29 80 2d bd
       -0.10173952 0.016688118 -0.010661165 -0.04235855
0003c0 4a 21 1a 3e 61 24 82 3d 16 49 fd 3c 5e a9 2f 3d
       0.15051761 0.06354595 0.03091864 0.04288613
0003d0 21 c1 27 bc 5b 1a 9f bb c6 09 6b bd d7 b5 f8 3d
       -0.010238917 -0.0048554367 -0.057382368 0.12144058
0003e0 ae f9 3e 3d 63 28 a9 3d 9b c7 2a be 81 bd 98 3d
       0.04662483 0.08259656 -0.16677706 0.0745802
0003f0 e4 af 5f bc 54 81 44 3d dd 48 32 3d cf 56 43 bc
       -0.013652775 0.0479749 0.04352652 -0.011922552

gru.bias_ih_l0 f4 [192]
000000 84 46 36 3d d2 d6 02 3e 9a c3 a8 bd 27 c1 f2 3c
       0.044500843 0.1277726 -0.08240433 0.029633118
000010 8b 54 a9 3b 80 ce a5 bc 8d 56 0d 3e bf 4f 9d bd
       0.005167549 -0.020240068 0.13802548 -0.07681226
000020 28 83 bb 3d d0 96 44 3e 4e 4b c1 bd 35 ec 5a 3d
       0.091558754 0.19198155 -0.09438191 0.05344792
000030 e5 f4 eb 3d bb 16 9e 3d 8b 38 47 3e de ea 16 be
       0.11521319 0.07719179 0.19455163 -0.14738032
000040 80 dd 1d 3e 03 26 38 bd 24 e2 20 3e 64 d9 aa 3d
       0.15416527 -0.044958126 0.15711266 0.08342245
000050 0f e6 d2 3d a0 0c ea bc 9f bd 4a 3b 8b 6e 44 bd
       0.102977864 -0.028570473 0.0030935777 -0.047956984
000060 b3 ce 0b bd f1 8a 1c 3e 1b 60 b2 3d 1d 29 92 3c
       -0.03413267 0.15287377 0.08709737 0.01784187
000070 e6 cd d6 bc cc 3b 04 3d 8e dc 98 3d 8a 66 f6 ba
       -0.026221227 0.03228359 0.074639425 -0.001879887
000080 c8 97 54 3e a4 86 d0 bd c0 e6 13 3e d4 91 2f 3e
       0.20761025 -0.10181931 0.14443493 0.17145473
000090 4e 2b d0 3d 98 a1 14 be 92 b0 2d 3d fb e7 07 bd
       0.1016451 -0.14514768 0.04240472 -0.03318022
0000a0 df 32 c4 bc a6 56 98 bb 41 6d 44 3c ca b0 15 bd
       -0.023950038 -0.004649001 0.011988939 -0.036545552
0000b0 33 4b 38 bd eb ee 0d be 7a 06 b6 bb a4 ba 25 bb
       -0.04499359 -0.13860671 -0.0055549713 -0.0025288248
0000c0 9c 0b 0c be 7b 44 a5 3b 47 3c 65 bd 67 b0 86 3d
       -0.13676304 0.005043564 -0.055965688 0.06576615
0000d0 27 8e 4f 3e a5 ab 10 3e f0 69 53 ba 75 37 0f 3e
       0.2026907 0.14127977 -0.0008064797 0.13985999
0000e0 12 ec b3 bd e9 c4 83 bd 81 be d0 3d a5 54 2c be
       -0.08785261 -0.06434042 0.10192586 -0.16829164
0000f0 e1 9d 0f 3d d2 fc 32 3c 47 4f 74 3d 11 a6 3e bd
       0.035062674 0.010924535 0.059645917 -0.046545092
000100 0c 25 12 be 95 90 52 3d 14 62 16 be 00 b0 d8 3c
       -0.14271945 0.051407415 -0.14685851 0.02645111
000110 ad 33 06 bc ca 58 3f 3d 2a 59 c5 bd 7e da 2e be
       -0.008191031 0.046715535 -0.09636147 -0.17075536
000120 64 f8 1f 3d 10 b9 ba bd 7c c6 25 3d e1 f7 a4 3e
       0.039055243 -0.09117329 0.040472493 0.32220367
000130 0c 9a 11 be fd 1b 09 be f6 d4 17 3c ad 1b 69 3d
       -0.1421892 -0.13389583 0.009267082 0.05691116
000140 1e 94 20 bd 56 86 81 3d 05 8f 21 3d 66 15 cf bd
       -0.039203756 0.06324451 0.039443035 -0.10111503
000150 80 60 96 3d 74 08 a9 ba 56 1b 0f 3e e2 8e ca bd
       0.07342625 -0.0012896196 0.13975272 -0.09890534
000160 cd 36 27 3d f8 76 ab bd fd cf 18 be 18 68 02 bd
       0.040823746 -0.08372301 -0.14923091 -0.031837553
000170 b5 29 19 3e 90 bd 1b be 36 b3 3d bd dc 54 b0 bd
       0.14957316 -0.15209031 -0.046313487 -0.08609936
000180 b4 ff 2c bd 20 74 5b bd e4 dd f5 bd d6 c1 bd bd
       -0.042236045 -0.053577542 -0.12005213 -0.09265487
000190 dd b5 f3 bd a2 ee 0e 3d 95 4b 3e be c6 ef 75 bc
       -0.11899922 0.034895547 -0.1858352 -0.01501078
0001a0 42 3b 6c 3d 89 e6 4b bd 68 e6 17 be 75 00 1a bd
       0.0576737 -0.049780402 -0.14833987 -0.037598092
0001b0 c8 e3 69 3d cc 06 45 3d b9 fb 24 bd 28 98 34 be
       0.057101995 0.048102185 -0.040279124 -0.17636168
0001c0 77 5e 7e bd 56 fe 68 bd d9 0a 2b 3e c8 14 fc 3c
       -0.062101807 -0.05688318 0.16703357 0.030771628
0001d0 45 b3 f6 bd 3e c9 7a bd 72 ce 08 3e e8 c3 74 bd
       -0.12045912 -0.061227076 0.13360003 -0.059757143
0001e0 b1 2e 52 bd 30 cb b6 bd d6 df 03 3c 0e 24 52 bd
       -0.05131406 -0.08925474 0.008048972 -0.051303916
0001f0 0b f8 1e be 10 cb 35 be cf 06 4a bc 95 42 bd bd
       -0.15524308 -0.17753243 -0.012330725 -0.09241215
000200 b3 ed d7 3d d1 7e 14 3e 41 98 58 3d 27 d2 2b 3e
       0.105433844 0.14501502 0.052879576 0.16779386
000210 40 0c 2b bd a2 43 3b be 19 32 f1 39 15 49 3c be
       -0.04175973 -0.18287519 0.00046004428 -0.18387254
000220 97 b3 13 3e 30 55 a0 3d be 84 15 be 6d 8a 94 3c
       0.14423977 0.07828748 -0.14601418 0.018132413
000230 77 b1 43 3e 76 87 12 be d4 20 09 be 6d ad 1c 3e
       0.19110666 -0.14309487 -0.13391429 0.15300532
000240 76 80 8e bd 48 2a e4 3d eb 93 97 3b 99 49 00 be
       -0.06958096 0.11140877 0.0046257875 -0.12528075
000250 b6 eb 31 be 84 b2 55 bd 48 05 81 3d e2 72 22 bc
       -0.17375073 -0.0521722 0.062998354 -0.0099150855
000260 01 e1 09 be 9b 21 0a 3e ff 98 c3 3d 0f 96 72 bd
       -0.13464738 0.13489382 0.09550666 -0.05922514
000270 84 a7 ca 3c 65 11 23 be b3 72 23 3e e5 8c 41 3e
       0.02473808 -0.15924604 0.15961723 0.18901403
000280 f0 da 42 3d 06 9a 1c be 8f 85 0d be 3d 1e 19 be
       0.047572076 -0.1529313 -0.1382048 -0.14952941
000290 1f 0e 44 3e 61 68 42 3e 6b 9e ca 3c 90 e1 dd 3d
       0.19146012 0.1898513 0.024733743 0.10834038
0002a0 1a 37 35 3e 1a aa 3c 3e ca fc 0b be d9 44 02 be
       0.17696801 0.18424264 -0.1367065 -0.12721576
0002b0 c0 0a 2c be a0 89 26 be ef e1 d5 bd 94 79 21 3d
       -0.16800976 -0.16263437 -0.10443484 0.039422587
0002c0 fc 9a 04 3e 99 72 5f 3c a0 08 6f bd ef db 11 3e
       0.12949747 0.013638162 -0.058357835 0.14244054
0002d0 8c e4 a1 bd 99 00 12 3e 87 0e 0d be f2 c1 81 3d
       -0.0790492 0.1425804 -0.13775073 0.0633582
0002e0 41 6c 88 bd f2 8e 11 3e b3 be 84 bc 2c f0 2a 3d
       -0.06661273 0.14214686 -0.016204214 0.041732952
0002f0 4a 14 07 3e 9e c9 29 be 12 c7 31 be 46 11 15 be
       0.13191333 -0.16580817 -0.17361096 -0.1455737

gru.bias_hh_l0 f4 [192]
000000 97 b5 2a 3d ff e6 d2 bc fb b7 a9 3b 7a 46 31 3e
       0.041677084 -0.025744913 0.005179403 0.17312041
000010 3e cc 4a 3e 2e 69 17 3e e1 5b f9 3d 02 c1 2d 3d
       0.19804475 0.14786217 0.12175728 0.042420395
000020 eb 04 b6 b8 2c 34 e0 3d d6 05 90 3d 44 e7 85 3c
       -8.679352e-05 0.10947451 0.07032363 0.016345628
000030 04 43 91 3d 40 ad 60 3d 44 75 11 bd c2 53 69 bd
       0.0709286 0.054852724 -0.035512224 -0.056964643
000040 64 d4 cd 3d 4f 6f fd 3d 83 23 03 3e 34 4a 44 3e
       0.10050276 0.12374746 0.12806515 0.19168931
000050 9a f5 ba 3d b4 1a 32 3e 83 05 b0 bd 23 9e a3 3d
       0.09128876 0.17392999 -0.08594801 0.079891466
000060 58 78 41 3e 3f 25 ea 3d 1c 7e 84 3c 49 e9 d0 3d
       0.18893564 0.114328854 0.016173415 0.102007456
000070 ba aa 00 be 35 f9 4e bc 15 fd 02 3c 70 21 2a 3e
       -0.12565127 -0.012632658 0.00799491 0.16614318
000080 9f 21 c9 3d 39 0e 03 3c 63 2a 37 bb 51 c6 63 3d
       0.09820866 0.007998996 -0.0027948848 0.05560905
000090 85 c4 5f 3c d7 75 98 3d 14 b5 03 3e 90 bb a3 3b
       0.013657694 0.07444351 0.12862045 0.0049967244
0000a0 13 af 1e 3d d2 d8 16 3e cc 77 07 3b 7c 19 d4 3d
       0.038741183 0.14731148 0.002067077 0.10356423
0000b0 33 87 1b bd 2b 34 62 bd f0 ad 35 3e 6b ac 78 3d
       -0.037970733 -0.055225533 0.17742133 0.060711306
0000c0 1f ca 58 3d 4e 2a a3 bd 8d b3 ff 3c 5c 4b e6 bc
       0.052927133 -0.07967053 0.031213546 -0.028112106
0000d0 f3 5a 22 bd 16 ea 2d bd 2f 0a 40 be b7 4e 82 3d
       -0.039637517 -0.04245957 -0.18753885 0.0636267
0000e0 f2 98 10 be 4a 24 8b bd ba 02 5e bb 6b 37 66 bd
       -0.14120844 -0.06794031 -0.0033876137 -0.056205194
0000f0 2c 1f a9 bd f3 c2 06 3e 80 9a 6f 3d c8 bf c8 bc
       -0.08257899 0.13160305 0.058496952 -0.02450551
000100 f3 65 f2 bc 3b ed a0 bc c4 41 6f bd cb 87 e6 bd
       -0.029589629 -0.01964437 -0.05841233 -0.11256369
000110 18 37 af bd b0 88 78 bd dc b9 00 bd 21 2b dd bd
       -0.0855543 -0.06067723 -0.03142725 -0.10799242
000120 ec 55 a5 3c dd 3c 14 be 62 7a 11 3e 67 10 03 3e
       0.020182572 -0.14476342 0.14206842 0.12799226
000130 83 27 64 3b a6 8d 35 be 39 3a 0f be 51 ca 20 bd
       0.003481359 -0.17729816 -0.13987054 -0.039255444
000140 2b 9f 91 3d d6 f7 41 3d 90 96 8e bd 7a 35 f9 ba
       0.07110437 0.047355495 -0.06962311 -0.001901313
000150 f8 86 82 3c 0b 10 e9 bd 6b 83 06 3e 4a f5 bb 3d
       0.015933499 -0.11380013 0.1313607 0.091776446
000160 62 ac 91 bd b1 01 27 be 51 80 4b be 84 ea 82 3d
       -0.071129575 -0.16309239 -0.19873168 0.063923866
000170 8a d6 31 3d 31 cc 11 be 15 8f 8a bd ee 7b c9 bd
       0.04341749 -0.14238049 -0.06765572 -0.09838091
000180 da 54 32 3d 30 9b 16 be ad 25 08 3d ca ab d7 bc
       0.043537952 -0.14707637 0.033239055 -0.026327033
000190 82 3b 76 bd 06 83 dd bc 86 8a 97 bb 16 3a 1e 3d
       -0.060115345 -0.027040016 -0.0046246676 0.038629614
0001a0 e3 56 1a be 30 0c f5 3c d5 4b 20 bd a9 53 62 bd
       -0.15072207 0.029913038 -0.03913482 -0.055255566
0001b0 e4 8d 4a bd b1 41 ec 3d 09 17 ed bd 17 ac 33 bd
       -0.049451724 0.11535967 -0.11576659 -0.04386529
0001c0 11 9b 1b bd 8f 55 05 be 6f 77 5a 3e 99 34 a8 bd
       -0.03798968 -0.1302092 0.21334623 -0.08213157
0001d0 93 9b 78 bd 22 4f 37 be 78 b0 92 3d c0 62 0c be
       -0.060695242 -0.1790128 0.07162565 -0.13709545
0001e0 7d be c8 bd 74 14 d6 bc af 45 c5 bd 89 e4 e5 3d
       -0.09801958 -0.0261328 -0.09632432 0.1122523
0001f0 c1 06 17 be 4f f7 28 bd 1e 1e ab bc 6d 56 25 be
       -0.1474867 -0.041251477 -0.020888384 -0.1614625
000200 94 08 b7 3d 48 c9 8d bd 6d 77 85 bd e4 27 17 3e
       0.08937183 -0.06923157 -0.06516919 0.14761311
000210 9a d3 c6 bd b2 74 e8 bd c9 11 3a be 4f a3 28 3d
       -0.097083285 -0.11350383 -0.18170847 0.04117137
000220 0f ca f3 3c bb 26 3e 3e a5 ec 16 be 50 5e 9d 3d
       0.029759435 0.18569462 -0.1473871 0.07684004
000230 32 65 1b 3d 3d 18 54 39 0f 39 9c bd c1 6e ce 3b
       0.037938304 0.00020226925 -0.076280706 0.006299824
000240 58 b9 10 be 51 fb 04 3c 29 3e 44 3e bb 3a ac bd
       -0.14133203 0.008116559 0.19164337 -0.084096394
000250 b1 b1 55 be a5 3f ac bd ab 59 0e 3d fd 79 17 3e
       -0.20868565 -0.08410577 0.034753483 0.14792629
000260 ba 93 31 be 24 14 a0 3d 78 e0 3a 3e 89 fd a7 bd
       -0.1734151 0.078163415 0.1824969 -0.08202655
000270 93 ef 41 3d e1 8d 2b be 09 6f 88 bc 68 85 0a 3d
       0.047347616 -0.16753341 -0.016654508 0.033818632
000280 d5 6d 27 be d5 fe a6 bc 0c 29 35 bd 99 4c 28 be
       -0.16350491 -0.020385185 -0.0442286 -0.1643547
000290 c8 4d 50 3e 67 c0 ad 3d 22 09 27 3e a0 60 2e 3d
       0.20342171 0.084839635 0.16312078 0.042572618
0002a0 29 93 43 3e 1f 38 49 3e 0e ae 42 be 00 6f 06 be
       0.19099106 0.19650315 -0.19011709 -0.1312828
0002b0 08 45 20 be ce 29 5b bd 9a 3f 1e be d5 06 d4 3c
       -0.15651333 -0.053506665 -0.1545395 0.025882164
0002c0 c6 44 d5 3d e5 04 57 bc 7b 30 60 3d d5 dd 4d 3e
       0.10413508 -0.013123726 0.054733735 0.20104153
0002d0 68 a6 28 bd cb dc 60 3d 23 d6 85 bb b3 03 53 3e
       -0.041174322 0.054898065 -0.004084365 0.2060688
0002e0 66 ce 99 3d 6e 76 72 bd f3 fc 12 3d 6c 91 26 bd
       0.075100705 -0.059194975 0.035885762 -0.04066603
0002f0 e7 eb 87 3c 05 56 47 be fa ee 72 bc f0 03 09 bd
       0.01659198 -0.19466408 -0.014827484 -0.03345102

dense.weight f4 [64, 64]
000000 9a 91 a0 3d 9d 8c 1a bd 27 27 83 3d b4 40 0b be
       0.07840271 -0.037731756 0.06403952 -0.13598901
000010 52 68 c9 3d cd 43 9e 3d 53 fa cc bd 37 3d ad bd
       0.09834351 0.07727776 -0.10008683 -0.084589414
000020 ed 8e 4f 3c 81 ba 21 3d 4e 37 10 3e e1 b6 aa 3d
       0.0126683535 0.039484505 0.14083597 0.08335663
000030 5d 73 eb bd 27 d3 7c 3d 25 c9 c0 bd 14 05 52 bd
       -0.11496613 0.061724808 -0.09413365 -0.051274374
000040 47 98 a5 3c 71 69 8b 3c 06 a5 00 be eb 00 09 bc
       0.020214213 0.017018052 -0.12562951 -0.008362035
000050 f5 39 a6 bd 6f 07 b2 bd aa 5e 7d bc 68 d2 fd bc
       -0.08116523 -0.08692824 -0.015464464 -0.030984119
000060 2b ff 3a 3d 1c 2c 74 3d 50 c2 08 be 71 fa 4a bd
       0.045653503 0.05961238 -0.13355374 -0.049555246
000070 34 e8 78 bd ad 68 95 bd b6 e0 bd 3d ac b8 cd 3d
       -0.06076832 -0.07295356 0.09271376 0.10044989
000080 f7 81 cf bd 7b 27 e6 bd 05 b9 3e bd 81 d2 9c bc
       -0.10132211 -0.11237999 -0.046563167 -0.019143345
000090 5b 0d 54 bc 60 e6 0c be 2d 3a 1e bd e3 d6 f9 bd
       -0.012942637 -0.13759756 -0.0386297 -0.121991895
0000a0 9f b4 c8 3d ee 09 c3 bd ec 83 26 3d ac c2 14 3e
       0.09800076 -0.09523378 0.040653154 0.14527386
0000b0 cb bc 9f bd c9 ed ad bb 77 16 e1 3d c4 e6 a0 bc
       -0.07799681 -0.005307887 0.10990613 -0.019641288
0000c0 c2 bd d9 bd ce 6b 94 bd 8e 4c e9 bd 73 5b ae bd
       -0.106318966 -0.072471246 -0.11391555 -0.08513536
0000d0 66 73 67 bd b2 d4 14 3d 67 12 b7 3d db 56 51 bd
       -0.056506537 0.036335655 0.08939057 -0.051108222
0000e0 35 2d a7 3d 20 c3 86 bd e5 f7 8a 3d 63 ea f5 bd
       0.081629194 -0.06580186 0.067855634 -0.12007596
0000f0 63 a7 4b 3d 64 33 d3 bd f7 d0 74 3d 7a c7 53 3c
       0.04972018 -0.10312536 0.059769597 0.012925977
000100 93 11 0c be 25 41 f4 3d e6 1b 34 3d 3d 47 e4 bd
       -0.13678579 0.11926488 0.04397192 -0.111464
000110 f9 dd ee 3c 7f 9a 41 bd a6 d8 86 bd 22 cf f5 ba
       0.02915858 -0.04726648 -0.06584291 -0.0018753747
000120 f6 78 60 bb 63 5b ab bd b1 19 81 3d d5 0f 76 3d
       -0.0034251786 -0.0836704 0.06303728 0.060073692
000130 38 4f bf bd 82 eb 93 3d 20 ff 71 3d ad 35 a9 3d
       -0.09341282 0.07222654 0.059081197 0.08262191
000140 c7 90 3e 3c 06 4f 95 bc 28 28 f4 3c 5f 49 38 bb
       0.011631197 -0.018226158 0.029804304 -0.0028119904
000150 5e 0f b8 3d a6 e3 f6 bc 05 60 94 3d d2 3e b9 3d
       0.08987306 -0.030137848 0.07244877 0.09045185
000160 6e ef a2 3d b4 a3 83 3d 58 69 ee bd 2a df 5b 3d
       0.07955824 0.06427708 -0.116411865 0.053679623
000170 d0 63 9e bd 51 5f eb 3c de 90 8d ba 8f 6b cd 3d
       -0.077338815 0.028731974 -0.001080062 0.10030281
000180 5b a3 70 bd 6e a8 ff 3d 84 e5 8d 3d 71 cf 08 bc
       -0.058749538 0.12483297 0.06928542 -0.008350239
000190 08 8a 71 3d d1 94 c4 3d 43 9a ae bd 5d b0 ec bd
       0.058969527 0.09598697 -0.08525517 -0.11557076
0001a0 36 9a 47 3c 41 b4 6f 3d dd 75 39 3d bb d0 f8 3d
       0.012182763 0.058521513 0.04527842 0.12149187
0001b0 ce c6 fb b9 bc 3d 49 3d 31 02 af bd d6 c8 d6 3d
       -0.00048022572 0.04913114 -0.0854534 0.10487525
0001c0 68 09 74 bd 09 bd c7 bc ee 8d ce bd b2 99 69 3d
       -0.059579283 -0.024382131 -0.10085665 0.05703134
0001d0 fe b1 86 bd eb 64 06 be 94 b6 6c bd af 63 b1 bc
       -0.06576918 -0.13124435 -0.057791308 -0.021653978
0001e0 64 74 c5 bd 8c 62 9c ba 27 a2 33 bd 0a 9d ac 3d
       -0.096413404 -0.0011931225 -0.043855812 0.0842839
0001f0 99 3e 04 3d 08 6b a3 3d 3b 67 fb bc bb f3 65 3d
       0.03228626 0.07979399 -0.030688873 0.056140643
000200 5c a9 23 3e b3 17 6b bd bb fc 8b bc 4e 27 7d 3d
       0.15982574 -0.05739565 -0.017088285 0.061805062
000210 cf e4 54 bd d7 97 29 be 6b 31 58 bb f3 53 7d 3d
       -0.05197602 -0.16561829 -0.003298844 0.06184764
000220 df a0 bc 3d de 92 dd 3d 63 76 bc 3d 3f 07 98 3b
       0.09210371 0.10819028 0.09202268 0.0046395357
000230 81 c2 e4 3d f6 b6 80 3c b0 a8 97 3c a9 53 a5 3d
       0.11169911 0.015712243 0.018513054 0.080725975
000240 00 78 ab bd 41 32 47 bd df 92 42 bc 50 cf 1c bd
       -0.083724976 -0.04863191 -0.011875837 -0.038283646
000250 5b e2 37 be 6c ef 47 be 89 09 2c 3d e3 f1 99 3d
       -0.17957442 -0.19524926 0.04200128 0.07516839
000260 1a 62 bc 3a 41 b3 3c 3e fa f8 9c bc 62 d4 68 bd
       0.0014372498 0.18427755 -0.01916169 -0.05684317
000270 6e 08 bf bd ee 5a 88 bd 8b 7e 07 bd 6b 20 4e bd
       -0.0932778 -0.066579685 -0.033079665 -0.050323885
000280 f4 bb 97 3b c2 d8 75 3c d5 a2 3d be 38 42 1d be
       0.00463056 0.015005292 -0.18519147 -0.15357292
000290 31 7d c6 3d 86 df 16 3e f8 a1 2c 3d f3 05 46 3e
       0.09691847 0.14733705 0.042146653 0.19338207
0002a0 9b 5a 3f 3e dd 5f de 3c 69 ce 3d bd cd 0b 33 3c
       0.18686907 0.02714532 -0.046339426 0.0109281065
0002b0 d4 f3 2e be 3f 5d 5b 3b 6c 1b 4a 3d bc 22 5f 3d
       -0.170852 0.0033472327 0.049342558 0.054476485
0002c0 3e 6a 36 bd eb 8f 8c ba 9a f9 6e bd cd fb ab 3d
       -0.044534914 -0.0010724043 -0.058343507 0.083976366
0002d0 1f 84 75 bd 94 ef 39 3c d2 33 3b 3d 8e af 93 35
       -0.059940454 0.011348624 0.045703717 1.1003447e-06
0002e0 10 55 0f 3d 77 91 99 3d bc 1e e1 3d 26 da 07 bc
       0.03499323 0.07498448 0.1099219 -0.008291757
0002f0 04 81 20 3e 0b 0a 02 be d1 6b 01 bd 6c 2a 86 3d
       0.15674216 -0.12699144 -0.031596962 0.0655106
000300 4b e8 08 be 9f a6 86 bd ac 47 91 3c 2d ae 51 bd
       -0.13369863 -0.06574749 0.017734371 -0.051191498
000310 d9 ff ea 39 27 f5 43 bd 70 23 4e bc 59 ee 71 bc
       0.0004482258 -0.047841217 -0.012581691 -0.014766299
000320 7f c4 c3 3d 78 f2 46 3d 06 64 56 3d 78 85 05 3d
       0.09558963 0.04857108 0.052341484 0.03259799
000330 b7 74 a3 bd 76 de b3 bb 76 06 81 3d 62 7c a6 3d
       -0.07981246 -0.005489166 0.063000605 0.08129193
000340 1d 93 2e 3b 9e 45 c9 bd 81 c3 e5 bc 56 d0 cb 3d
       0.002663798 -0.098277315 -0.028047325 0.09951846
000350 24 03 00 3d 1c 06 bf bd 90 cb 0d 3d 4b 14 b1 bd
       0.031252995 -0.09327337 0.03461796 -0.08646449
000360 b0 a6 9b 3d 04 5d 9e 3d 43 44 3d 3d ce de 98 bd
       0.076001525 0.07732585 0.046207678 -0.074643716
000370 2b 21 33 3d 64 3b 6e 3c 0a ca 11 bb 0d 87 b4 bd
       0.043732803 0.014540527 -0.0022245669 -0.088148214
000380 d1 dc a2 bd 72 49 0e bd f9 b6 09 3d e0 81 b9 3d
       -0.07952274 -0.03473801 0.033621762 0.09057975
000390 af b9 0c be a9 43 23 3d ed 86 c9 3d 79 f3 d7 bd
       -0.13742708 0.039859448 0.09840188 -0.105444856
0003a0 72 fc dd bd 6a 19 17 bb 95 66 40 bd ee 7e 4a 3d
       -0.10839166 -0.002305592 -0.04697283 0.049437456
0003b0 c5 5b b1 bd 11 04 53 3c 96 cc bc 3d e7 19 b7 3d
       -0.08660082 0.0128793875 0.09218709 0.08940487
0003c0 1d fe f7 3a 7d 85 11 3d 71 f1 ba 3d 5e ea 02 be
       0.0018920336 0.035527695 0.091280825 -0.12784716
0003d0 f8 f8 f1 3d a5 f2 85 3c 48 1c a5 bd 2c 16 22 3d
       0.11815065 0.016351053 -0.08062035 0.039571926
0003e0 d8 d1 b2 3c 5b c2 c5 bd ee 4a 52 bd b0 e7 16 3c
       0.021828577 -0.09656211 -0.05134099 0.009210512
0003f0 5e ca 59 bc 0a 2f 72 3d 97 ac f7 3d 10 ba 03 3e
       -0.013292877 0.05912689 0.12093466 0.12863946

dense.bias f4 [64]
000000 3f 21 03 be 89 83 07 bd 14 31 86 bb 49 f9 6d 3d
       -0.12805651 -0.033084426 -0.004095206 0.058099065
000010 7e 2c b1 bd 5f 03 84 3d 79 8b a7 3d 39 ef 07 be
       -0.08651064 0.064459555 0.08180899 -0.1327485
000020 52 19 d7 3d 19 d3 2e bd a6 17 15 3d 1c 4a 25 3d
       0.10502876 -0.042681787 0.036399506 0.04035388
000030 01 df 1f bd d1 f9 81 3d a0 25 61 3d fe fa c5 3d
       -0.039031032 0.06346477 0.054967523 0.096670136
000040 e6 29 3e 3d a7 a9 fd bc e3 f2 2c 3a 40 80 3f 3e
       0.046426676 -0.030964686 0.0006597472 0.18701267
000050 65 86 b3 3c e6 02 27 3e 77 f9 09 3e 44 ce 0f be
       0.02191467 0.163097 0.1347407 -0.14043528
000060 34 a5 13 3d 06 e5 51 bc e2 fe 7a bc 55 e4 ca 3a
       0.03604622 -0.012810951 -0.015319558 0.0015479425
000070 b7 9c ac 3b da bf 8d 3b 45 42 83 3d 88 53 cb 3c
       0.0052677053 0.004325849 0.06409124 0.024820104
000080 44 4e c9 3d c0 97 e7 3c 71 15 72 bd b1 39 c4 bd
       0.09829381 0.028270602 -0.05910248 -0.09581316
000090 e9 a6 02 bc 26 d7 8c 3d 30 18 0b 3d 97 ff 80 bd
       -0.007974365 0.06876974 0.033958614 -0.0629875
0000a0 aa 36 0b 3e ad 19 d0 bc 30 f0 e8 bb 37 29 af 3d
       0.13595071 -0.025402868 -0.0071087107 0.08552783
0000b0 fd fa bc 3d 4a a7 2b 3e 39 8a 00 be ab 82 a5 3d
       0.0922756 0.16763034 -0.12552728 0.080815636
0000c0 fb 27 9d 3d ff f3 2e 3e 24 b9 76 bd fb a6 81 3d
       0.07673641 0.17085265 -0.060235158 0.06330677
0000d0 eb 41 27 bb 56 49 b8 bd 98 a1 b7 bd ed 02 c2 bc
       -0.0025521468 -0.08998363 -0.089663684 -0.023683036
0000e0 45 12 09 3d 7b a6 56 3d ad d1 71 3a 3b 0a 61 3d
       0.03346469 0.052404862 0.00092246645 0.054941397
0000f0 4f d2 ba bd b5 4e 27 3e 1a 60 04 be 64 1f bb 3d
       -0.091221444 0.16338618 -0.12927285 0.09136847

output.weight f4 [1, 64]
000000 92 72 76 bd c8 bc 36 bd 35 12 a9 3d 68 4a ef 3b
       -0.060167857 -0.04461363 0.08255426 0.007302571
000010 e7 c9 85 bd 4f 70 89 3d 27 26 91 bd d1 ae 84 bd
       -0.065326504 0.06710874 -0.07087355 -0.06478656
000020 59 f1 ba 3d f9 21 85 3d d5 e2 74 bc 9e f9 f3 3d
       0.09128065 0.065006204 -0.014946659 0.11912845
000030 81 5d 92 3d 18 8d be 3d 1c 81 95 3d 9f d8 72 3d
       0.07146741 0.09304255 0.07300016 0.059288617
000040 0c e6 ac bc f1 fd 1c bd 0e fa eb 3d d6 2c a3 3d
       -0.021105789 -0.038328115 0.115223035 0.07967536
000050 60 6e df 3d 23 03 cc 3d ae ce 81 3d 5d 75 cc bd
       0.10909724 0.09961536 0.06338249 -0.09983323
000060 06 ac b4 3d 8b e4 19 bc 65 5e b0 3d 75 55 df bc
       0.08821873 -0.009392868 0.08611754 -0.027262429
000070 93 66 df 3d 4f 9b 03 3e 01 4d 3c bd b0 95 bc 3b
       0.10908236 0.12852214 -0.045971874 0.005755149
000080 85 c9 90 bd 2d 5c a8 3d 23 1c 95 bd 83 d1 aa bd
       -0.07069687 0.08220706 -0.07280757 -0.083407424
000090 0f 9e 94 bd 8f 14 96 bd ae 06 cb 3d ce f0 12 bd
       -0.0725671 -0.0732814 0.099133834 -0.03587418
0000a0 7d dd c5 3d e9 15 23 bb 71 94 52 bc 4b 4a 92 3b
       0.09661386 -0.0024884886 -0.012852774 0.004464423
0000b0 ef 38 9e bd 2b 57 90 3d 9d 90 23 bd 14 df 95 3d
       -0.07725703 0.07047876 -0.039932836 0.073179394
0000c0 8e 70 ae bd 4f 56 87 3d 6e cc ca 3d bf a6 14 bc
       -0.08517562 0.06608259 0.09902273 -0.0090729585
0000d0 27 2b 90 3d ca 39 d0 bd 99 c9 0b bd 4f ff c7 3d
       0.07039481 -0.101672724 -0.034127805 0.09765493
0000e0 39 92 a1 3d 5a e4 ad 3d 53 44 a7 3d 01 b6 05 3b
       0.07889218 0.0849082 0.08167329 0.0020402672
0000f0 23 a2 16 bd 7b 25 f1 3d 52 7e 0a bd 5e 35 89 3d
       -0.03677572 0.11774727 -0.033811875 0.06699632
